RollerBall/results/RollerBal/RollerBall/RollerBall-12546.onnx (onnx, 79314 bytes, 8 tensors)

network_body._body_endoder.seq_layers.0.weight f4 [128, 8]
-0.27616072 -0.5006185 -0.096231304 0.55709636 -0.004194574 -0.4148165 0.25926623 -0.28901353
0.15059134 -0.024782415 -0.25651273 0.007355888 -0.21375726 -0.6218037 0.11795823 -0.17729162
0.4152422 0.09223208 -1.1909084 -0.049638554 -0.39950293 0.41421962 -0.26126936 0.07382746
-0.94116145 0.05935365 0.8786985 -0.40882778 -0.19778894 0.38855386 -0.26666945 -0.12604071
-0.64031893 0.5842204 -0.28728986 -0.19533516 0.28294027 -0.27484244 0.039664827 0.51008606
0.31829354 -0.24804525 -0.35071388 0.25808972 0.07473669 -0.4335522 0.19594665 -0.19825338
-0.19741662 0.010977432 0.08712263 -0.6866442 0.79544306 0.20154932 -0.4382573 0.3393913
-0.3272183 0.33362368 0.0067127543 0.19211803 -0.049973194 -0.15538447 0.42977098 -0.18050605
0.2915368 0.12790194 0.114933744 0.7168101 -0.23210564 0.31644097 0.24754871 -0.34577775
0.21875684 -0.25824538 0.21571724 -0.16823255 0.40902996 -0.06438858 -0.544383 0.17643906
-0.021058781 -0.040046386 -0.5256263 0.12875743 0.09215245 0.16169165 0.31400874 -0.12667087
-0.03055127 0.02165606 -0.26607716 0.4603082 0.36364278 -0.20297489 -0.09971429 -0.15766196
0.30786413 0.16217874 -0.021325722 0.31843996 0.01375062 0.10439836 -0.0759485 -0.22814992
-0.11515334 -0.16278563 -0.064922266 0.21356338 -0.12790677 0.71813166 0.23157467 0.1406434
0.09442692 -0.031130845 -0.11110619 -0.2792641 0.39140204 -0.24930575 -0.15849175 -0.18430813
-0.2966456 0.3041095 -0.26181647 0.030893639 -0.15767725 -0.6014384 -0.26868546 -0.40269294
0.5396367 -0.08664016 -0.44131976 0.22344124 -0.07709759 -0.12842983 -0.26749602 -0.04187759
-0.29961663 -0.11906705 -0.016965723 -0.13585937 0.0012904342 0.17827289 0.28851777 -0.058726422
-0.54578006 0.2728861 -0.2306476 0.09605492 0.18818446 -0.24133617 0.5943626 -0.025886996
-0.18801041 -0.08019818 0.046167593 0.06911229 0.24385513 -0.46920946 -0.7005986 -0.25778124
-0.10733343 0.19103733 0.82407665 0.010819127 -0.31882986 -0.2210852 -0.27103168 -0.7234046
-0.55338585 -0.11188682 -0.6111516 0.17903434 0.122181654 0.3050147 -0.05207204 -0.43975854
-0.21629047 0.16222018 -0.5863697 -0.056004312 0.85734904 0.32012504 0.48909053 0.12258544
0.29537117 -0.6093684 0.257296 -0.061789617 -0.81939673 -0.010575815 -0.28583896 -0.06393484
-0.19068314 0.119811855 -0.19138914 0.107456 -0.42242017 0.4332893 0.0054425336 -0.19569331
0.021048501 -0.49066868 0.5611669 -0.61812454 -0.008520626 0.14614092 0.26315257 0.7168883
0.1844245 -0.17155334 0.1938505 0.38017404 -0.11718691 -0.15267129 -0.71798986 0.14357199
0.14856462 0.4474921 -0.23504125 -0.33029807 -0.30798537 0.135704 0.08366106 0.33151296
0.0075915675 -0.20104413 0.1764127 0.3629855 -0.13290498 -0.03380859 0.52191937 0.6175554
-0.14593512 -0.02311905 0.09563599 0.23406485 -0.53526497 0.32485655 0.0783426 0.042799294
-0.025155112 -0.24858643 -0.4295441 0.10664122 -0.30193627 -0.09760067 0.6506424 0.5468556
-0.0927974 -0.028220313 -0.30864707 0.19356447 -0.24347256 -0.22649227 0.037837245 0.49215537
00000000: f064 8dbe 8928 00bf eb14 c5bd de9d 0e3f
00000010: a372 89bb d462 d4be 8bbe 843e 95f9 93be
00000020: 9e34 1a3e 7e04 cbbc a355 83be a909 f13b
00000030: 2fe3 5abe 872e 1fbf 1694 f13d ef8b 35be
00000040: a09a d43e 2ce4 bc3d b06f 98bf cc51 4bbd
00000050: a68b ccbe 9814 d43e 19c5 85be da32 973d
00000060: f5ef 70bf d01c 733d 63f2 603f e051 d1be
00000070: 2f89 4abe 88f0 c63e e688 88be d110 01be
00000080: f1eb 23bf 788f 153f a817 93be f105 48be
00000090: 8cdd 903e 26b8 8cbe 9677 223d 0095 023f
000000a0: 5ff7 a23e 93ff 7dbe c590 b3be 5624 843e
000000b0: 8d0f 993d 8efa ddbe 3da6 483e ef02 4bbe
000000c0: 9527 4abe b0da 333c 596d b23d eac7 2fbf
000000d0: 28a2 4b3f f262 4e3e 4363 e0be b2c4 ad3e
000000e0: 2889 a7be b9d0 aa3e aaf6 db3b 97ba 443e
000000f0: b1b0 4cbd 1b1d 1fbe f10a dc3e 94d6 38be
00000100: 5044 953e baf8 023e 6262 eb3d de80 373f
00000110: 1aad 6dbe 8d04 a23e 697d 7d3e c809 b1be
00000120: cb01 603e bd38 84be fbe4 5c3e 2745 2cbe
00000130: 606c d13e 29de 83bd af5c 0bbf 71ac 343e
00000140: 7783 acbc ae07 24bd 728f 06bf fdd8 033e
00000150: 6cba bc3d 7f92 253e c1c5 a03e 02b6 01be
00000160: a846 fabc 0d68 b13c 443b 88be 84ad eb3e
00000170: 632f ba3e a6d8 4fbe 0137 ccbd 2372 21be
00000180: 5ea0 9d3e 2f12 263e 48b3 aebc 900a a33e
00000190: 484a 613c cfce d53d e38a 9bbd 22a0 69be
000001a0: 84d5 ebbd 47b1 26be f7f5 84bd 5cb0 5a3e
000001b0: fef9 02be 7ad7 373f e921 6d3e d304 103e
000001c0: e762 c13d 1d06 ffbc a48b e3bd b4fb 8ebe
000001d0: d965 c83e 024a 7fbe a94b 22be 45bb 3cbe
000001e0: efe1 97be 3eb4 9b3e cf0c 86be a814 fd3c
000001f0: 2576 21be def7 19bf 2491 89be c52d cebe
00000200: a125 0a3f 6570 b1bd aaf4 e1be c8cd 643e
00000210: 57e5 9dbd 1c83 03be 3df5 88be d687 2bbd
00000220: 5a67 99be 6dd9 f3bd b3fb 8abc b81e 0bbe
00000230: c923 a93a 2b8d 363e 9ab8 933e 1e8b 70bd
00000240: 3eb8 0bbf bab7 8b3e e22e 6cbe 71b8 c43d
00000250: 6db3 403e d420 77be 2628 183f f710 d4bc
00000260: cd85 40be f23e a4bd 3b1a 3d3d bf8a 8d3d
00000270: 29b5 793e 393c f0be 6e5a 33bf e7fb 83be
00000280: a1d1 dbbd 4a9f 433e b0f6 523f b542 313c
00000290: ab3d a3be 2964 62be aac4 8abe 0b31 39bf
000002a0: b2aa 0dbf eb24 e5bd 6e74 1cbf c754 373e
000002b0: 603a fa3d e32a 9c3e 7e49 55bd 0828 e1be
000002c0: 407b 5dbe 0c1d 263e 531c 16bf c764 65bd
000002d0: 3a7b 5b3f 6ee7 a33e 136a fa3e 130e fb3d
000002e0: e43a 973e 91ff 1bbf 4dbc 833e 1c17 7dbd
000002f0: fcc3 51bf 2f46 2dbc 7c59 92be 45f0 82bd
00000300: 7142 43be eb5f f53d 84fb 43be e411 dc3d
00000310: 7547 d8be 18d8 dd3e 4857 b23b d463 48be
00000320: e86d ac3c ed38 fbbe a2a8 0f3f 693d 1ebf
00000330: 199a 0bbc f7a5 153e efbb 863e fe85 373f
00000340: c7d9 3c3e aeab 2fbe bf80 463e 2ca6 c23e
00000350: b1ff efbd dd55 1cbe 2fce 37bf 8904 133e
00000360: 5321 183e af1d e53e a7ae 70be d41c a9be
00000370: 42b0 9dbe fdf5 0a3e 7d56 ab3d 11bc a93e
00000380: afc2 f83b 83de 4dbe 88a5 343e 3cd9 b93e
00000390: 3e18 08be e07a 0abd 829c 053f 1c18 1e3f
000003a0: 0470 15be 2964 bdbc cddc c33d b2ae 6f3e
000003b0: 2007 09bf 9953 a63e 1672 a03d 504e 2f3d
000003c0: 1812 cebc 718d 7ebe 34ed dbbe b666 da3d
000003d0: 6497 9abe dce2 c7bd 8090 263f bbfe 0b3f
000003e0: 900c bebd 492e e7bc fd06 9ebe c435 463e
000003f0: df50 79be 97ed 67be 3afb 1a3d cafb fb3e

network_body._body_endoder.seq_layers.0.bias f4 [128]
0.029494246 0.006011269 0.059056967 -0.024121102 -0.028116139 0.0019926804 0.0060247034 -0.030162303
-0.027264675 0.018208971 0.013998906 0.027893674 -0.037443038 0.039034616 0.016873509 -0.033023935
-0.00014547484 -0.0053055882 0.007220063 0.026661027 0.01789518 0.013779642 0.046498552 0.033684425
-0.0472784 -0.007852975 0.012558956 0.04246733 -0.01952063 0.057635948 -0.038484868 0.02025538
0.015652476 -0.058010772 0.009958428 0.028533742 0.036901236 0.01727673 -0.009320612 0.046724536
0.011151553 0.030274505 -0.001371917 0.011116109 0.013585474 0.00062414416 -0.0062058633 0.011676793
0.030354895 -0.012024371 0.038978558 -0.00039827396 0.027254619 -0.00077937706 -0.0048434613 0.030724559
0.03566424 -0.011256908 0.010195695 0.055647153 0.0006631091 -0.013460645 0.027118333 0.025322394
0.021379068 0.037177198 0.038009502 0.015793988 0.021012839 -0.0140855 0.015060598 0.036129415
0.035849936 -0.016516447 -0.01836633 0.037880853 0.0042693643 -0.00587027 0.0075045214 0.004003083
0.004658382 0.0347116 -0.0068541015 0.017125612 -0.0077760066 0.010210512 -0.009188513 0.03917435
-0.03219037 -0.01760838 -0.025472872 0.011293714 0.025837993 -0.044193115 -0.0043353373 0.037708748
-0.0053052423 0.0097093955 0.016074538 -0.007926462 0.017312739 0.022703465 0.008610195 0.0002619843
0.004408576 0.009427801 -0.008131642 -0.014996139 0.01545561 -0.0064682 0.008047996 0.0010783265
0.03222676 0.013240202 0.009018734 0.036702756 0.0047717933 0.04657687 0.017808087 0.03499971
0.0026596002 0.022514086 -0.049210113 -0.009735732 -0.025818892 -0.025541523 0.034573495 0.026972821
00000000: eb9d f13c 2efa c43b b8e5 713d 9e99 c5bc
00000010: d153 e6bc a197 023b e06a c53b ef16 f7bc
00000020: 2b5a dfbc fb2a 953c ab5b 653c 4681 e43c
00000030: df5d 19bd c3e2 1f3d 503a 8a3c 1b44 07bd
00000040: 9b8a 18b9 80da adbb 4796 ec3b 3a68 da3c
00000050: ea98 923c 02c4 613c 4475 3e3d aef8 093d
00000060: ffa6 41bd c4a9 00bc 14c4 4d3c 39f2 2d3d
00000070: bae9 9fbc ac13 6c3d 4fa2 1dbd 9cee a53c
00000080: 9f39 803c b49c 6dbd ad28 233c 98bf e93c
00000090: c025 173d ee87 8d3c 7bb5 18bc 3a62 3f3d
000000a0: 01b5 363c 3d02 f83c e5d1 b3ba 5720 363c
000000b0: 9c95 5e3c 9b9d 233a 8e5a cbbb 0550 3f3c
000000c0: d4aa f83c de01 45bc fba7 1f3d 6dcf d0b9
000000d0: 1445 df3c 1c4f 4cba e6b5 9ebb 12b2 fb3c
000000e0: ab14 123d e56e 38bc d80b 273c 45ee 633d
000000f0: 80d4 2d3a 0a8a 5cbc 4427 de3c e970 cf3c
00000100: 2823 af3c 1e47 183d daaf 1b3d 6562 813c
00000110: 1e23 ac3c dec6 66bc bac0 763c 70fc 133d
00000120: 62d7 123d 804d 87bc fc74 96bc f428 1b3d
00000130: 06e6 8b3b 655b c0bb 7de8 f53b 4b2c 833b
00000140: 57a5 983b c02d 0e3d 5f98 e0bb 034b 8c3c
00000150: dfcd febb fe49 273c 6b8b 16bc 4975 203d
00000160: 0dda 03bd 733f 90bc 7cac d0bc 4509 393c
00000170: 33aa d33c d703 35bd 720f 8ebb 7d74 1a3d
00000180: 99d7 adbb 2814 1f3c c0ae 833c fedd 01bc
00000190: 72d3 8d3c 9efc b93c c611 0d3c f05a 8939
000001a0: d175 903b 1077 1a3c 943a 05bc 5eb2 75bc
000001b0: 8739 7d3c 32f3 d3bb bedb 033c a256 8d3a
000001c0: 3500 043d 6fed 583c 50c3 133c a155 163d
000001d0: b45c 9c3b 63c7 3e3d 44e2 913c db5b 0f3d
000001e0: b04c 2e3b 766f b83c 8b90 49bd 9f82 1fbc
000001f0: 2482 d3bc 753c d1bc f09c 0d3d 1bf6 dc3c

network_body._body_endoder.seq_layers.2.weight f4 [128, 128]
0.050991517 -0.18917963 0.017635798 0.09520846 0.12974878 0.11620015 0.035979845 -0.0013082657
-0.026954478 0.030361965 -0.0637025 0.020495202 0.129991 0.03922302 0.09666732 0.030775681
0.027383067 0.23722766 -0.01358786 0.059110887 0.057484586 0.04649015 0.17892991 -0.22044547
0.13366723 0.14720389 -0.031324495 -0.05887797 0.017818412 -0.17476062 0.0098828105 0.051313818
-0.16405034 0.10715337 -0.053979337 0.0032891612 0.13039337 0.10755466 -0.12144502 -0.093500175
-0.09422876 -0.08977702 -0.115307376 0.03683646 -0.15235932 0.04641957 -0.021352936 0.06997334
-0.026677964 -0.15149179 0.016723095 0.013370994 0.09152689 -0.035633083 -0.03639983 0.025010591
0.21266581 -0.0074846083 -0.026312934 -0.15605335 -0.0265319 -0.07713629 0.020802269 0.08700079
0.14973557 -0.06060543 -0.05364782 -0.08926338 0.18158247 -0.254968 -0.07349693 -0.0034218535
-0.031526215 0.0346632 0.07066269 -0.055098213 -0.14918235 -0.031476956 0.029330242 -0.062404748
-0.07325884 0.14766471 -0.03890315 0.10926515 -0.014249459 -0.014074836 0.008652402 0.07858418
0.04483486 0.10389139 -0.12838079 0.06359717 0.09214924 -0.019706266 0.10595987 0.010245935
0.018224932 -0.07489804 -0.13628852 0.056431927 0.07276065 -0.06920556 -0.011920418 -0.11521397
0.20141223 -0.06286393 -0.1317384 0.027978085 -0.27186334 -0.059351783 0.08700938 -0.010062098
-0.017661532 -0.0074027195 0.19359915 -0.07170702 0.06830129 -0.04170235 -0.015182709 0.056105107
0.05794813 0.016229205 -0.023680044 0.18232095 0.033232447 0.020957164 -0.015547443 -0.08937386
0.09267129 -0.09504062 0.104914404 -0.057640504 0.11738883 -0.114494264 0.08720988 0.011625457
0.0036078151 -0.06404083 -0.06718488 0.15016007 -0.013913096 0.074378245 -0.06632414 0.025731863
-0.03571319 0.0868356 -0.060508948 0.048761103 -0.107883565 0.035436835 0.12220647 0.04998416
0.032140553 0.022383105 -0.08475224 -0.04635603 0.046608947 -0.16389182 0.012947159 0.11379085
-0.029101303 -0.029409533 0.18570979 0.04562101 0.057391398 -0.04960553 -0.066914946 0.017133342
0.13380733 -0.033130325 0.114600465 0.04553007 -0.07113057 -0.035889097 0.057036757 -0.08199394
-0.111146264 0.011759762 -0.2552659 -0.0844977 -0.04195674 0.07343401 -0.24664052 -0.0013229968
-0.098038696 -0.06876699 0.061965384 -0.078471296 -0.014377309 0.10606365 0.13424182 0.18762837
-0.051425938 0.038687404 -0.073493294 0.030216122 0.07195357 -0.03209073 -0.11021234 0.04115875
0.13322951 -0.13801582 0.024403205 0.05396276 0.026241977 -0.03625085 -0.060730763 0.046237517
-0.042213976 0.14807 0.14426014 -0.021309698 -0.0587592 0.1260029 0.011346077 -0.07222295
-0.22911933 -0.0032030009 0.12811051 -0.0018995237 -0.011189016 -0.06914039 -0.05379832 0.018826112
-0.14006704 -0.11992666 0.07774163 0.12200727 -0.052860476 -0.0010843518 0.06515545 0.13814552
0.119140565 -0.032842558 0.21310921 -0.076433286 -0.12543735 -0.0012051732 -0.07664717 0.07209826
-0.005756001 -0.022155926 0.11995807 -0.0035049433 -0.089571774 0.055075575 0.14365181 -0.056212183
0.017427575 -0.14772877 0.16460943 -0.08891675 0.16592574 -0.056502096 0.27329713 -0.016013479
00000000: 7bdc 503d 4eb8 41be f378 903c a7fc c23d
00000010: dddc 043e 58fa ed3d 9a5f 133d 1d7a abba
00000020: a3cf dcbc a8b9 f83c 7576 82bd 8ee5 a73c
00000030: 5c1c 053e 51a8 203d 84f9 c53d 481d fc3c
00000040: 7452 e03c cfeb 723e 9e9f 5ebc 421e 723d
00000050: f574 6b3d 756c 3e3d 6739 373e 75bc 61be
00000060: 10e0 083e 9ebc 163e 1d4e 00bd 072a 71bd
00000070: ebf7 913c 73f4 32be 83eb 213c 702e 523d
00000080: d0fc 27be 3a73 db3d 7019 5dbd f88e 573b
00000090: d785 053e 9e45 dc3d 2bb8 f8bd 057d bfbd
000000a0: 02fb c0bd 04dd b7bd 4626 ecbd d4e1 163d
000000b0: 1504 1cbe 7222 3e3d 5aec aebc 2f4e 8f3d
000000c0: bf8b dabc aa20 1bbe dffe 883c 0312 5b3c
000000d0: 7372 bb3d fff3 11bd fd17 15bd 03e3 cc3c
000000e0: 11c5 593e 7241 f5bb 398e d7bc 73cc 1fbe
000000f0: 6d59 d9bc a2f9 9dbd 8569 aa3c 782d b23d
00000100: 4854 193e 663d 78bd d1bd 5bbd b8cf b6bd
00000110: c1f0 393e 2a8b 82be 8f85 96bd 2d41 60bb
00000120: a221 01bd 00fb 0d3d 9ab7 903d aaae 61bd
00000130: 42c3 18be fbed 00bd fa45 f03c 1f9c 7fbd
00000140: bb08 96bd 6b35 173e e958 1fbd 68c6 df3d
00000150: 9076 69bc 249a 66bc cec2 0d3c bef0 a03d
00000160: c2a4 373d 02c5 d43d 4176 03be 3c3f 823d
00000170: beb8 bc3d 096f a1bc 7d01 d93d 91de 273c
00000180: 744c 953c 2564 99bd 388f 0bbe 2a25 673d
00000190: 8903 953d a5bb 8dbd db4d 43bc 4df5 ebbd
000001a0: 023f 4e3e cebe 80bd 6ee6 06be 4c32 e53c
000001b0: ac31 8bbe db1a 73bd f931 b23d 7fdb 24bc
000001c0: ebae 90bc 8392 f2bb db3e 463e 21db 92bd
000001d0: 8ce1 8b3d 15d0 2abd e6c0 78bc 78ce 653d
000001e0: 055b 6d3d 1cf3 843c a7fc c1bc 58b2 3a3e
000001f0: bf1e 083d 5cae ab3c b4ba 7ebc a409 b7bd
00000200: 72ca bd3d a8a4 c2bd 5ddd d63d 7318 6cbd
00000210: 8e69 f03d f87b eabd 189b b23d b378 3e3c
00000220: 1871 6c3b d727 83bd 3a98 89bd 90c3 193e
00000230: c1f3 63bc 9f53 983d f3d4 87bd a1cb d23c
00000240: fe47 12bd ddd6 b13d 3bd8 77bd b9b9 473d
00000250: 0ff2 dcbd 3726 113d 6347 fa3d 31bc 4c3d
00000260: d0a5 033d c65c b73c 9592 adbd d2df 3dbd
00000270: 06e9 3e3d 42d3 27be 5220 543c 2d0b e93d
00000280: db65 eebc 43ec f0bc b52a 3e3e 19dd 3a3d
00000290: 3e13 6b3d 2b2f 4bbd b40a 89bd 395b 8c3c
000002a0: ca04 093e aab3 07bd a6b3 ea3d bd7d 3a3d
000002b0: e7ac 91bd 7200 13bd 609f 693d 70ec a7bd
000002c0: a7a0 e3bd 04ac 403c 36b2 82be 210d adbd
000002d0: d5da 2bbd 9264 963d 558f 7cbe 6868 adba
000002e0: 83c8 c8bd b5d5 8cbd 6acf 7d3d 8fb5 a0bd
000002f0: ce8e 6bbc e637 d93d b076 093e a721 403e
00000300: 01a4 52bd af76 1e3d a783 96bd cd87 f73c
00000310: 655c 933d 9271 03bd 02b7 e1bd 1496 283d
00000320: 516d 083e 0554 0dbe 3be9 c73c 0e08 5d3d
00000330: 6af9 d63c c57b 14bd d2c0 78bd 8d63 3d3d
00000340: 90e8 2cbd a99f 173e eeb8 133e ad91 aebc
00000350: 7dad 70bd e706 013e e5e4 393c a0e9 93bd
00000360: 429e 6abe 70e9 51bb 672f 033e 70f9 f8ba
00000370: 2252 37bc 7a99 8dbd a15b 5cbd 3839 9a3c
00000380: bc6d 0fbe 1c9c f5bd 0137 9f3d f3de f93d
00000390: 3a84 58bd cf20 8eba 3870 853d 0576 0d3e
000003a0: f8ff f33d eb85 06bd 4d39 5a3e 0e89 9cbd
000003b0: a672 00be e7f6 9dba 31f9 9cbd 41a8 933d
000003c0: d69c bcbb 5880 b5bc 94ac f53d 31b3 65bb
000003d0: 6871 b7bd ed96 613d 7619 133e bf3e 66bd
000003e0: 46c4 8e3c 3646 17be 608f 283e fc19 b6bd
000003f0: 70e8 293e be6e 67bd 9aed 8b3e b32e 83bc

network_body._body_endoder.seq_layers.2.bias f4 [128]
0.016844176 0.04406839 0.013417173 -0.0010992604 0.0030694676 0.035507858 0.022910286 0.014738579
0.030126464 0.01595906 0.018181402 0.005249512 -0.0036485705 -0.0042766687 0.01245076 0.027774837
-0.002902844 0.018168664 0.012755845 0.0057078027 -0.012577619 0.0025517456 -0.026616102 0.031170756
-0.004944539 0.005346223 0.029201716 0.015459574 0.034434777 0.04708818 0.016533095 0.034234326
0.023223355 0.035453986 -0.028078947 -0.0014589439 -0.013666924 0.011746526 -0.002499714 0.012688378
0.015873339 0.013449796 0.039978072 0.005573826 0.026824838 0.0064273276 -0.01780428 0.02889743
0.011247589 0.034801036 0.0027030993 0.015060582 -0.013137055 0.026710248 0.04904862 0.020411203
0.015197568 0.029782997 0.021878708 0.037556976 0.022769673 0.018402033 0.02260774 0.022522569
-0.005247167 0.031405147 0.0020665426 0.004979965 0.009927739 0.06694515 0.019620601 -0.008221976
0.014578854 0.025557447 0.018567957 0.045713883 0.013469584 -0.000798346 0.005360755 -0.00057275716
0.0153613435 -0.0037799305 -0.015067253 -0.0016427555 -0.016978081 0.021513578 -0.004707277 0.03358163
0.026437264 0.0252595 0.017271541 0.01373793 -0.0007121105 0.01028628 0.004426417 0.010124589
-0.010268634 0.0042081084 0.0055331127 0.016322982 0.0040484467 0.04108144 0.010062299 0.027746454
0.050605975 -0.009787715 -0.005804098 0.0373949 0.031651475 -0.0015901319 -0.00562612 0.031283706
0.010990982 -0.016861878 -0.029087951 0.010691732 -0.01661314 0.0097193755 0.025449237 0.01817333
-0.046885792 -0.010048804 -0.0015118681 0.030564174 0.023918541 0.058133904 0.04066631 0.046442565
00000000: ccfc 893c 0e81 343d b4d3 5b3c 0f15 90ba
00000010: 1f29 493b b070 113d 5aae bb3c 157a 713c
00000020: c6cb f63c 93bc 823c 2af1 943c 1904 ac3b
00000030: db1c 6fbb 4c23 8cbb 46fe 4b3c 0e88 e33c
00000040: a43d 3ebb 73d6 943c e4fd 503c 8508 bb3b
00000050: 5c12 4ebc 303b 273b 030a dabc d059 ff3c
00000060: cd05 a2bb 5e2f af3b 7038 ef3c 274a 7d3c
00000070: 7b0b 0d3d 89df 403d 6a70 873c 4b39 0c3d
00000080: e83e be3c 3338 113d d205 e6bc 093a bfba
00000090: 3ceb 5fbc 8074 403c 3ed2 23bb eae2 4f3c
000000a0: ce08 823c 885c 5c3c 0cc0 233d a4a4 b63b
000000b0: c3bf db3c 559c d23b 48da 91bc 4eba ec3c
000000c0: cf47 383c 888b 0e3d 7b26 313b a9c0 763c
000000d0: cd3c 57bc 73cf da3c 35e7 483d 6535 a73c
000000e0: 38ff 783c 79fb f33c fa3a b33c 58d5 193d
000000f0: 7787 ba3c dcbf 963c de33 b93c 4081 b83c
00000100: 6df0 abbb afa2 003d d56e 073b f92e a33b
00000110: f5a7 223c 8a1a 893d 62bb a03c 78b5 06bc
00000120: 25dc 6e3c da5d d13c d41b 983c 7b3e 3b3d
00000130: 88af 5c3c 1848 51ba 46a9 af3b 1525 16ba
00000140: 25ae 7b3c b6b8 77bb a4dc 76bc ba51 d7ba
00000150: 9e15 8bbc 3e3d b03c 803f 9abb e48c 093d
00000160: f692 d83c 03ed ce3c 0c7d 8d3c 0e15 613c
00000170: edac 3aba c987 283c 7a0b 913b 9be1 253c
00000180: c63d 28bc 2ce4 893b 1d4f b53b c6b7 853c
00000190: d5a8 843b 0345 283d 57dc 243c 884c e33c
000001a0: 3648 4f3d a75c 20bc 4e30 bebb 652b 193d
000001b0: faa4 013d f96b d0ba 515b b8bb 5823 003d
000001c0: 8513 343c ec21 8abc db49 eebc 602c 2f3c
000001d0: 4818 88bc 043e 1f3c eb7a d03c 3ce0 943c
000001e0: 510b 40bd bda3 24bc e029 c6ba b861 fa3c
000001f0: d1f0 c33c d11d 6e3d b791 263d 8f3a 3e3d

action_model._continuous_distribution.log_sigma f4 [1, 2]
-0.006284801 -0.038434822
00000000: bbf0 cdbb d56d 1dbd

action_model._continuous_distribution.mu.weight f4 [2, 128]
-0.01406158 -0.043617614 -0.048342574 -0.017679447 -0.009303047 0.039667733 0.053763203 0.0034617495
-0.007930555 -0.038123373 -0.0012727535 -0.04867637 -0.020340785 0.018104868 0.02434193 0.029618785
-0.03223019 0.024805132 0.055144828 -0.031294454 0.0009869856 0.012647612 -0.0026402054 0.019637493
0.0012557885 -0.015922582 -0.06719113 -0.014948712 0.04751762 -0.09150779 -0.01843801 0.024279855
-0.0015099952 -0.049850807 0.0009663204 0.023777643 -0.0031444551 0.03341468 0.04009916 -0.029087588
0.026135193 -0.025848549 0.03109404 -0.06322847 0.0062345234 -0.031028457 -0.0044969255 0.021242367
-0.002990678 -0.025400916 0.022892278 0.014517754 0.014814202 0.036637604 0.06496856 -0.01604427
0.037214667 -0.057589117 -0.032118812 -0.062310915 -0.0008846251 -0.01749646 -0.010649811 -0.013217244
-0.02705201 0.058036886 -0.041854285 -0.040031977 -0.016287467 0.059087932 -0.0151909245 0.004285885
-0.03860708 -0.026620228 -0.030471042 0.059151217 -0.041638613 -0.0056290026 0.028270697 0.019798582
-0.019420732 0.008964558 -0.01077681 0.012819684 -0.0108733615 0.02919828 -0.0009741631 0.017064689
0.016383545 -0.042404857 -0.0010977801 0.023155322 -0.02468919 0.011723531 -0.014913777 0.035638027
0.0047619916 -0.020945352 0.019730458 -0.02052664 0.022545567 0.0674238 -0.023262419 0.0045270897
-0.01470344 -0.008040589 0.008847653 0.02808622 0.04022316 -0.028548984 -0.010032091 0.017488439
-0.028781462 0.011783249 0.0011905448 0.0034369484 0.0026090746 0.0013422102 -0.115364775 -0.040246647
0.012067774 -0.0039373813 -0.016714107 0.012783374 0.016892172 0.0012015391 0.074451216 0.0516217
-0.040496808 -0.0003294351 0.02590979 0.03717314 0.03377866 0.068548374 0.028619034 0.038806718
-0.04752471 -0.02435225 -0.040169198 -0.022338942 -0.036634274 0.038980298 0.023369268 0.034046553
0.0038573716 -0.034763355 -0.012597186 -0.009661496 -0.013811454 -0.04178263 0.004384854 0.05881699
0.014937636 0.0069262693 -0.033574924 -0.01398573 0.023536766 0.0034687847 0.03261755 0.05109468
0.04835618 -0.060020123 -0.0051876917 0.0378159 -0.0009781684 -0.04078398 0.020930842 0.0016338958
-0.013900815 0.015979543 -0.05083296 0.0058812164 0.07448944 0.029252414 -0.0045898654 -0.051906906
0.05738436 -0.048427735 -0.013769348 -0.036116384 -0.0074220137 0.012936813 -0.029755576 -0.043121375
0.051975917 0.0035668758 -0.035183292 0.01615834 0.029781269 0.058570705 -0.09152445 -0.03494042
-0.036346704 0.03259076 0.0049219183 -0.04748662 0.037222702 -0.018618628 0.042089775 -0.01639155
-0.036980625 -0.0671568 0.036408477 0.01945419 -0.030141562 0.03457306 -0.019336753 -0.038909554
-0.017365253 0.0029793587 0.019583587 -0.0038389175 0.012921012 0.056536958 0.033803653 -0.051295247
-0.053208083 0.02390993 -0.04486032 -0.0045403484 0.030906232 0.030341174 0.028281398 -0.0034391927
-0.028044857 -0.03077887 0.059928395 -0.015487819 -0.00571664 -0.014860897 0.035811327 0.043528836
-0.043761905 0.031145561 -0.010479411 -0.0443903 -0.0144628445 0.017023467 -0.018572295 -0.011048024
0.008403372 0.0030774216 0.007452057 0.054544114 0.0046302723 0.0495821 0.019552542 -0.021350725
-0.0028624164 0.009106528 0.011430921 0.058188457 -0.022670638 -0.0496573 0.0017747028 0.028154934
00000000: 8b62 66bc 62a8 32bd dd02 46bd 7dd4 90bc
00000010: cf6b 18bc a27a 223d ce36 5c3d 85de 623b
00000020: 29ef 01bc 4127 1cbd 85d2 a6ba e060 47bd
00000030: b8a1 a6bc a950 943c ba68 c73c 18a3 f23c
00000040: ce03 04bd 2234 cb3c 8bdf 613d 9d2e 00bd
00000050: be5d 813a ee37 4f3c 4c07 2dbb cfde a03c
00000060: 4599 a43a 1370 82bc 819b 89bd 71eb 74bc
00000070: d6a1 423d 7068 bbbd 4f0b 97bc 8ce6 c63c
00000080: 08eb c5ba 5c30 4cbd aa50 7d3a 55c9 c23c
00000090: 3413 4ebb d5dd 083d 043f 243d 1849 eebc
000000a0: 7919 d63c 56c0 d3bc eeb8 fe3c ee7d 81bd
000000b0: f94a cc3b 642f febc f25a 93bb 7904 ae3c
000000c0: 40ff 43bb 9515 d0bc 9688 bb3c e0db 6d3c
000000d0: 44b7 723c 5011 163d 3d0e 853d 466f 83bc
000000e0: 686e 183d 91e2 6bbd 048f 03bd bb39 7fbd
000000f0: 2fe6 67ba bc54 8fbc 8b7c 2ebc 248d 58bc
00000100: 2d9c ddbc 16b8 6d3d 666f 2bbd 92f8 23bd
00000110: 4b6d 85bc 3006 723d 5be3 78bc 9c70 8c3b
00000120: 7522 1ebd aa12 dabc 689e f9bc 8c48 723d
00000130: 408d 2abd 7f73 b8bb f397 e73c a330 a23c
00000140: 3a18 9fbc 15e0 123c 3891 30bc a709 523c
00000150: 2f26 32bc 3b31 ef3c fb5e 7fba 3fcb 8b3c
00000160: c936 863c b7b0 2dbd 63e3 8fba 3bb0 bd3c
00000170: fc40 cabc 0e14 403c ea58 74bc 2ef9 113d
00000180: 7b0a 9c3b 9695 abbc c5a1 a13c 7c27 a8bc
00000190: 7bb1 b83c 7d15 8a3d d490 bebc fb57 943b
000001a0: b2e6 70bc adbc 03bc bff5 103c 1315 e63c
000001b0: 0ac1 243d 8fdf e9bc a45d 24bc ea43 8f3c
000001c0: 1ac7 ebbc 870e 413c 0e0c 9c3a 6d3e 613b
000001d0: 02fd 2a3b 1aed af3a 5e44 ecbd abd9 24bd
000001e0: eab7 453c 2605 81bb 06ec 88bc 5b71 513c
000001f0: 7461 8a3c f67c 9d3a e179 983d 4771 533d
00000200: fbdf 25bd 08b8 acb9 c540 d43c dd42 183d
00000210: 7e5b 0a3d 1763 8c3d 7772 ea3c cbf3 1e3d
00000220: 45a9 42bd 5f7e c7bc 7588 24bd 2800 b7bc
00000230: d20d 16bd cea9 1f3d e870 bf3c 6674 0b3d
00000240: f5cb 7c3b 0564 0ebd 6d64 4ebc 404b 1ebc
00000250: 7049 62bc 4324 2bbd d2ae 8f3b 16ea 703d
00000260: fdbc 743c c2f5 e23b dc85 09bd 6724 65bc
00000270: 2dd0 c03c 8d54 633b fb99 053d a848 513d
00000280: 2111 463d a9d7 75bd 83fd a9bb d8e4 1a3d
00000290: e335 80ba 1a0d 27bd 2877 ab3c 7228 d63a
000002a0: 3ec0 63bc 88e7 823c 3936 50bd 38b7 c03b
000002b0: eb8d 983d c2a2 ef3c 9566 96bb 569c 54bd
000002c0: dd0b 6b3d 295c 46bd d598 61bc c6ee 13bd
000002d0: 5d34 f3bb edf4 533c f7c1 f3bc 0aa0 30bd
000002e0: b3e4 543d 3fc2 693b 5b1c 10bd 7f5e 843c
000002f0: d9f7 f33c d6e7 6f3d 2c71 bbbd b01d 0fbd
00000300: 48e0 14bd e47d 053d 0b48 a13b 5481 42bd
00000310: d576 183d 1886 98bc 5466 2c3d 9247 86bc
00000320: ff78 17bd 8189 89bd 0e21 153d 655e 9f3c
00000330: 70eb f6bc 7b9c 0d3d 1c68 9ebc a05f 1fbd
00000340: 9341 8ebc 5841 433b c26d a03c 5996 7bbb
00000350: a7b2 533c 4c93 673d b375 0a3d f71a 52bd
00000360: b8f0 59bd c2de c33c 74bf 37bd 34c7 94bb
00000370: 112f fd3c 0e8e f83c 64ae e73c 1464 61bb
00000380: 54be e5bc f823 fcbc 7a77 753d 9fc0 7dbc
00000390: a752 bbbb 1f7b 73bc e6ae 123d 4b4b 323d
000003a0: af3f 33bd fa24 ff3c d6b1 2bbc 9ad2 35bd
000003b0: 91f5 6cbc cc74 8b3c ed24 98bc c502 35bc
000003c0: 4cae 093c 91ae 493b 6330 f43b a669 5f3d
000003d0: 8ab9 973b 9a16 4b3d a72c a03c b7e7 aebc
000003e0: 6197 3bbb 8c33 153c c248 3b3c 0557 6e3d
000003f0: c6b7 b9bc 7465 4bbd 259d e83a 2da5 e63c

action_model._continuous_distribution.mu.bias f4 [2]
0.012397148 -0.0015293974
00000000: 681d 4b3c 1076 c8ba

action_model._discrete_distribution.branches.0.weight f4 [1, 128]
0.008173449 -0.00984476 0.015568969 0.013697522 -0.0012905062 0.016493822 -0.003739625 0.011870719
-0.00021479496 0.021861112 0.0037792653 -0.0034560573 -0.008852344 -0.002755613 0.002286065 -0.0031895626
0.0018637909 0.0021982286 -0.0024444468 0.0052315695 0.003677077 0.00613708 -0.012243658 0.018077904
0.0026931218 0.00021360848 -0.00096496096 -0.0156869 0.0041894685 -0.0034289618 -0.0006644767 0.010756232
-0.0041528414 -0.0072735995 -0.001304795 0.00095609966 -0.010827221 0.009492323 -0.011640967 -0.0060912515
-0.004189269 0.01604081 -0.004577164 0.006021067 -0.005660865 0.003261579 0.0071393005 -0.00040826612
-0.019896794 -0.017329821 0.0060294084 -0.0067298464 0.0035933515 -0.007726924 -0.005520353 -0.0036117441
0.0058452305 0.02155342 0.0067292117 0.0013557634 0.01187266 0.006590094 0.006300758 0.0048240195
-0.008941113 0.019922053 0.0020701503 0.008140821 0.0024206496 0.00685189 -0.017050644 -0.0013513569
-0.00045938446 -0.0016389455 -0.0035611452 0.0033000787 0.011977381 -0.012013222 0.0137945665 0.0026098385
-0.018984133 0.0013641183 -0.002385347 -0.0024483162 -0.002329311 0.006547431 -0.011867295 -9.5066025e-05
0.004474513 -0.009072795 -0.0042230473 0.015477011 -0.017987508 -0.002225542 0.002688541 -0.013068813
-0.0019905565 -0.006331503 -0.024696631 0.002793216 0.020611044 -0.0063272687 0.007308513 0.010804946
-0.011883609 -0.006678632 0.006312211 0.001465411 0.010420947 0.00057613937 0.017688496 0.0044561154
0.0016449258 -0.0055759083 0.01871582 -0.008582786 -0.0044933725 -0.006910108 0.012596016 -0.0066474597
2.9860097e-05 0.011280204 0.00071194576 -0.010006334 0.0058616092 0.004135631 0.009764379 -0.014896112
00000000: eee9 053c eb4b 21bc fd14 7f3c 926b 603c
00000010: 3426 a9ba 0d1e 873c 7f14 75bb 677d 423c
00000020: 953a 61b9 1316 b33c 8dad 773b 057f 62bb
00000030: 6c09 11bc 8497 34bb ced1 153b fb07 51bb
00000040: 724a f43a 2810 103b 0333 20bb 966d ab3b
00000050: 1dfb 703b 8f19 c93b a099 48bc 1d18 943c
00000060: 167f 303b 17fc 5f39 6ff5 7cba d081 80bc
00000070: cf47 893b 6fb8 60bb 4730 2eba e83a 303c
00000080: 8f14 88bb 6057 eebb a805 abba c3a2 7a3a
00000090: a864 31bc b085 1b3c c1b9 3ebc 1f99 c7bb
000000a0: 2346 89bb 0468 833c 09fc 95bb 5f4c c53b
000000b0: c77e b9bb 37c0 553b cbf0 e93b 8d0c d6b9
000000c0: 9afe a2bc 45f7 8dbc 5892 c53b 0b86 dcbb
000000d0: 6f7e 6b3b 2332 fdbb 14e4 b4bb 03b3 6cbb
000000e0: 5989 bf3b cc90 b03c b880 dc3b dfb3 b13a
000000f0: 8c85 423c b7f1 d73b 9776 ce3b cf12 9e3b
00000100: bf7d 12bc 9333 a33c 5cab 073b 1461 053c
00000110: c3a3 1e3b d285 e03b cbad 8bbc 0320 b1ba
00000120: 8ad9 f0b9 e3d1 d6ba 1a62 69bb 2246 583b
00000130: c73c 443c 1bd3 44bc 9b02 623c d309 2b3b
00000140: 9d84 9bbc 37cc b23a 7b53 1cbb ee73 20bb
00000150: 5ba7 18bb d58b d63b 0b6f 42bc 2f5e c7b8
00000160: f09e 923b 0fa6 14bc 7d61 8abb 4a93 7d3c
00000170: 8a5a 93bc 66da 11bb 3c32 303b 931e 56bc
00000180: ff73 02bb 7f78 cfbb 9750 cabc 630e 373b
00000190: 7ed8 a83c fa54 cfbb 407c ef3b 3a07 313c
000001a0: 78b3 42bc 6dd8 dabb aad6 ce3b 0913 c03a
000001b0: 9fbc 2a3c 0f08 173a 77e7 903c 9b04 923b
000001c0: 8d9a d73a 1cb6 b6bb eb51 993c d09e 0cbc
000001d0: 243d 93bb 306e e2bb 855f 4e3c efd2 d9bb
000001e0: 127c fa37 9bd0 383c dfa1 3a3a 9bf1 23bc
000001f0: be12 c03b 3084 873b c6fa 1f3c d20e 74bc
