RollerBall/results/RollerBall_v1/RollerBall/checkpoint.pt (torch, 447522 bytes, 36 tensors)

network_body._body_endoder.seq_layers.0.weight f4 [128, 8]
000000 74 fb 09 be ee 4b 61 be 61 dc 10 be 5a cf 36 be
       -0.13474828 -0.22001621 -0.14146568 -0.17852536
000010 04 2d e7 3e 93 08 69 3f 3b 87 aa 3d 39 a1 d7 3e
       0.45151532 0.9102871 0.083265744 0.4211519
000020 7b f0 fb 3d 51 a5 aa be 36 84 ea bd 03 ef 0c 3d
       0.123017274 -0.3332925 -0.114509985 0.034407627
000030 d0 eb fa be 6b 43 96 3e 2b b3 62 be 60 00 83 3d
       -0.49008036 0.2934831 -0.2213866 0.06396556
000040 3c 1a 1c bf 14 a3 44 be 88 2f 1e bf 04 59 93 bd
       -0.6097753 -0.19202834 -0.61791277 -0.07194713
000050 82 1d 47 bf a5 c7 2d bf 5f 31 77 3e 7c 9f d6 bd
       -0.777794 -0.6788276 0.24139927 -0.10479638
000060 5a 14 84 be 86 89 d6 3e 23 fd 6e 3e d0 42 53 3e
       -0.25796777 0.41901797 0.23338751 0.20630956
000070 1d 49 4e bd ef e1 60 be 63 66 1f 3e 9a 3e ea 3d
       -0.050362695 -0.21961187 0.15566401 0.114377216
000080 a0 b9 f2 3c 88 ed 94 3d 81 18 90 be c5 94 52 be
       0.029629529 0.07271868 -0.28143695 -0.20564564
000090 f8 7d c6 be 84 86 22 3e 37 c3 bd be a3 f3 c9 3e
       -0.38767982 0.15871626 -0.37063 0.39443693
0000a0 11 10 09 be 07 84 99 3c a5 ea 5e be 5c 84 40 be
       -0.13385035 0.018739713 -0.21769197 -0.18800491
0000b0 f8 7a 83 be d0 6a dd be 74 a7 3b 3d cd 56 aa 3e
       -0.25679755 -0.43245554 0.045813993 0.3326935
0000c0 97 55 3c be 22 e7 76 be 6d 49 17 be a5 e5 c1 be
       -0.18392025 -0.24111608 -0.14774103 -0.37870517
0000d0 76 35 81 3e f9 e1 ed 3e 70 69 16 3c 76 95 4c 3e
       0.252361 0.46461466 0.009180412 0.1997889
0000e0 8b 84 87 be f0 b5 cd 3e 71 ea e2 bd c2 cd aa bd
       -0.2646831 0.4017787 -0.110798724 -0.083400264
0000f0 da 3d 05 3f 66 9a 47 3e fe 1e e6 bd ba d7 78 3e
       0.52047503 0.19492492 -0.1123638 0.24301043
000100 dd f7 0b 3f fe 72 47 be 73 5d 8d 3d f1 c9 08 bf
       0.54675084 -0.1947746 0.0690259 -0.5343314
000110 a7 5e 6a 3e 38 34 f5 bc 43 f5 17 bf 80 de a4 be
       0.2288767 -0.029932126 -0.59358615 -0.32201004
000120 d7 8c db be 7b b3 b8 be d6 21 b9 be 88 85 04 bf
       -0.4288089 -0.36074433 -0.36158627 -0.5176625
000130 08 ff 93 bb a6 43 19 bf ea 18 1b 3e 71 bb a0 be
       -0.004516486 -0.5986885 0.15146223 -0.31393006
000140 55 c3 a0 be b7 01 19 3e ae 57 a1 be 82 94 2c 3e
       -0.31399027 0.1494206 -0.31512207 0.16853526
000150 14 3f 19 3f 25 9a ba bd 98 77 73 3e 74 77 e1 3e
       0.59861875 -0.09111432 0.2377609 0.44036448
000160 3a 99 ff 3e ac a9 ec be ad 6e 2d bd bd ad 82 3c
       0.4992159 -0.462232 -0.042341877 0.015951985
000170 3b 40 1d be 9a 6b d1 3d 8f d2 79 be 00 af ef 3e
       -0.15356533 0.102256015 -0.24396728 0.46813202
000180 d2 9d fd 3e a4 96 fa 3e 6f 45 0c bf be 50 55 be
       0.4953447 0.48943055 -0.5479345 -0.20831582
000190 48 3a 7e 3e 84 2d 22 3f 1b b1 36 3f 3d b5 1c 3f
       0.2482692 0.633507 0.7136399 0.6121405
0001a0 60 08 fa 3b 98 9b 69 be 63 ae 1e 3f 38 24 a1 3d
       0.007630393 -0.2281326 0.61984843 0.07868236
0001b0 e4 5c 39 3e c3 e2 b1 be 0d ce 20 be 8f b4 c0 3d
       0.18101841 -0.34743318 -0.15703602 0.09409439
0001c0 41 ba b3 3e fa 18 b6 bc 9b 24 99 be 3a 70 6b be
       0.35103038 -0.022228707 -0.2991074 -0.2299203
0001d0 80 cc 1c bf b5 fe ea 3c 54 ca f4 3d 36 be ad be
       -0.6124954 0.028685907 0.119526535 -0.33934182
0001e0 30 d6 3e be 20 e8 c5 3d db 98 21 3e 46 8c c3 3e
       -0.18636394 0.09663415 0.15780966 0.38192958
0001f0 0a 09 84 be c1 be 92 be 45 71 d7 be 84 1b 0a bf
       -0.25788146 -0.2866116 -0.42078605 -0.53948236
000200 5e 49 dd be e4 8c a8 be 2c f6 1a 3f a1 e2 89 bd
       -0.43220037 -0.3291999 0.6053188 -0.06732679
000210 55 fc fa 3d 1b 08 66 3e c9 bb 40 3f 95 55 65 3e
       0.1225516 0.2246403 0.7528654 0.22395928
000220 93 c9 14 3e 8d ba cb 3e 8d c7 91 bd aa 16 48 bf
       0.1453002 0.39790764 -0.071181394 -0.7815958
000230 5a ff cf 3e 71 9e ce be 5e 36 dd 3d 3c 3b 2a be
       0.40624505 -0.40355256 0.10801385 -0.16624159
000240 9a 6f a4 3e 82 86 7f bc c1 2f 43 3e d1 3f 67 be
       0.32116395 -0.015596034 0.19061185 -0.22582938
000250 3c 0d 28 3e 8c 27 5f 3d a3 76 36 3e 43 f2 5a be
       0.16411299 0.054481074 0.17818694 -0.21381478
000260 fe 6e 0b bf c8 1d 29 3e 59 da 34 be 2f 4a f9 3e
       -0.54466236 0.16515267 -0.17661418 0.4868941
000270 c5 fd 28 3e ee 33 ec bd 5a bf 0d bf 77 ce e8 3e
       0.16503055 -0.11533342 -0.55370104 0.4547002
000280 62 ab 51 3f bd 47 21 bf 1f 1a 0d 3f 17 cf 2c bd
       0.81902134 -0.6300009 0.5511798 -0.042189684
000290 24 1b 79 3e 0a 92 cc be 06 40 b7 3d fb 0b c9 bd
       0.2432676 -0.3995517 0.089477584 -0.09816738
0002a0 39 94 11 3f 51 2b d8 3d f1 b8 12 3f 9a d3 c0 be
       0.56866795 0.10555137 0.5731345 -0.3766144
0002b0 19 94 a4 3e 0e 8e 9d 3e 9d 14 d6 3e ff 70 39 3f
       0.3214424 0.30772442 0.41812602 0.72438043
0002c0 0c 6c 3a be 1f 1d 05 bf ba f8 29 3e b6 fd ac 3e
       -0.18205279 -0.5199756 0.16598788 0.33787316
0002d0 c9 40 dc be 0d d2 d5 3d b4 95 ae 3e b8 39 05 3f
       -0.43018177 0.10440455 0.3409859 0.52041197
0002e0 ea 03 fd bb dd 3e 21 3e 63 c8 c7 3e 78 24 ce 3d
       -0.007721414 0.15746637 0.3902007 0.100655496
0002f0 e3 68 16 bd d3 2f 15 3e c6 a4 e8 3e 72 ab 32 bd
       -0.03672112 0.14569025 0.45438212 -0.043620534
000300 a2 0f 64 3e c1 d4 88 be e7 50 9d be 79 da 8c be
       0.22271588 -0.26724818 -0.30725786 -0.2751043
000310 58 e1 f9 bc 5f 0d 70 bd c1 5d 17 bf ab b5 9d bd
       -0.03050296 -0.0586065 -0.5912743 -0.07700666
000320 44 7c 6d 3e 2c 4d c3 be 3e f4 ea 3e 86 84 bb 3e
       0.23191935 -0.38144815 0.45889467 0.36624545
000330 44 32 c6 3d 8d 7a 4a 3c 0c d9 6b 3e c9 f8 b0 be
       0.09677556 0.01235832 0.23032016 -0.34564808
000340 a8 cb a4 3d d8 66 d1 3d f7 dc 83 bc 96 89 2d be
       0.08046657 0.10224694 -0.016096575 -0.16947016
000350 f8 31 68 3d 46 1d b6 bc 60 6c 39 bd 6a 32 7d 3d
       0.05668828 -0.022230756 -0.04526937 0.061815657
000360 f2 a9 15 3e e5 ab 16 3e 82 64 e7 bd 4c 6e b5 3e
       0.1461561 0.1471401 -0.11298467 0.35435712
000370 50 6b 00 be 12 6a 98 be 09 2d 90 3e b8 3f ba be
       -0.12540936 -0.29768425 0.2815936 -0.3637674
000380 fa 7a 2d 3f b6 2b 41 3e 70 87 55 3e 9f 1f 2b 3f
       0.6776577 0.1886433 0.20852447 0.66845125
000390 ce c2 bd 3d 70 5f 74 3c 87 67 58 3d 10 83 99 be
       0.09265672 0.014915332 0.052833106 -0.29982805
0003a0 ec cb bb 3d ea 9d 74 3e 5c 90 a5 3e 34 80 f9 bc
       0.091697544 0.23888364 0.323367 -0.03045664
0003b0 58 75 91 be 9c e9 68 3d 51 b8 af be 8c 88 50 3e
       -0.2840984 0.056863412 -0.3432031 0.20364588
0003c0 cb 44 61 bf ee 50 cb be 80 d6 d5 3d 31 22 0e bc
       -0.87995595 -0.39710182 0.10441303 -0.008675144
0003d0 f9 51 8d 3e 18 8d a4 3e f7 1d 87 bc 65 47 9a 3e
       0.27601603 0.32138896 -0.01649378 0.30132595
0003e0 38 b5 99 bd 49 64 da bd 45 3d 07 3e d5 8b 32 be
       -0.07505268 -0.10663659 0.13206966 -0.17436154
0003f0 79 c7 f8 3e 56 3f 51 bf 32 3a 9a 3d 72 e8 5b 3e
       0.48589686 -0.8173727 0.07530631 0.2147539

network_body._body_endoder.seq_layers.0.bias f4 [128]
000000 37 ff 8c 3d e0 e3 16 3b 2b 86 ac 3b ed 84 52 3d
       0.06884616 0.0023024008 0.0052650175 0.0513963
000010 99 d7 8c bd 80 ff 38 bd ef 5c dc bc 9d 1b 5e 3b
       -0.068770595 -0.04516554 -0.026899783 0.003389097
000020 f7 76 e4 3d a7 f5 23 bd cd da 96 3d f7 b0 59 3d
       0.11155503 -0.040029194 0.07365952 0.053147282
000030 60 d0 b4 3c 48 c5 5d 3d 0b 33 8c 3c 05 4c e5 3c
       0.022072017 0.05414322 0.017114183 0.02799035
000040 63 86 42 3c 58 fa e9 bc 27 c4 71 3d 44 6a 1b 3d
       0.011872861 -0.028561756 0.059024956 0.03794314
000050 d4 98 e7 3d 07 c0 4f 3d 6e e6 72 3c 7b 2b 03 bd
       0.113084465 0.05072024 0.0148254465 -0.032023888
000060 8d 0a 8e 3d c4 58 01 3d 4d 3a c5 3d 3f 2b 0b 3c
       0.06935606 0.031578794 0.096302606 0.008494197
000070 08 75 11 be e6 7b ca 3c 76 08 05 3d 36 b6 e4 3a
       -0.142048 0.024717283 0.032478772 0.0017449323
000080 d8 78 90 bd 15 9b 4b bc f3 de 6a 3d a7 f9 bb 3c
       -0.07054299 -0.012427111 0.057341527 0.022946192
000090 5b 22 8d 3c 80 d3 78 3d 7a 9e be 3c 8b 84 ff 3d
       0.017228296 0.060748577 0.023268927 0.124764524
0000a0 67 a3 00 3d 72 15 88 bc 22 d7 29 bd 6c cf c5 3c
       0.031405833 -0.016611788 -0.041464932 0.024146758
0000b0 c8 d0 99 3c 4e 2a 06 bd b2 0f b0 3c 3b 72 3b 3d
       0.018776312 -0.03275519 0.02149186 0.045763236
0000c0 e1 59 28 3c 11 68 53 3d b0 84 ad bd 39 2c 6f 3c
       0.010275335 0.051612917 -0.08472574 0.014597946
0000d0 27 f6 9f 3d 88 71 15 3d 5e ec e0 3d ea 28 90 3d
       0.07810622 0.036485225 0.109825835 0.07039054
0000e0 3e 58 ef 3c 8c 7a e3 bc d6 30 29 bd 60 38 3d 3d
       0.029216882 -0.027768396 -0.04130634 0.04619634
0000f0 d4 b9 f5 3d 56 9b ad bd 90 58 c6 3c f4 25 b9 ba
       0.119983345 -0.084768936 0.024212152 -0.0014125691
000100 91 fa c8 3c 5a b0 83 3a 94 a0 96 bd b8 d4 a1 bd
       0.024533542 0.0010047064 -0.073548466 -0.07901901
000110 ff 89 e2 bc d2 3d 04 3e 45 59 2e bc 48 11 cd bd
       -0.027653692 0.12914208 -0.010641401 -0.10013062
000120 38 e1 ae 3d 9d ce 8c 3b 5c 6f 47 3d 51 3c e1 3c
       0.08539051 0.004297091 0.048690185 0.027494581
000130 e3 bb 9a bc 32 a0 64 bd a8 4c 85 3d 71 f0 fc 3c
       -0.01888842 -0.055816837 0.06508762 0.03087637
000140 67 5d 51 3d 95 67 32 3a 00 62 aa bb 3c bf 8c 3d
       0.051114466 0.0006805596 -0.005199671 0.068724126
000150 ab e7 68 bc c5 a5 b2 3c b8 b8 1b 3d 15 6f 9a bd
       -0.01421539 0.02180756 0.03801796 -0.075407185
000160 1d 73 4a 3b f1 99 b8 bc 23 77 07 bd 04 26 39 3d
       0.0030891367 -0.022534342 -0.033072602 0.04520227
000170 6b f2 09 3d 8e 82 84 3d 8b df 27 3d 05 b7 fb 3c
       0.033678453 0.06470214 0.04098467 0.030726919
000180 22 1f 27 3d 8a bb 97 3c bf cf b2 bb 6c 7b 8b 3d
       0.040801175 0.018522043 -0.005456894 0.0681065
000190 ce 26 e7 3c f8 42 60 bd b3 3c dc 3d 26 9e 04 bd
       0.028216746 -0.054751366 0.10753765 -0.032377385
0001a0 be 53 47 3c ba 61 07 bd 57 be 8b 3c 66 a1 bf 3c
       0.012165962 -0.033052184 0.017058535 0.02339239
0001b0 21 6c 98 3b a9 c4 51 bd 22 b4 dc 3d ae a2 5b bd
       0.004651562 -0.05121294 0.10776545 -0.05362194
0001c0 1f dd 33 bd d0 f7 fd 3d ca 15 97 3c 77 87 44 3d
       -0.04391205 0.12400782 0.018443007 0.04798075
0001d0 62 9d c7 3d f4 28 a3 bd 7a 1d df bd bf 43 01 3d
       0.09746815 -0.079667956 -0.10894294 0.03155875
0001e0 8f 2a 2e 3d 49 fc cb 3d 54 75 a6 bc 90 fd c5 bc
       0.042521056 0.09960229 -0.020319618 -0.02416876
0001f0 a8 e9 6b 3d 39 b4 48 3b c3 f3 ae 3b 88 ee 03 3d
       0.05759588 0.0030625 0.0053391173 0.032209903

network_body._body_endoder.seq_layers.2.weight f4 [128, 128]
000000 1f b3 b2 3d 54 95 fa 3c f9 1d ed 3c 61 56 00 be
       0.08725571 0.030588783 0.028944956 -0.12532951
000010 d1 af 4f bc 91 20 82 3d f5 b0 7e bd a0 c5 ed 3d
       -0.012676195 0.06353868 -0.062180478 0.116099596
000020 21 3b b5 bd c9 25 be 3d 04 bc ac 3d 06 8e d0 bc
       -0.088491686 0.09284551 0.08434299 -0.025458347
000030 cf 39 16 3e 89 2b 9c bd 0d c2 07 bd f4 bf 2d 3c
       0.1467049 -0.07625491 -0.033144046 0.010604847
000040 32 ea 4c 3e 11 80 09 3d 17 1d 95 bc 26 ea 92 3d
       0.20011213 0.0335694 -0.018202348 0.071735665
000050 fb d6 94 bd c1 09 7c 3d a3 28 46 bd 6f 9c b5 3d
       -0.07267567 0.06153274 -0.048378598 0.08867728
000060 ef ea 06 be af 87 fb bc bf 60 68 bd e5 2c 3c bd
       -0.13175558 -0.030704347 -0.05673289 -0.045941252
000070 e2 34 f5 3c 70 5c 73 3d d4 9c 33 3e cb d6 cb 3d
       0.029932443 0.059414327 0.17540294 0.09953078
000080 39 98 c7 3d a3 6f d1 3d f3 1c 1a 3e f3 00 39 3e
       0.09745831 0.10226371 0.15050106 0.18066768
000090 fd 59 0d 3e 96 bb af 3d 84 6d ed bd 0a 53 18 3e
       0.13803859 0.08580701 -0.11593154 0.14875427
0000a0 f3 b4 be 3c 59 18 05 be fc 61 7a be 87 3c 5a 3d
       0.023279643 -0.12997569 -0.2445144 0.05328038
0000b0 12 70 f6 bd a1 a6 41 bd 02 6e 5f 39 da 54 65 be
       -0.120330945 -0.04727805 0.00021307918 -0.2239565
0000c0 92 24 1e 3e f7 72 b5 bd e6 c8 2d 3d 61 88 89 bd
       0.15443638 -0.088598184 0.04242792 -0.06715465
0000d0 fd 0a c5 bd f8 c8 00 be cb 7d 3f 3e 58 21 34 bd
       -0.096212365 -0.12576663 0.1870033 -0.04397711
0000e0 fb 8e 54 3e 88 7f 18 3e ef 75 ad bc 9d 50 47 be
       0.20757668 0.148924 -0.0211744 -0.19464345
0000f0 44 26 c2 bd 32 91 a5 bc e1 ed 00 be 9c 8f ed 3d
       -0.09479955 -0.020210836 -0.12590744 0.11599657
000100 52 1e 98 3c ae 43 34 bd 91 7a 8e 3d 36 ac aa bd
       0.018569145 -0.044009857 0.069569714 -0.08333628
000110 2a 73 a3 bd ac 84 58 bd d7 58 cb 3c 36 89 65 3b
       -0.0798095 -0.0528609 0.024822636 0.003502441
000120 79 9a 5b 3d 4b f1 77 3c 30 eb 42 3e 33 bf 90 be
       0.053614113 0.015133212 0.1903503 -0.28270873
000130 71 71 1d 3e a9 1f e3 3b 44 56 e7 bb 69 bf fd bd
       0.15375306 0.0069312644 -0.007059844 -0.12390024
000140 53 d1 72 3c 16 bc 0b bd 22 4a ae 3d ea 0b 64 bd
       0.014820415 -0.03411492 0.085102335 -0.055675425
000150 57 8b a4 bd bb 14 bb 3c 95 96 c7 3d 6c d5 30 bd
       -0.080343895 0.022837033 0.09745518 -0.043172285
000160 8f 1e cf 3d 97 37 e4 bc 34 92 cb 3c ce 81 18 3e
       0.101132505 -0.027858539 0.024849989 0.14893267
000170 d1 1a 6a 3e ee f9 25 be 98 b9 d7 3d d8 b8 14 3d
       0.22861792 -0.16208622 0.10533446 0.036309093
000180 c1 ee 25 3e 1e ef 4b 3c 37 3d 94 3d ab 11 dc 3d
       0.16204359 0.012447147 0.07238238 0.107455574
000190 30 5c 63 bd 05 65 03 3e 74 07 8f bd 27 ab ac bd
       -0.05550784 0.12831505 -0.069838434 -0.08431082
0001a0 1b a2 38 bd 9b 2d b9 3d 9b 16 2e 3e bc a1 c3 3d
       -0.04507647 0.09041902 0.17000811 0.09552333
0001b0 d4 64 db bd 99 e3 9e 3c 40 64 80 39 17 d9 15 bc
       -0.10712591 0.019395636 0.00024488755 -0.0091459965
0001c0 3a 69 19 be dc ab 94 3d fd 3c 82 3d 17 20 01 3d
       -0.14981547 0.07259342 0.06359289 0.031524744
0001d0 51 95 41 3d 66 6c 89 bd a6 72 9e ba 48 df cf bd
       0.04726154 -0.067101285 -0.0012088611 -0.101500094
0001e0 29 11 b1 3d f9 f8 dc 3c 96 55 98 3c 60 79 af bd
       0.08645851 0.026974188 0.018595498 -0.08568072
0001f0 bd 18 7b bd 54 88 bd bd 3d 05 a8 3d e5 90 cf bc
       -0.06130289 -0.09254518 0.08204124 -0.025337646
000200 d9 7d 41 be 95 8a 49 3d 89 68 84 bd fb 6b 57 bc
       -0.18895663 0.049204428 -0.06465251 -0.013148303
000210 de 33 15 3e 37 83 8a 3d a9 a3 dc bd 26 4f f3 3d
       0.14570567 0.067633085 -0.10773403 0.11880331
000220 25 de e2 3d 41 7c fc 3d 58 03 67 be 83 c9 49 be
       0.11077527 0.12328387 -0.2255987 -0.19705777
000230 44 36 04 bd 63 2c a4 3c ce aa 17 3e d6 3f 2c 3e
       -0.032278314 0.020040696 0.1481125 0.16821226
000240 3a 48 18 3e 04 15 ca 3c ab b7 18 bd 6b 75 39 bd
       0.14871302 0.024668224 -0.037284534 -0.045277994
000250 ac f8 c2 bd 3c 89 d2 bc 5f 28 99 bb 29 28 2d be
       -0.09520087 -0.025700204 -0.004674002 -0.16909851
000260 18 42 ec bd 09 65 07 be d1 e2 64 3c df 1e f7 bc
       -0.11536044 -0.13222136 0.013970093 -0.030166088
000270 e9 63 d7 bd d0 16 70 3c d3 77 e9 3d 00 98 6a 3d
       -0.10517103 0.014653876 0.11399808 0.057273865
000280 9a 13 90 bd 7f 6b 0e 3d cb 9b a6 bc 72 65 fb bd
       -0.07034989 0.034770485 -0.02033796 -0.122752085
000290 4e 9f 8d bd 4d 9e 12 be fd 4b 2e bd fb 2c 26 3d
       -0.069151506 -0.143182 -0.042552937 0.04057024
0002a0 22 5c 07 3d 01 83 1f be 57 49 32 be fd 45 f1 bd
       0.03304685 -0.15577318 -0.1741079 -0.11780927
0002b0 6d 31 2e 3e ea c0 34 3e f4 09 de bb 90 e8 a0 bc
       0.17011042 0.17651716 -0.006776089 -0.019642144
0002c0 85 ff 5b bd 37 83 4a bd 8e f1 33 be 6b aa d0 3c
       -0.05371048 -0.049441542 -0.17572615 0.025471887
0002d0 5e 43 86 3e 64 4b cb bd fc b9 db bc 78 a8 0f 3e
       0.26223272 -0.09926489 -0.026822083 0.1402911
0002e0 7e df 6c bd 9c 9d 1a 3e 55 ca 65 3d 91 e6 db 3d
       -0.057830326 0.15099186 0.056101162 0.107373364
0002f0 e5 6e b8 3c f9 2e 83 bd 8e 53 04 be 30 9d 30 3e
       0.022513816 -0.06405444 -0.12922499 0.17247462
000300 ee f2 d4 3c ab 4c 17 3e 1b 30 5f bd 37 7d e2 bc
       0.025994744 0.1477534 -0.054489236 -0.027647598
000310 be 58 3a 3d 59 22 c7 3d 3d 53 16 bc 68 6f 6d be
       0.045494787 0.09723348 -0.009175119 -0.2318703
000320 dd 38 92 3e 49 67 3c be 0d eb 68 be 9c f9 fd bd
       0.28559008 -0.18398775 -0.22745915 -0.12401125
000330 2a 09 db 3d b1 6f 96 bc a1 9f ac 3d 90 23 0a bd
       0.10695107 -0.018363805 0.08428884 -0.03372532
000340 6a 55 49 be 0d 72 eb 3d c2 ab 1a bd 04 71 a8 bc
       -0.19661489 0.11496363 -0.037761457 -0.020561703
000350 9e 71 0d 3e e1 1b 2f bc 07 d9 29 be f6 0a d5 3d
       0.13812873 -0.010687799 -0.16586696 0.10402481
000360 8b 19 46 3d d1 f6 34 bd 08 88 13 bd 0c 2a 8d bd
       0.048364203 -0.044180695 -0.0360184 -0.068927854
000370 ce 00 88 bd 65 e1 a8 3d c5 b0 92 bd 8e 4e 25 3e
       -0.066407785 0.082461156 -0.07162622 0.16143247
000380 d7 ad 0f bd 82 d5 c2 bc 90 af 82 bd 87 fa 04 3e
       -0.035077896 -0.02378345 -0.06381142 0.12986194
000390 91 7e 2c 3d 68 7a 68 be 5d 53 1b 3c 21 a8 f6 3d
       0.04211289 -0.22702944 0.009480325 0.12043787
0003a0 a9 da 06 be c2 b4 8e 3d ed 02 c0 bd 69 68 42 bd
       -0.1316935 0.069680706 -0.09375558 -0.047462855
0003b0 cd 59 8f 3d 7b 95 ec bd e0 7a 92 bc ef 15 69 bd
       0.0699955 -0.11551949 -0.017880857 -0.056905683
0003c0 92 f9 b3 bc 4a b7 4d be 36 9d 44 be 5d 8c 01 3e
       -0.02196959 -0.2008945 -0.19200596 0.126512
0003d0 06 a3 53 bd 57 2f e3 bd 6b 32 24 3e 36 99 18 be
       -0.051669143 -0.11093014 0.16034858 -0.14902195
0003e0 24 69 f8 bd 63 6f a2 3e d5 41 38 be 14 5d d7 3b
       -0.12129429 0.31725606 -0.17993863 0.006572375
0003f0 52 79 a7 bc 37 f2 2a be 36 eb 8a 3c fc 57 75 3d
       -0.020443592 -0.1669396 0.01695786 0.05989836

network_body._body_endoder.seq_layers.2.bias f4 [128]
000000 50 d3 0c 3c 47 dd 2e 3d e3 69 b3 3d ca 27 4a 3c
       0.008595303 0.042691495 0.08760431 0.012338588
000010 7d 03 cf 3d ce 27 f2 bc 11 4d f9 bc 2d 4d 0e 3d
       0.10108087 -0.029559996 -0.030432256 0.03474157
000020 f5 45 ab bc cd e5 e7 bc 13 0f 03 3d 7e 26 42 bd
       -0.020907382 -0.02830782 0.031996798 -0.04739999
000030 a8 7b b6 3d 72 28 f1 3c e5 62 7b 3d 97 26 f6 3d
       0.08910304 0.029438231 0.06137361 0.12019079
000040 59 06 5b 3c 7b 0d b5 bc 36 3b c8 3d 9b d4 b0 3d
       0.013368213 -0.022101155 0.097769186 0.08634301
000050 68 61 c1 bc c4 e6 9a 3d 8b 6a 67 3c f9 df da 3d
       -0.023606017 0.07563546 0.014124523 0.10687251
000060 d7 0d b4 3d 34 b5 63 3d 6f cd d0 3d d6 dd 68 3d
       0.08791702 0.05559273 0.10195433 0.056852184
000070 e4 98 f7 3d 91 8e 3e 3c 3c 8b 4b 3d 34 72 15 bc
       0.120897084 0.01163067 0.04969333 -0.009121466
000080 7f 35 fd 3c 0c 19 26 3d b0 54 9d 3d 91 3b 90 bd
       0.030909298 0.04055123 0.076821685 -0.070426114
000090 cb d2 55 3d c1 58 55 3d 70 1e cc 3d ce ad 3e bc
       0.05220298 0.052086595 0.09966743 -0.011638118
0000a0 88 2f 91 bd a1 db 5b 3d f7 f5 22 3c ea 66 f3 bc
       -0.07089144 0.05367625 0.009946338 -0.02971216
0000b0 91 3b de 3c 60 bd a8 3d 24 d1 8e 3d 83 96 5f 3d
       0.027128013 0.082392454 0.06973484 0.0545869
0000c0 0a 1c 2d 3d 86 97 b5 3c a6 5d 3b bc 38 d0 0c 3d
       0.04226307 0.022166979 -0.011435902 0.03437826
0000d0 8a cc 9b 3d f7 b3 60 bc b5 2c 45 3b b4 c0 27 3d
       0.07607372 -0.013714782 0.0030086462 0.04095526
0000e0 fb 42 40 3d a0 85 80 3b 2d f7 80 bc a1 35 f7 3c
       0.046938878 0.0039221793 -0.015742863 0.03017694
0000f0 08 c2 29 3d 66 48 e6 bc 34 0e 6c 3b 6a eb 22 3d
       0.04144481 -0.028110694 0.0036019208 0.03977529
000100 1c 4a 20 3d 38 88 a9 3d 09 0e b7 3c e1 b4 47 3d
       0.039133176 0.08277935 0.02234556 0.048756484
000110 1d e2 19 3d dc 20 60 3d e7 98 01 bc 04 f0 0d bd
       0.037569154 0.054718837 -0.00790999 -0.034652725
000120 db 92 5a 3c 09 39 7f 3c 99 85 2f 3d 1a 59 0f 3d
       0.013340677 0.015577563 0.042852018 0.034997083
000130 ab 25 05 bb 0f f4 db 3a ae 05 80 3c 6b b8 4e bb
       -0.0020316641 0.0016781109 0.015627708 -0.0031543027
000140 8c 69 1d 3d 3a f4 e1 3c 04 b9 b7 ba ad 06 dd 3c
       0.038430735 0.027582277 -0.0014016931 0.026980722
000150 02 7b 21 3d 8f 33 6e bc 9e 4a ad 3c 46 5d 13 3d
       0.03942395 -0.01453866 0.021153744 0.035977624
000160 92 4a 1a 3c 73 af e5 3c 73 ab 2a 3d 8e 37 7f 3d
       0.009417193 0.028037762 0.041667413 0.06230884
000170 a1 c2 66 bc fd eb 10 bc 97 24 29 3d cf 14 60 3d
       -0.014084489 -0.0088453265 0.04129466 0.054707345
000180 cd 41 1c 3d e0 21 49 3d 96 94 30 bc bd f4 37 3d
       0.03814869 0.04910457 -0.010777613 0.044911135
000190 2b 12 a1 3d ba 46 84 3c f4 38 e2 3b 00 90 90 3d
       0.078647934 0.016147006 0.006903762 0.07058716
0001a0 74 d6 24 3c 05 c9 1f 3d 11 f5 80 3d 23 91 84 3d
       0.010060895 0.039010067 0.06296743 0.06472995
0001b0 7c 90 4c bd b0 86 9d bc cf cb 3a 3d 0e 2a f5 3c
       -0.04994248 -0.019229263 0.045604523 0.02992728
0001c0 a3 80 25 bc da b4 69 3d f8 d7 b9 3c b3 4d 46 bb
       -0.01010147 0.05705724 0.02268599 -0.0030258715
0001d0 0f e8 70 3d 8d 95 64 3d ef 3c aa 3d b9 fe 83 bd
       0.05881506 0.055806685 0.083124034 -0.06445069
0001e0 e9 b9 66 3d 1d ba 8c 3d bd 36 c4 3b 53 0c 09 bc
       0.05632964 0.06871436 0.0059879706 -0.008364755
0001f0 05 7d 04 bd aa d3 e2 3c ff 14 ad 3b 8e f1 f3 3d
       -0.03234579 0.02768882 0.005282044 0.11911307

action_model._continuous_distribution.log_sigma f4 [1, 2]
000000 83 fa 3d bd ca b5 e5 bd
       -0.046381485 -0.11216314

action_model._continuous_distribution.mu.weight f4 [2, 128]
000000 8f 95 e5 bc d6 58 8a 3d b9 21 91 3c 84 c1 ef 3b
       -0.028025417 0.06755225 0.017716276 0.00731677
000010 dc 59 03 3d 85 a6 ce 3b d8 58 70 3c af 0b eb 3c
       0.03206812 0.006306472 0.0146696195 0.028692095
000020 eb 5b d0 bc ea f9 bb bc c9 50 8e 3c eb f4 4b 3a
       -0.025434455 -0.022946317 0.017372506 0.0007780331
000030 fe 9a 89 3d 0e b2 1c 3d cf c3 43 3d f3 8d b6 3d
       0.067190155 0.038255744 0.04779416 0.089137934
000040 b7 6b 92 bc 2f b5 68 bd 15 aa b3 3d 88 fb 56 3d
       -0.017873628 -0.056813415 0.08772675 0.052485973
000050 54 90 77 bc 8a 75 3a 3c 25 62 77 ba b5 11 63 bd
       -0.015110094 0.011380563 -0.0009436927 -0.05543681
000060 b0 91 34 3d 4f 3c ee 3c cb 34 84 3d 5c 54 95 3c
       0.04408425 0.029081492 0.06455382 0.018228702
000070 6b d5 4d 3d 64 ac 59 bd 87 92 29 bc 9e 0e e9 3c
       0.05025236 -0.05314292 -0.010349876 0.028449353
000080 77 f7 af bc b8 f7 aa 3c 09 ab 83 bd 9e 32 51 ba
       -0.021480305 0.020870075 -0.06429107 -0.000798026
000090 ec 72 ed bd 4e c6 a9 3d e1 56 dd 3c 5a ff ab 3b
       -0.11594185 0.08289777 0.027018966 0.005248946
0000a0 07 03 06 bc f5 b8 c4 bd 53 46 8e 3c 4a 7e ec bb
       -0.008179433 -0.0960559 0.017367518 -0.0072172033
0000b0 9f e4 e0 bc 0e f1 d5 bd 46 01 4a 3b c8 54 bf bd
       -0.027452765 -0.10446368 0.0030823513 -0.093423426
0000c0 11 6d b1 bd 6b 36 91 3c 2c 6a 82 bd e6 04 ff 3b
       -0.08663381 0.017726144 -0.06367907 0.0077825664
0000d0 5d ff 41 3d 89 e1 cf 3c 93 f6 30 bd 79 d2 6d bc
       0.047362674 0.025376098 -0.0432039 -0.014515513
0000e0 4f 0b 36 3d f3 51 a5 bb 7b 49 3e bd f5 f9 75 bd
       0.04444438 -0.0050451695 -0.046456795 -0.06005283
0000f0 03 3b 61 bc ec ee 2a bc ae 12 80 bd fa b9 05 3d
       -0.01374698 -0.01043294 -0.06253563 0.032648064
000100 b4 45 8e bd 10 21 0f 3d 29 f7 e0 bc 89 49 ad bd
       -0.069468886 0.03494364 -0.027461605 -0.08461291
000110 44 68 9c 3c 66 c5 db bd 70 88 bd bb ba 97 95 bc
       0.019092686 -0.1073101 -0.005784087 -0.018260825
000120 c2 b7 03 3d 45 24 05 bd ae 8b 38 bb 68 e2 7d bd
       0.032157667 -0.032505292 -0.0028159427 -0.061983496
000130 62 18 89 bd 26 04 d4 bc 8d 7e b9 bd bd 3d 57 bd
       -0.06694104 -0.025880884 -0.09057341 -0.052549113
000140 f6 04 71 bd a4 68 f4 3c 4e e3 24 3b e6 d0 72 3b
       -0.05884262 0.029835053 0.0025159898 0.0037050783
000150 dc 89 9c bd c5 1c 1f bd 31 48 15 3d 0d e8 12 bc
       -0.07643482 -0.038845796 0.0364458 -0.008966458
000160 d0 52 25 bd 0f dc 04 be 9a 73 57 3d 43 0e ec 3c
       -0.04036218 -0.1297457 0.05260048 0.028815394
000170 1c c5 b6 bc 0e 71 5c bd 80 90 03 3d aa 8c a5 3d
       -0.022310786 -0.053818755 0.032120228 0.0808347
000180 d8 c4 95 bd c8 f4 dd 3c 45 a2 8b 3c 39 09 3e bd
       -0.073129356 0.02709426 0.01704515 -0.046395514
000190 09 32 b6 3d 59 c8 cf 3c 5b f9 14 bd 85 1a e6 bd
       0.08896262 0.025364088 -0.036370616 -0.11235527
0001a0 90 55 86 bc b9 a6 69 3d 94 ee ee 3c 0f 4b 39 bd
       -0.016398221 0.057043765 0.029166497 -0.045237597
0001b0 e9 62 5e bc 0f b2 41 bc c0 cb 03 3c d3 c4 33 3d
       -0.013573387 -0.011822238 0.008044183 0.043888878
0001c0 36 9e 92 3c 4d 72 a0 3d d2 ac d8 bc 6e 5f 02 3c
       0.017897706 0.07834301 -0.026449595 0.0079573225
0001d0 a8 18 28 3d 4f b4 90 3d 85 1e 9d 3d b1 d8 53 bb
       0.04103914 0.07065641 0.07671837 -0.0032325203
0001e0 51 3d 77 3d 0b 11 51 bc 8d 4f ec bc 3f fb c3 bc
       0.06036121 -0.012760411 -0.028846527 -0.023923514
0001f0 91 91 45 3a f7 46 9b bb 42 d9 a1 bd 2e f9 09 bd
       0.00075366447 -0.0047386843 -0.07902767 -0.033684902
000200 24 cd a0 bd 53 5a 17 3d 15 73 77 bd d9 bb a0 bc
       -0.078516275 0.036951374 -0.060412485 -0.019620823
000210 ba 3c 22 bd c5 4f a3 3c cf bb af 3c b5 a1 8e 3c
       -0.039608695 0.019935498 0.021451859 0.017411092
000220 b6 41 62 3c 2b 13 f5 bc a0 62 99 bd d6 d8 1f 3d
       0.013809612 -0.029916367 -0.07489514 0.03902515
000230 53 fc 9c 3c 35 81 2c 3c 1b f6 23 3b 1c 66 70 3d
       0.019163286 0.010528852 0.0025018516 0.05869113
000240 80 32 9d bd 20 62 64 3c 2c d5 91 3c 82 56 91 3c
       -0.07675648 0.01393941 0.017801844 0.017741445
000250 ad 39 22 3d 8d 05 0d 3e 70 c3 b0 bc f2 4c 01 be
       0.039605785 0.13771649 -0.021577567 -0.12627009
000260 b1 e4 b4 bd 24 b8 ab bc 13 6d 10 3d c9 bf 32 bd
       -0.08832682 -0.020961829 0.03526027 -0.04363993
000270 17 7e aa bd 3b 3d 27 bd f1 2b 91 3d 2f 0e 67 3c
       -0.08324831 -0.04082988 0.07088459 0.014102503
000280 95 d2 84 3d 2f 6f 3a 3d f7 b9 80 bd 72 de 51 bb
       0.06485478 0.04551619 -0.0628547 -0.0032023457
000290 a5 ef 8c 3c 22 5a 38 bc 82 29 cb bd 3c b3 10 bd
       0.017204115 -0.011251958 -0.09920026 -0.03532718
0002a0 1b ba 1e bb 8b 6e 6b bd 5c 67 58 3d 99 54 45 bd
       -0.0024219814 -0.05747847 0.052832946 -0.04817638
0002b0 be db 27 3d 29 1e 14 bd 91 bd c1 bd 08 d4 44 3d
       0.040981047 -0.036161575 -0.09459985 0.04805377
0002c0 ac 3d a1 3d e6 71 4d bc 26 38 bf bc e8 5f 9a 3d
       0.07873091 -0.012539363 -0.023342203 0.07537824
0002d0 f1 83 c3 3d 91 ec f3 3c fa d8 2f bd e3 c6 6d bd
       0.0954665 0.02977589 -0.042931534 -0.058051
0002e0 34 f7 4b 3d 05 e4 71 bd db 26 5a bc 3e 50 44 3d
       0.0497963 -0.059055347 -0.013314928 0.047928087
0002f0 88 c5 99 3d af bd 5c 3c 8c 5b 6a 3d cd f9 04 ba
       0.07508379 0.0134729585 0.057216212 -0.00050726236
000300 7b 97 08 3d 39 51 ba 3d 0b 4e 59 bd fa 6d 86 3d
       0.033347588 0.09097523 -0.053052943 0.06563945
000310 70 c6 b4 3c 49 d9 bc 3c 85 f4 ca 3c 88 30 38 3c
       0.022067279 0.023052828 0.0247748 0.0112420395
000320 5d 38 5b 3d 30 dc 4f 3d 20 44 a6 3d 9e 92 b2 3d
       0.05352055 0.050747097 0.081184626 0.08719371
000330 7c 91 e4 3c 44 70 4f bc 6e 09 87 3d fd b4 54 3d
       0.027901404 -0.012661044 0.065935954 0.051930416
000340 c1 3c 02 bd 14 52 85 bc c3 3a 97 bc 38 cc 20 bd
       -0.03179622 -0.01627449 -0.018460637 -0.03925726
000350 1d f8 70 bd 48 29 71 3d ca 50 82 3d 0e 91 83 bd
       -0.05883037 0.05887726 0.063630655 -0.06424151
000360 fd d3 56 bd d4 18 48 bd ab 8f b9 3c 43 fb 98 bd
       -0.05244826 -0.048851803 0.022651514 -0.07469799
000370 3e f7 c9 3c ad e3 17 bb ba e5 53 3d c2 27 a4 3c
       0.024654027 -0.0023176477 0.051732756 0.02003849
000380 df c1 25 3d 25 bf 80 bd 18 c4 9c 3c 6c b4 3a bd
       0.040468093 -0.06286458 0.019136474 -0.04558222
000390 00 e2 70 bd a4 2b a8 3c 13 d8 e5 3c 69 4a 4c 3d
       -0.05880928 0.020528622 0.028057134 0.04987565
0003a0 e4 4e d9 bc 06 f0 15 3d 5b 99 ae 3d 4b 12 87 3d
       -0.026526876 0.036605857 0.08525344 0.06595286
0003b0 06 29 a2 3c c2 0d 20 3d cf 8a af bc 31 93 a7 bc
       0.019794952 0.03907562 -0.021428494 -0.020455929
0003c0 cd 09 b5 3c fb f8 c5 3c 56 72 d1 bc a8 4f e6 bc
       0.0220994 0.024166575 -0.025567215 -0.028114155
0003d0 ae 25 e3 3c 33 17 83 bb c2 c0 e9 3c 3e 09 02 3b
       0.027727928 -0.0040005683 0.028534297 0.0019841935
0003e0 68 4b ab 3b aa b8 9d bd 7a 63 9d bc 67 6e e6 bc
       0.005227495 -0.077012375 -0.019212473 -0.028128816
0003f0 aa 22 81 3c c5 34 93 bd 74 9e 47 bc 9b db fe bd
       0.0157636 -0.07187799 -0.012183774 -0.1244423

action_model._continuous_distribution.mu.bias f4 [2]
000000 50 3e 0f 3d 97 5d 6d bc
       0.034971535 -0.014487646

exp_avg f4 [128, 8]
000000 b8 b8 5b bc e0 eb 71 3b fe 94 0d 3d f8 d0 0e 3d
       -0.01341074 0.0036914274 0.03456592 0.034867257
000010 8e 42 74 3b b2 19 5d 3c f1 c0 54 3c 74 2b 7f 3c
       0.0037271115 0.013494896 0.012985454 0.015574325
000020 cb 9a be bb 52 43 d1 3a 17 77 8e 3c 29 44 80 3c
       -0.0058167926 0.0015965498 0.01739077 0.015657501
000030 64 e0 d9 3a 84 2f 2a 3c fd 06 0f bc 98 3a fa 3b
       0.001662266 0.010387305 -0.0087296935 0.0076363795
000040 7a 13 46 3b 50 c2 bc 39 e8 ae 75 bb ca 66 7f 3b
       0.0030224011 0.00036002928 -0.0037488285 0.003897118
000050 d5 ef bd 39 46 ee 22 bb 65 72 ba 3b 00 c6 b3 bb
       0.00036227578 -0.002486126 0.0056899064 -0.00548625
000060 c6 aa 5b 3c 64 99 06 bb 97 13 0d bd d7 14 8b bc
       0.013407415 -0.0020538205 -0.03444251 -0.01697771
000070 60 bb 13 bb e8 78 e4 bc 0e c5 53 3c 5b 96 33 bc
       -0.0022542104 -0.027889684 0.0129253995 -0.0109611405
000080 11 d0 8d 39 a8 1f 8c b7 5a f8 35 39 bc 8f 48 b9
       0.00027048637 -1.6704042e-05 0.00017354023 -0.00019127032
000090 8f 2f cc b7 00 75 39 3a 50 33 f9 ba 61 85 4f 39
       -2.4340841e-05 0.00070746243 -0.0019012485 0.00019790746
0000a0 57 aa 0e 39 e7 63 45 39 af 4a 92 3a c0 7f 62 3a
       0.00013605632 0.000188246 0.0011161173 0.0008640252
0000b0 d8 9d 44 39 df fb 26 39 a8 68 9f 3a 7b 69 e9 3a
       0.00018750818 0.00015924823 0.0012161927 0.0017807925
0000c0 fb 2a c4 bb 0e f2 05 3a 92 61 a9 3b 31 ea 0d 3b
       -0.005986569 0.00051096163 0.005169102 0.0021654482
0000d0 89 df 03 3a b0 26 11 3b 9a 5d 43 39 b7 88 12 3b
       0.0005030563 0.0022148304 0.00018631518 0.002235932
0000e0 42 4b a0 bb 67 3f e2 3a f4 2a 49 3c 63 fb 0a 3c
       -0.004891784 0.0017261327 0.012278307 0.008482787
0000f0 40 62 e5 3a b5 a2 f4 3b e5 2d 86 39 c4 ae 9e 3b
       0.0017500594 0.0074656853 0.00025592666 0.004842611
000100 94 ab 0d 3c 97 bb 3e 3a d6 f4 6c bc 51 10 08 3b
       0.008646864 0.0007275878 -0.01446267 0.0020761678
000110 9f ab 3e 3a 1a 5c c5 bb 8c f6 38 3c 99 82 1b bc
       0.00072734983 -0.0060229423 0.01128925 -0.009491586
000120 4c d5 9b bb 76 66 40 ba 03 5b b3 3b 97 58 36 bb
       -0.0047556516 -0.00073394866 0.005473496 -0.00278238
000130 57 6f 40 ba 52 b2 67 3b aa ec 09 bc 31 37 b4 3b
       -0.00073408097 0.003535409 -0.0084182415 0.0054997434
000140 17 53 a0 3c ae df ac 3b 1a dc 48 bc 0a b0 d1 3c
       0.01957087 0.005275688 -0.012259508 0.025596637
000150 f4 4c a9 3b cc a7 b3 bc 0d 4e b4 3d b6 74 81 bc
       0.005166644 -0.021930598 0.088039495 -0.015802722
000160 9b 78 00 bb 95 aa 80 3a 73 70 3d 3c de 29 23 3c
       -0.0019603136 0.0009816462 0.0115624545 0.009958712
000170 62 4a 8a 3a 21 cc 02 3c df 56 fc bb f8 61 32 3b
       0.0010550732 0.007983238 -0.0077007855 0.0027219038
000180 c9 49 b5 ba 38 e2 23 3b 58 31 5a 3c 18 11 78 3c
       -0.0013831194 0.0025006663 0.0133174285 0.015140794
000190 62 0b 26 3b fb 15 46 bb 59 2e 12 3d 4a 93 0f bb
       0.0025336375 -0.0030225504 0.03568873 -0.002190786
0001a0 05 67 9a 3b be 32 2d bb af cf ca bc 24 72 f8 bb
       0.004711988 -0.002642795 -0.024757234 -0.007581966
0001b0 00 5e 2e bb c4 4b 33 bc d2 08 95 bc 3b fa 46 bc
       -0.0026606321 -0.010943357 -0.018192682 -0.0121446205
0001c0 3f 98 08 bc 69 4c ab ba 43 c8 08 3c 7a a8 d6 bb
       -0.00833708 -0.0013069037 0.008348527 -0.0065508457
0001d0 00 70 ab ba ef 4f cd 3b e0 d2 8b bc a9 d0 06 3c
       -0.0013079643 0.0062656323 -0.017068326 0.008228459
0001e0 74 e1 94 b9 8c ca 54 bb 4b 0b 3c bc 55 29 83 bc
       -0.00028396735 -0.003246936 -0.011477302 -0.01601092
0001f0 c7 bb 5b bb 55 c3 31 bc 2c 02 e7 b9 cd cd d7 3b
       -0.0033528672 -0.010849793 -0.00044061372 0.0065858127
000200 5c 1a 39 3b 54 13 82 3a 1f e9 10 b9 77 cc 22 3b
       0.0028244471 0.0009923973 -0.00013819755 0.0024841109
000210 74 b8 70 3a d0 a1 92 bb 78 f6 a3 3c e5 c9 f4 3a
       0.0009182759 -0.004474856 0.020014986 0.0018675892
000220 dd 3f 22 bc 47 2f f9 ba ac b0 2a 3c e8 a0 3a bc
       -0.0099029215 -0.0019011282 0.010418098 -0.011390902
000230 7f 33 f9 ba cb f4 4c 3c 7c 95 f7 bc 28 55 52 3c
       -0.0019012539 0.012509535 -0.030222647 0.012837686
000240 78 5d 35 bc 9d ce 16 bb 54 78 e7 3b 9b 98 2f bc
       -0.011069648 -0.0023011335 0.007063905 -0.010717536
000250 3b 03 17 bb 79 7e 26 3c 7e 72 08 bd 8f 23 33 3c
       -0.0023042697 0.010161989 -0.033312313 0.010933771
000260 49 3d 0c 3b b4 b5 e5 ba ba 74 84 bc b8 67 9a bc
       0.0021398833 -0.0017525465 -0.01616894 -0.018848285
000270 f1 8f ef ba 78 ce 28 bc 88 f1 2b bb 95 76 77 bb
       -0.0018277151 -0.010303132 -0.0026236493 -0.003775989
000280 30 32 b1 bc 20 2f 9b bb 58 6e 8c 3c 1f d4 9d bc
       -0.021630377 -0.0047358423 0.01714246 -0.019266186
000290 16 73 9a bb 47 74 ab 3c 09 01 9d bd 61 26 ce 3c
       -0.0047134263 0.020929469 -0.07666213 0.025164785
0002a0 f2 50 39 bb f3 0f 0c 3a 38 9c a7 3b 61 85 37 3c
       -0.0028277007 0.0005342953 0.0051150583 0.011201234
0002b0 cb dc 0e 3a c3 72 96 3b 01 c1 37 bb 26 fc b9 b9
       0.0005449771 0.0045913174 -0.0028038623 -0.00035473815
0002c0 ab 39 52 3b b2 39 92 3a 80 bb 0b 3b 34 14 df 3a
       0.003207783 0.001115611 0.0021321476 0.0017019571
0002d0 98 2f 87 3a 3f c7 d2 bb 54 41 c9 3c ba 70 f0 3b
       0.0010313867 -0.0064324434 0.024567284 0.007337657
0002e0 01 80 d2 3b 5d b2 2e 3a 4e aa 0f bc cb a2 7a 3b
       0.0064239507 0.00066641514 -0.008768631 0.0038244005
0002f0 32 9e 18 3a f1 52 15 bc 7a 57 9c 3c 52 44 99 bb
       0.0005821913 -0.009114013 0.01908468 -0.004677334
000300 c4 0e b6 3a 74 1b 8f b8 9a 93 3e bb 87 67 43 b9
       0.0013889899 -6.823885e-05 -0.0029079677 -0.00018635216
000310 91 f5 91 b8 d9 4f da ba 7d 94 33 3b 4e fb 2b bb
       -6.959879e-05 -0.0016655877 0.0027401738 -0.0026242319
000320 a7 b9 f5 3a d2 5c 3a ba c7 a1 e1 bb 54 ca 97 bb
       0.0018747345 -0.0007109168 -0.0068857404 -0.0046322737
000330 f5 34 45 ba 6c 22 4c bb 32 0a 5a bb 07 27 ca ba
       -0.0007522845 -0.0031148447 -0.0033270237 -0.0015423008
000340 ec d2 46 bb d0 70 26 ba 73 d4 c8 3a c9 a0 32 ba
       -0.0030338122 -0.0006349208 0.0015322104 -0.000681412
000350 f2 17 27 ba 2c 73 34 3b 28 45 2b bc 04 13 03 3b
       -0.00063741126 0.0027534468 -0.0104535 0.0020000348
000360 42 c0 e7 3b d7 7b 21 ba 93 41 84 bc 96 bb 36 bb
       0.0070724795 -0.0006160116 -0.01614455 -0.0027882806
000370 ab ca 3a ba ae f4 29 bc b5 56 21 3b 78 97 84 bb
       -0.0007125537 -0.010373278 0.0024618332 -0.004046377
000380 36 7b b1 ba c8 83 cd b9 cd f7 80 39 e7 92 f0 ba
       -0.0013540748 -0.00039198832 0.00024598688 -0.0018354327
000390 12 a5 c8 b9 3b 9a d2 3a 03 58 d2 bb 95 6b ce b9
       -0.0003826996 0.0016067693 -0.006419183 -0.00039371537
0003a0 5a 09 20 ba b2 88 72 3a 3a e2 e2 3b c3 2e 39 3c
       -0.0006104909 0.00092519366 0.006923941 0.011302653
0003b0 90 8e 7c 3a 5d 6d 5c 3b ca f1 68 3a 14 c7 32 3b
       0.00096342806 0.0033634522 0.0008886127 0.0027279304
0003c0 f9 ae c5 ba a4 10 b7 3a 79 e1 07 3c 5c dd b0 3a
       -0.0015082053 0.0013966751 0.008293503 0.0013493705
0003d0 0c 1d b1 3a 98 ce 8d 3a e6 51 89 3c 6a 72 ab 3b
       0.0013512685 0.0010819016 0.016762685 0.005232145
0003e0 8c cf b5 bb fb 61 5f ba 9a 28 10 3b 3b 85 df 38
       -0.005548423 -0.0008521375 0.0021996857 0.00010658285
0003f0 5d 6f 60 ba 85 47 ae 3a 62 6b 97 bc 37 dd bf 3b
       -0.00085615163 0.0013296461 -0.018483821 0.0058552283

exp_avg_sq f4 [128, 8]
000000 c9 f5 fd 3a 19 69 87 38 f1 7e e8 3a f4 5b 88 3b
       0.0019375618 6.4568776e-05 0.0017738027 0.0041613523
000010 b3 db 86 38 43 3f 87 3a 4f f6 17 3c 50 9a 8c 3a
       6.43054e-05 0.0010318536 0.009275033 0.0010727141
000020 3a 57 86 3a 37 10 16 38 d3 e2 61 3a d4 fb 68 3b
       0.0010249384 3.5777888e-05 0.0008616868 0.0035550492
000030 e2 f3 12 38 5d 85 08 3a 7f 90 18 3b 70 f0 03 3a
       3.5036246e-05 0.0005207861 0.0023279486 0.00050330814
000040 93 ae c5 39 de 45 4e 37 79 b6 b7 39 6b 52 7c 3a
       0.00037704836 1.2294824e-05 0.00035040433 0.00096253183
000050 43 95 4e 37 dc 47 70 39 7a bf 2e 3a 48 81 94 39
       1.23133095e-05 0.00022914953 0.00066661055 0.00028325082
000060 63 90 ae 3b b7 b1 41 39 56 83 a2 3b 06 db 90 3c
       0.005327271 0.00018472118 0.004959504 0.017682564
000070 f1 99 3f 39 2e 7c 47 3b 3d db a4 3c 5f 1c 69 3b
       0.00018272527 0.0030439007 0.020124072 0.003556989
000080 04 28 93 39 0c b5 15 37 db 27 84 39 5f 59 24 3a
       0.0002806784 8.923245e-06 0.00025206697 0.0006269421
000090 1a e9 15 37 59 e7 2b 39 94 e0 03 3a f1 cf 12 39
       8.935365e-06 0.00016394015 0.0005030718 0.00014001109
0000a0 d8 a8 98 39 f6 2c 09 37 fa 3c 89 39 c1 72 dc 39
       0.00029117498 8.176305e-06 0.00026176107 0.00042047168
0000b0 20 41 09 37 17 b6 35 39 8c 7c 68 3a ac 3f 34 39
       8.180999e-06 0.00017329339 0.00088686566 0.00017189857
0000c0 8c 75 a6 3a e8 df 18 38 26 99 88 3a 2b d4 22 3b
       0.0012699827 3.6448153e-05 0.0010421618 0.00248457
0000d0 37 50 19 38 95 ff 2c 3a 46 5e 11 3b ea e2 32 3a
       3.655275e-05 0.0006599364 0.0022181435 0.0006823974
0000e0 35 12 e0 3a 3d 20 6f 38 38 d0 c1 3a d3 06 63 3b
       0.001709527 5.7012065e-05 0.0014786785 0.0034641519
0000f0 11 09 6d 38 80 b2 6b 3a 02 07 4e 3b ff 8f 54 3a
       5.6513647e-05 0.0008991137 0.0031437282 0.00081086153
000100 03 b4 cc 3a 18 42 5f 38 50 27 cf 3a ea da 56 3b
       0.0015617613 5.3228898e-05 0.0015804563 0.0032784292
000110 e8 c9 5f 38 cd aa 71 3a 22 89 2a 3b 52 69 9d 3a
       5.3355383e-05 0.0009218872 0.002602168 0.0012009537
000120 72 4d 8b 38 b6 92 3b 36 b5 e2 ab 38 a5 6c 0a 39
       6.642462e-05 2.7950568e-06 8.196143e-05 0.00013201179
000130 3c 3d 3c 36 71 ab 99 38 cc dc 1d 39 00 67 89 38
       2.8049826e-06 7.327542e-05 0.0001505494 6.551854e-05
000140 04 1d 11 3c 16 c9 9c 39 5c 0a 06 3c d9 1c df 3c
       0.0088570155 0.0002990446 0.008181181 0.027235435
000150 51 54 9b 39 38 de b3 3b 70 4c e5 3c eb 8a ba 3b
       0.00029626724 0.005489137 0.02799055 0.00569283
000160 34 52 94 3a f5 6b 14 38 6e c9 77 3a 0a c8 3d 3b
       0.0011316002 3.5386493e-05 0.00094523176 0.0028958344
000170 97 65 13 38 16 e9 fe 39 41 1f 4e 3b fa 1b 35 3a
       3.5142144e-05 0.00048620318 0.0031451734 0.0006908771
000180 81 04 76 3b 2b da fc 38 b7 3b 63 3b 83 6d 03 3c
       0.0037539306 0.00012056933 0.0034673044 0.008021715
000190 78 bf ff 38 bc 52 e8 3a 6a 18 84 3c ac 7e 46 3b
       0.000121950114 0.0017724852 0.016124923 0.0030287905
0001a0 47 82 0b 3b 07 18 9f 38 a0 97 0c 3b 30 a1 d8 3b
       0.0021287368 7.586186e-05 0.002145268 0.006611012
0001b0 94 8b 9b 38 40 33 86 3a 38 30 14 3c a5 84 dc 3a
       7.4169744e-05 0.0010238662 0.009044699 0.0016824199
0001c0 f6 e3 f3 39 77 4c 8c 37 fc 62 11 3a 29 76 74 3a
       0.00046518416 1.6724907e-05 0.0005546061 0.00093254686
0001d0 41 a6 8c 37 86 88 90 39 05 3d bb 3a a3 c0 0d 3a
       1.6766719e-05 0.00027567538 0.0014285153 0.0005407428
0001e0 69 d2 ba 3b e4 d3 4c 39 f1 d8 a7 3b b0 f0 9c 3c
       0.0057013524 0.00019533891 0.005122297 0.019157737
0001f0 99 04 49 39 51 ce 1d 3b 11 5f 16 3c a0 cc 8f 3b
       0.00019170567 0.0024079273 0.009177939 0.004388407
000200 70 94 88 3a d1 43 2b 38 df 03 7f 3a 1b 37 7c 3b
       0.0010420214 4.0832736e-05 0.0009728055 0.0038484994
000210 b0 75 28 38 0c 24 3e 3a df 74 7d 3b 1b 36 46 3a
       4.0163926e-05 0.0007253296 0.0038674397 0.0007561163
000220 b4 a9 29 3a 1a 84 ca 37 76 69 25 3a 32 c2 75 3a
       0.0006472126 2.4141791e-05 0.00063099654 0.00093749457
000230 cd 3e cb 37 5b 83 03 3a 85 a9 f8 3a 76 c4 1f 3a
       2.422873e-05 0.0005016827 0.0018971419 0.00060946436
000240 3b c4 41 3a f7 0c d6 37 21 ee 2c 3a 74 64 ad 3a
       0.00073916063 2.5516825e-05 0.0006596763 0.001322879
000250 f0 04 d8 37 3c d1 f2 39 49 6e 20 3b a3 33 0f 3a
       2.5751506e-05 0.0004631373 0.0024479798 0.00054627116
000260 98 7b 7d 3a 05 c7 1b 38 f7 7b 80 3a 1b 79 87 3b
       0.0009669601 3.714023e-05 0.0009802569 0.00413431
000270 37 6b 1a 38 6f 92 23 3a f9 ee cf 3a f3 74 12 3a
       3.6816313e-05 0.0006239777 0.0015864066 0.0005586885
000280 1b 36 4b 3b a8 24 e1 38 e6 d2 3a 3b a1 3c 09 3c
       0.0031007591 0.00010735664 0.0028507053 0.008376271
000290 77 58 e4 38 4a de ff 3a 93 ba 3b 3c ab 23 11 3b
       0.00010888365 0.0019521203 0.011458057 0.0022146504
0002a0 b6 f2 d7 39 16 55 82 37 eb f6 cc 39 cb b2 3e 3a
       0.0004118883 1.5536829e-05 0.0003909388 0.0007274567
0002b0 49 4c 82 37 d7 8e 7e 39 8e ad c8 3a 1e f2 81 39
       1.553273e-05 0.0002427654 0.0015310512 0.0002478519
0002c0 6e 07 00 3b f2 e7 a1 38 f0 a7 00 3b 5e 20 fb 3b
       0.0019535678 7.7202814e-05 0.0019631349 0.0076637706
0002d0 24 bb a0 38 8c 64 b4 3a 76 06 f1 3b d5 a3 bc 3a
       7.664252e-05 0.0013762875 0.0073555065 0.0014392087
0002e0 cd 06 34 3a 7f 97 ea 37 3e f6 32 3a a0 d8 54 3b
       0.00068674685 2.796552e-05 0.0006826854 0.0032477751
0002f0 24 f0 e3 37 64 54 ee 39 a7 a8 1a 3b d9 ab 07 3a
       2.7172333e-05 0.00045457773 0.002359906 0.00051754486
000300 b2 d0 41 39 40 96 f5 36 d6 3c 56 39 21 92 d9 39
       0.0001848366 7.3190604e-06 0.00020431294 0.0004149834
000310 a1 46 f6 36 f0 08 04 39 3a b0 b4 39 e8 53 1e 39
       7.3395936e-06 0.0001259183 0.00034463574 0.00015099312
000320 80 ba 10 3a c1 42 8d 37 7e 21 09 3a 89 cd 8e 3a
       0.0005520955 1.6839595e-05 0.0005231126 0.0010894994
000330 d7 13 8d 37 13 e5 7e 39 f8 07 0c 3b 86 75 ee 39
       1.6817748e-05 0.00024308664 0.0021367054 0.0004548246
000340 32 c8 97 39 42 e0 27 37 ce e2 9d 39 3a ca 17 3a
       0.00028950121 1.000619e-05 0.00030114356 0.0005790327
000350 25 e6 28 37 8b 87 31 39 4e 1c 24 3a 27 d7 5d 39
       1.0067165e-05 0.00016930529 0.0006260321 0.00021156353
000360 b5 04 15 3b 20 3d 9d 38 f8 de 12 3b 58 b2 e7 3b
       0.0022738401 7.497729e-05 0.0022410732 0.007070821
000370 3d 0b 9b 38 c7 1e 9f 3a 52 9b 18 3c 39 58 f5 3a
       7.393069e-05 0.001213991 0.009314375 0.0018718309
000380 55 ff 4e 39 ce 24 db 36 1a b0 48 39 78 b3 04 3a
       0.0001974081 6.5309932e-06 0.00019139089 0.00050621433
000390 3d 86 dc 36 b2 77 f0 38 53 55 82 3a 40 bb 15 39
       6.5721383e-06 0.00011466387 0.0009943641 0.00014279503
0003a0 1b 9e 0f 39 bd 28 b7 36 cf c5 13 39 45 29 e9 39
       0.00013696442 5.4585676e-06 0.00014092702 0.0004447197
0003b0 7d 39 b2 36 4f d8 ab 38 5b fa 89 39 86 3e c2 38
       5.311506e-06 8.194206e-05 0.00026317206 9.262287e-05
0003c0 4a ef 6c 3a 42 d3 10 38 f2 b8 64 3a ac a3 39 3b
       0.00090383424 3.4529025e-05 0.0008725069 0.0028326316
0003d0 6e a3 0d 38 7b 77 11 3a 00 9b 0a 3b 01 11 0d 3a
       3.3769225e-05 0.0005549115 0.0021149516 0.0005381257
0003e0 c6 8b 37 3b 36 d7 a7 38 49 6c 2d 3b 34 ba 9a 3b
       0.0028006895 8.003267e-05 0.0026462248 0.004721904
0003f0 7c 77 a8 38 ad 75 df 3a 80 b7 05 3c 62 0f f0 3a
       8.03312e-05 0.001704862 0.008161426 0.0018315131

exp_avg f4 [128]
000000 e0 eb f1 3b 52 43 51 3b 50 c2 3c 3a 64 99 86 bb
       0.007382855 0.0031930995 0.00072005857 -0.004107641
000010 a8 1f 0c b8 e7 63 c5 39 0e f2 85 3a 67 3f 62 3b
       -3.3408083e-05 0.000376492 0.0010219233 0.0034522654
000020 97 bb be 3a 76 66 c0 ba ae df 2c 3c 95 aa 00 3b
       0.0014551756 -0.0014678973 0.010551376 0.0019632925
000030 38 e2 a3 3b be 32 ad bb 69 4c 2b bb 8c ca d4 bb
       0.0050013326 -0.00528559 -0.0026138073 -0.006493872
000040 54 13 02 3b 47 2f 79 bb 9d ce 96 bb b4 b5 65 bb
       0.0019847946 -0.0038022564 -0.004602267 -0.003505093
000050 20 2f 1b bc f3 0f 8c 3a b2 39 12 3b 5d b2 ae 3a
       -0.009471685 0.0010685906 0.002231222 0.0013328303
000060 74 1b 0f b9 d2 5c ba ba d0 70 a6 ba d7 7b a1 ba
       -0.0001364777 -0.0014218336 -0.0012698416 -0.0012320232
000070 c8 83 4d ba b2 88 f2 3a a4 10 37 3b fb 61 df ba
       -0.00078397663 0.0018503873 0.0027933503 -0.001704275
000080 81 ef a5 39 f3 3f 17 3a 5c 19 41 3b 03 f9 d7 b9
       0.00031649697 0.0005769722 0.0029464578 -0.00041193524
000090 da 45 16 3b 08 a4 a9 3b e7 ab 67 3a 40 26 f0 3b
       0.0022929818 0.0051770248 0.0008837566 0.0073287785
0000a0 7f 5c 06 ba 64 19 3c 3b 35 83 1d bb 20 bc ef 3a
       -0.00051254773 0.0028701657 -0.0024034504 0.0018290319
0000b0 db ea 1e 39 64 4b 21 b9 6e b5 cb bb b5 3a 33 bb
       0.00015155545 -0.00015382242 -0.0062166965 -0.0027348225
0000c0 f5 55 c6 3a 46 57 db 3a 2b 6e cc bb 72 a5 25 3b
       0.0015131818 0.0016734384 -0.006238719 0.0025275615
0000d0 17 a3 13 39 38 e3 fb ba d3 e6 5e 3b b4 95 1a bb
       0.00014079768 -0.0019217497 0.0034012094 -0.0023587765
0000e0 88 01 8b 3b 14 98 e6 3a c8 a8 68 bb 2d 2e 29 bc
       0.004242126 0.001759293 -0.0035500992 -0.010325951
0000f0 ae f4 8a 37 40 22 61 39 42 df 3d 38 91 9f 66 ba
       1.656482e-05 0.00021470431 4.5269036e-05 -0.0008797581
000100 3e e3 80 ba 7e 8a 29 bb 2c bc 48 39 f6 cf 6c ba
       -0.0009833348 -0.0025869901 0.00019143586 -0.0009033674
000110 f7 df 51 3b ae 04 24 bc 9b 1f 10 39 c0 b0 62 3a
       0.0032024363 -0.010010881 0.00013744684 0.00086475536
000120 95 92 a5 3a 55 0a a8 bb dc a2 a3 3b 6b b1 9d bb
       0.0012632186 -0.005128185 0.0049937796 -0.0048124096
000130 ef 1f ff 39 99 9f fe 3a a4 df 00 ba 61 d5 30 ba
       0.00048661183 0.0019426226 -0.00049161376 -0.0006745663
000140 5d b0 6a ba f4 cd 30 bb 0c 83 42 3a 1d e0 43 ba
       -0.0008952672 -0.0026978226 0.000742004 -0.0007472055
000150 2a c5 24 39 35 59 93 39 a8 a3 e0 3b f9 64 17 38
       0.00015713708 0.0002810449 0.006855447 3.6095244e-05
000160 6d ea 19 3b 0e 89 c1 ba 67 e8 b5 3a 25 77 2e bb
       0.0023485676 -0.0014765577 0.0013878465 -0.0026621309
000170 07 a4 33 3b bd 76 b8 bb 99 21 ab bb c0 a9 ca 3a
       0.0027411 -0.005629389 -0.005222511 0.0015461966
000180 62 1c 8d ba 1a ad 3e bb bb f6 89 ba f1 58 22 bb
       -0.0010765905 -0.0029094876 -0.0010525802 -0.0024772251
000190 7a 5c fe bb 50 e4 40 bb dd 73 22 3b 9d 3e 2d 3a
       -0.007762489 -0.002943296 0.0024788298 0.00066087564
0001a0 6d 2a 83 39 e1 a2 fb 39 44 18 39 3b 4a f4 e6 b8
       0.00025017877 0.00047995805 0.0028243223 -0.00011012757
0001b0 1c c1 a4 bb f9 02 df 3a 53 a7 f4 bb c5 4c 1f bb
       -0.0050279032 0.0017014436 -0.0074662357 -0.0024307233
0001c0 db dd c1 ba 1f 9e 07 3c c9 ca 1a bb 7f 74 26 bb
       -0.001479085 0.008277445 -0.0023619405 -0.0025399027
0001d0 49 12 0e bb 7b e5 a8 39 4e fb fd b7 ff 90 61 bb
       -0.002167838 0.00032214433 -3.0276973e-05 -0.00344187
0001e0 cd 9f 1d bb 09 bb 13 39 b4 a4 3e 3b e3 3b 82 39
       -0.0024051548 0.00014088688 0.002908987 0.0002484015
0001f0 12 a8 d7 3a 0b d8 de 3a bf 3b d9 3a 6c f9 1d 3b
       0.0016453287 0.0017001642 0.0016573592 0.0024104966
