RollerBall/results/RollerBall_v5/RollerBall/checkpoint.pt (torch, 450530 bytes, 44 tensors)

network_body.observation_encoder.processors.0.normalizer.running_mean f4 [8]
000000 e0 e0 86 bc e6 fc ff 3e 28 3d 7a bd 65 49 12 be
       -0.01646465 0.49997634 -0.06109348 -0.1428581
000010 38 a9 ff 3e 5b 9a 33 bc aa 3a 14 ba cc 5f eb 3a
       0.4993379 -0.010962094 -0.00056544936 0.0017957627

network_body.observation_encoder.processors.0.normalizer.running_variance f4 [8]
000000 6f 58 bf 48 42 ff 9f 3f d5 73 c1 48 92 37 1b 49
       391875.47 1.2499774 396190.66 635769.1
000010 2e db 38 42 4d 42 26 49 19 5f 0a 49 26 1c 0f 49
       46.214043 680996.8 566769.56 586178.4

network_body.processors.0.normalizer.running_mean f4 [8]
000000 e0 e0 86 bc e6 fc ff 3e 28 3d 7a bd 65 49 12 be
       -0.01646465 0.49997634 -0.06109348 -0.1428581
000010 38 a9 ff 3e 5b 9a 33 bc aa 3a 14 ba cc 5f eb 3a
       0.4993379 -0.010962094 -0.00056544936 0.0017957627

network_body.processors.0.normalizer.running_variance f4 [8]
000000 6f 58 bf 48 42 ff 9f 3f d5 73 c1 48 92 37 1b 49
       391875.47 1.2499774 396190.66 635769.1
000010 2e db 38 42 4d 42 26 49 19 5f 0a 49 26 1c 0f 49
       46.214043 680996.8 566769.56 586178.4

network_body._body_endoder.seq_layers.0.weight f4 [128, 8]
000000 3d 44 fd 3d 65 d5 c8 3e 2f 2a 85 3f b6 0b d8 be
       0.12366531 0.39225307 1.0403498 -0.42196435
000010 8d c5 25 3c 73 c1 69 be 46 7a 84 3e 80 9c 45 be
       0.010117901 -0.22827701 0.25874537 -0.19297981
000020 80 81 19 bf b5 3c 91 be b0 ab 48 be a6 4b 87 3c
       -0.59963226 -0.28366628 -0.19596744 0.016515564
000030 1d 09 7e be 97 a8 ec be f5 a4 fc 3e 91 6c 88 3e
       -0.24808164 -0.46222374 0.49344602 0.2664533
000040 15 5a 1a 3e b5 e9 b9 be 8c 0e 26 3e ac ba b0 be
       0.15073426 -0.36311117 0.16216487 -0.3451742
000050 7b 65 c7 be 7c f8 f8 be 69 a9 00 3e 7e 64 c6 3d
       -0.3894461 -0.4862708 0.12564625 0.09687136
000060 e1 19 87 3e 4e 6a b0 be 22 db ce be 37 44 97 3d
       0.26386932 -0.34456104 -0.4040156 0.07386058
000070 03 f6 9c be 28 73 40 be f9 62 cd 3d 73 16 2c be
       -0.30656442 -0.18793929 0.10028643 -0.16805439
000080 80 0e e4 3d 1f 00 0d 3f 22 50 7a 3e 1d 3d 44 be
       0.11135578 0.5507831 0.2444463 -0.19163938
000090 1a 63 6e be a9 a7 1f bf f4 cf 4d be 6f c4 23 bf
       -0.23279992 -0.62365204 -0.20098859 -0.6397161
0000a0 c1 81 8a bc db 86 59 3c b7 cc 5a 3e a8 ed 7b be
       -0.016907575 0.013276781 0.21367155 -0.24602377
0000b0 e6 5c bd be b0 40 fb 3e 83 9e 05 bd a7 9a 12 bf
       -0.36984938 0.4907279 -0.03262187 -0.5726723
0000c0 5e 4f 40 bd d7 99 a8 be 92 f1 00 3e ce 8b c5 3e
       -0.04695069 -0.3292987 0.12592152 0.38583225
0000d0 4e 04 00 3e d6 15 c6 be bf a1 c5 be 22 8a 50 bf
       0.12501642 -0.38688534 -0.38599965 -0.81460774
0000e0 4c 7e c3 be 0f ba 0b bf b1 10 fe 3e 07 3a c6 3c
       -0.38182294 -0.5458078 0.4962211 0.024197591
0000f0 6f b7 ee 3d d1 93 27 be 48 12 81 3e 9e 09 ce bd
       0.11656081 -0.16364981 0.2520926 -0.10060428
000100 6c ab 4d bf f5 e8 d4 bd f7 47 9e be 90 fb 3a 3f
       -0.80339694 -0.103959955 -0.3091428 0.73040104
000110 f7 10 15 bc 2d 76 82 be 6a ba e4 3e b2 9c 20 be
       -0.009098283 -0.25480786 0.44673473 -0.15684775
000120 a2 c5 fa 3e 03 7e cc 3e 73 86 ec 3d c4 39 db be
       0.48978907 0.3993989 0.11549082 -0.4281751
000130 db 86 c3 3e 24 74 34 bf f2 b4 d4 be ea 3b 39 bf
       0.38188824 -0.70489717 -0.415443 -0.72357047
000140 ca c9 54 3f fb 2b 89 be f4 5e a0 3e 16 9f 25 bf
       0.83120406 -0.26791367 0.31322443 -0.6469587
000150 ec 70 a2 bc 4a 5d 8d 3a e6 26 ad 3d 53 24 cf 3d
       -0.019829236 0.0010785249 0.08454685 0.1011435
000160 47 52 c2 3e f6 08 bc 3d c2 e0 8d bf 14 7c e4 be
       0.37953398 0.09181397 -1.1084216 -0.44625914
000170 46 dd d5 bd 66 b5 ee bd f6 f4 03 3e b6 b0 92 3e
       -0.10442595 -0.11655693 0.12886414 0.28650445
000180 65 f0 0c bf 6f 7c b3 3e d5 7d 2d bd 66 43 31 bf
       -0.5505431 0.35055873 -0.04235633 -0.69243467
000190 b7 c8 96 be 19 5e f6 3e 49 c9 8c 3e 47 90 3a 3e
       -0.29450008 0.48118666 0.27497318 0.182191
0001a0 78 eb 11 be 84 15 2d 3e ae ac 08 3e 5d cc 00 be
       -0.1424998 0.16902739 0.13347122 -0.12577958
0001b0 ee 39 39 be 8f 9c c3 3e 39 90 e0 be 8d a9 f8 bd
       -0.18088505 0.38205382 -0.43860033 -0.12141714
0001c0 b2 58 22 3f d3 24 20 3f 72 c3 fe be 5a 13 3d bf
       0.6341659 0.6255619 -0.49758488 -0.73857653
0001d0 61 ef 5e 3e c5 36 c2 be e8 28 cc bd 7a 45 15 3e
       0.21771003 -0.3793241 -0.0996874 0.14577284
0001e0 f5 2b d5 bd 74 16 9d 3e 3e 47 13 3e ff ae 0c 3e
       -0.10408775 0.30681193 0.14382645 0.1373863
0001f0 3e e9 4c be df 56 6a bf 1f b0 f9 be 1a 85 e3 be
       -0.2001085 -0.91538805 -0.48767182 -0.44437486
000200 99 54 cb 3d af 18 f6 be 94 5d a6 bc 99 0f 43 3e
       0.09928245 -0.48065707 -0.020308293 0.19048919
000210 ab fd b1 3d eb af 87 3c 35 32 a2 be e6 1a 8c 3e
       0.086909615 0.016563376 -0.3167893 0.27364272
000220 c7 53 3a be 2a ac 47 be ba f1 e0 be e1 ff 8a be
       -0.18196021 -0.19499269 -0.43934423 -0.27148345
000230 55 65 4f 3f 3b 3e c1 3d 2b 47 34 be 5b 6e 23 3e
       0.81013995 0.09435698 -0.17605273 0.15960066
000240 5f 51 7f bf 73 d5 16 3e 90 d4 aa be 70 9c 80 3e
       -0.9973354 0.14729862 -0.33365297 0.25119352
000250 22 1b d1 3e 0b 7b 8a 3e da da 65 3e 19 ab a1 be
       0.40841013 0.27047 0.22446766 -0.3157585
000260 92 e0 3e 3f e3 0e e2 3d 02 9e a0 3c af 18 43 be
       0.7456142 0.11037996 0.019606594 -0.19052385
000270 ba c1 71 bb 92 70 a3 be 6b 26 3a 3e 45 72 24 3e
       -0.0036889152 -0.31921822 0.18178718 0.16059215
000280 9b fe e7 be d9 01 e5 bd f3 6d ed be c1 7e 50 3c
       -0.45311436 -0.11181993 -0.46372947 0.012725533
000290 85 50 1d 3f bb ac 9f bd 0a b2 c7 3e 30 dc 34 3e
       0.6145099 -0.077966176 0.3900302 0.1766212
0002a0 1b 0c ae be af 8a 30 3d e4 bc 2e 3e 9a ef 4f 3e
       -0.3399361 0.04310101 0.17064244 0.20306244
0002b0 3b 5c 7d be cb 97 08 bf d0 8d 92 be eb 4d c2 3e
       -0.24742214 -0.5335662 -0.2862382 0.37950072
0002c0 38 c9 a3 be 0c 06 97 3e 54 f7 e0 3d f4 da 41 bd
       -0.31989455 0.294968 0.10984674 -0.04732795
0002d0 28 4c 20 3e 80 51 73 3e ed e9 be 3d 9d 2e 09 bf
       0.15654051 0.23761559 0.093219616 -0.5358675
0002e0 96 a6 b3 3e ad e6 be 3e 71 93 e6 3e f4 42 f0 be
       0.35088032 0.37285367 0.45034364 -0.4692608
0002f0 12 eb 67 be 01 f0 1d be b1 aa 10 3d ba 99 82 bb
       -0.22648266 -0.15423585 0.035319034 -0.003985611
000300 e7 19 36 b8 66 dd b9 be a7 05 0c 3e 0a 3b 92 be
       -4.3416305e-05 -0.36301726 0.13674031 -0.28560668
000310 e0 75 c5 be 33 60 97 3d 0a 49 f8 3e 3e 98 00 be
       -0.38566494 0.073913954 0.48493224 -0.12558076
000320 19 97 8a bd ef 57 9c 3e 8b 38 33 3f fe a1 a6 3e
       -0.06767101 0.30535838 0.7000815 0.32545465
000330 09 8d 08 3d 6b c0 a6 bd 56 2c bb 3e b9 83 1d 3e
       0.033337627 -0.081421696 0.36557263 0.1538228
000340 cf ec 82 3e b6 80 26 3f a6 33 3c 3d 11 d6 1e bd
       0.25571296 0.6504015 0.045947693 -0.03877837
000350 d8 82 26 3e 70 fa 05 3f 2f 47 fd be 7e bf 3a 3d
       0.1626085 0.5233526 -0.4946837 0.045592777
000360 c9 f8 33 3e 85 e9 fe 3d cd 23 20 3e a2 70 97 3e
       0.17575373 0.12446884 0.15638657 0.2957812
000370 b8 1f 15 3f f1 45 94 3a 8d 29 f9 be 3e 72 24 bf
       0.58251524 0.0011312348 -0.48664513 -0.6423682
000380 3d 66 50 3f 29 da 01 3f 59 49 95 3e ce 00 e8 be
       0.81406003 0.5072351 0.29157522 -0.45313114
000390 cf 7c db be 30 df 4b 3f fc 24 a3 be 76 9b 8b ba
       -0.4286866 0.7963743 -0.31864154 -0.0010651189
0003a0 c8 7e c3 be 15 77 5c be d2 4f 20 bf 48 9b 98 3d
       -0.38182664 -0.21529801 -0.62621796 0.074514925
0003b0 37 67 81 3e eb 05 0e 3e 90 f1 bd be 95 f3 1e be
       0.2527406 0.13869445 -0.3709836 -0.15522607
0003c0 a2 34 0d 3e 8b 3b ff 3e 4a 0a 75 be d6 f7 d1 3d
       0.13789609 0.49850115 -0.23929706 0.10252349
0003d0 a1 e5 da be 87 49 03 bf 92 ec 2d 3b e0 3a 8b 3e
       -0.42753318 -0.5128407 0.0026538712 0.27193356
0003e0 6d d1 df 3e 4d 9a 39 bf 36 c2 f1 3d c3 b7 b6 3e
       0.43714467 -0.7250107 0.11804621 0.35687074
0003f0 90 c9 dd 3e ef fb c9 be f2 d4 36 be 19 e1 d6 3e
       0.43317842 -0.39450023 -0.1785467 0.4196861

network_body._body_endoder.seq_layers.0.bias f4 [128]
000000 fa 73 b0 3d bc f9 92 bd 8e 29 23 bd 0e 31 f0 bd
       0.08615871 -0.07176539 -0.03983455 -0.117281064
000010 b5 6a e5 3c 34 3f a4 3c ce 9c f9 bb 38 f6 ee 3c
       0.028004983 0.020049669 -0.0076175695 0.02917014
000020 f2 18 40 3d 68 ee 66 3d b6 ed c7 3d e3 86 9f 3d
       0.04689879 0.056379706 0.09762137 0.077893995
000030 98 61 85 3c 8f 0c f3 3c d6 7d 83 3d ac 8f 2b 3d
       0.016281888 0.029669074 0.06420486 0.041885063
000040 2e 5f aa 3c 19 38 1e 3d 3f 4c 67 3d 70 62 bf bb
       0.020797338 0.038627718 0.0564692 -0.005840592
000050 87 d0 a0 3d a8 a2 97 3d dc 48 8b 3c 11 fd af 3d
       0.078522734 0.07404071 0.017002515 0.085931905
000060 f0 61 e3 bd 13 81 00 3d 99 a8 1e 3d 15 38 00 3d
       -0.111026645 0.031373095 0.038735006 0.031303484
000070 d2 a0 9a 3d 50 c5 13 3d f5 57 05 3d d3 9f 48 3c
       0.07550205 0.036076844 0.032554585 0.012245136
000080 a7 9d 74 3d 69 75 71 3d 71 ef 49 bd 38 60 96 3d
       0.05972066 0.05894986 -0.049300615 0.07342571
000090 11 7e 17 3c f0 f6 a7 3d 9f 0c 21 3c a8 23 39 3d
       0.009246365 0.082013965 0.009829669 0.04520002
0000a0 26 9d 9c 3c 81 af c0 3c 44 90 d6 3d 1c 5b 17 3d
       0.019117903 0.023521187 0.10476735 0.036952123
0000b0 3a 0f 90 3c 05 28 16 3c dc 3a 3e bd a3 91 af 3d
       0.017585386 0.009164815 -0.04644285 0.085727
0000c0 29 71 89 bc 9f dd 2a 3d 2c 2e 05 3e e2 72 2e 3d
       -0.016777592 0.04171526 0.13005894 0.04259003
0000d0 43 20 72 3d 28 48 c3 bb 99 dd f6 3c 12 33 47 3d
       0.0591128 -0.0059595294 0.030134963 0.04863269
0000e0 c4 5f 4c 3d 8b c2 9b 3c ea 8a 53 3d 9f c9 af 3c
       0.049896017 0.019013664 0.05164615 0.021458445
0000f0 33 12 b8 3c d2 53 27 3d b6 81 b9 3d 7b fe f2 3d
       0.022469616 0.04085142 0.090579435 0.118649445
000100 ac 56 f9 3d 8f 9f c5 3d 87 75 5b 3d 5f 6c 60 3d
       0.121747345 0.09649574 0.05357888 0.05479085
000110 9f 02 09 3b 15 4e a2 3c e8 48 3c bd 5b 43 9e 3d
       0.0020906103 0.019812623 -0.045967966 0.07727691
000120 e5 c2 1b bd 8e d5 d3 3d f6 bc 3f bc 46 2b c3 3d
       -0.038027663 0.10343467 -0.011702767 0.09529738
000130 d0 ff 34 3d e9 18 b1 bb 2a 68 c3 3d c7 0b fc 3d
       0.044189274 -0.005404581 0.09541352 0.12306934
000140 a5 07 51 3d ae 67 bb 3d 8f f9 22 3c 53 c6 c7 3c
       0.05103268 0.09150635 0.009947195 0.02438656
000150 0a 59 28 3d 04 a5 a6 3d c7 0a c6 3c 5f 39 16 3d
       0.04110054 0.08136943 0.02417506 0.036675807
000160 c1 f3 a1 3d 1a 75 88 3d 4a 38 83 3b f4 1a 9c 3d
       0.079078205 0.0666296 0.004004513 0.076223284
000170 b3 fa 43 3d 78 d9 aa 3d 2e 9d 37 3d f0 00 d0 3c
       0.047846507 0.0834226 0.044827633 0.025391072
000180 d7 2f fc 3c bc 96 e8 3c d9 9f d7 3d 81 93 b6 3d
       0.03078453 0.028392188 0.105285354 0.08914853
000190 77 12 4a bc 68 13 e2 3b 66 10 ad 3d 41 e6 aa bc
       -0.012333504 0.006899286 0.084503934 -0.020861747
0001a0 d8 71 8d bb c3 1e f0 3c 8b 54 2a bc c2 38 a4 3d
       -0.0043165497 0.029311543 -0.010396133 0.08018638
0001b0 43 f8 0b b9 cc f5 c0 3d 3a 82 36 3d 99 87 5d 3d
       -0.00013348558 0.09421882 0.044557787 0.054084394
0001c0 cc c2 fd 3d ba fd 33 3d 00 6e c0 3c 20 f0 98 bc
       0.1239067 0.043943144 0.023489952 -0.018669188
0001d0 a9 30 85 3d c3 ed 2e 3d d2 75 49 3d 67 b6 e1 bb
       0.06503422 0.042707216 0.049184628 -0.006888199
0001e0 6c 9b 9d 3d 27 f0 c6 bd b2 fb b2 3c 2a f2 88 3d
       0.0769566 -0.09713774 0.021848533 0.06686814
0001f0 62 6f 2b bc 50 a2 53 3d 5b 8d 8e 3d 66 01 09 bd
       -0.010463567 0.051668465 0.06960555 -0.0334486

network_body._body_endoder.seq_layers.2.weight f4 [128, 128]
000000 1d 81 ab 3d c8 21 03 3e 7b b0 e7 3d 2c a8 c9 bd
       0.08374236 0.12805855 0.11312958 -0.09846529
000010 30 6c 6a 3e af 2c 13 be 84 4d 2c bd c2 61 87 3c
       0.22892833 -0.14372514 -0.042066112 0.016526107
000020 8b c8 eb 3d af a2 38 3d 9c a4 c6 3d 6a 14 aa bb
       0.1151286 0.045077022 0.096993655 -0.005190422
000030 58 62 16 bd 0f 95 71 bd 4a 54 ba bd b8 42 53 3d
       -0.03671488 -0.058980044 -0.09098108 0.0515773
000040 4a 19 b9 bc 14 f2 29 3e ad 17 09 bd ec 37 37 3d
       -0.022595067 0.16596252 -0.033469845 0.044731066
000050 ec ad 32 3d 5d 08 c9 bc 59 8c 89 bc d9 89 22 bd
       0.043622896 -0.02454012 -0.016790556 -0.039682243
000060 04 5d 09 3e 80 29 ea 3d b7 a1 79 3d 5f ab 6a 3d
       0.13414389 0.11433697 0.06094524 0.05729234
000070 50 50 4c be 2b 17 01 bd 8d ac 80 3d b8 d3 b8 3c
       -0.19952512 -0.031516235 0.062829114 0.022561893
000080 00 d2 f1 bc f8 62 bb 3c ab ba b5 3c 17 4e e2 bd
       -0.029519081 0.02287434 0.022183737 -0.11050051
000090 06 f1 ba bb 34 cb 11 bd 02 4e aa 3d 97 7a 13 3e
       -0.0057050018 -0.03559418 0.0831566 0.14402233
0000a0 07 89 d4 bb 87 27 ba 3d b8 1f 32 3c 9e 4c c6 3c
       -0.0064860615 0.090895705 0.01087182 0.024206456
0000b0 ec df df 3d 65 25 ca 3d 7a 8a 95 3c e9 c9 32 3e
       0.109313816 0.09870414 0.018254507 0.17459835
0000c0 85 74 8f 3d 32 4e 0b bd 5b 34 2b 3e 53 1f 19 3d
       0.07004646 -0.03401012 0.16719191 0.03738339
0000d0 6f a3 1d 3c f4 2b e4 bd 19 ca 3b bd 17 5d d8 3c
       0.009621485 -0.11141196 -0.045847032 0.026411576
0000e0 34 1e 35 3d f4 40 d0 bd 97 23 b3 bd 4e 36 e8 b8
       0.044218257 -0.10168639 -0.087470226 -0.00011072737
0000f0 0e ec 04 3d 87 d5 f7 bd 35 66 13 3e c0 05 9f bd
       0.03245168 -0.12101274 0.14394458 -0.077647686
000100 5c 23 8e 3e 51 a3 e8 bd 57 e9 73 3c 44 2f 68 3c
       0.27761352 -0.11359275 0.0148871755 0.014171425
000110 2a 7e c3 3d 69 3a ef bd d7 ee 9b 3d a2 2f 84 3e
       0.09545548 -0.11681063 0.076139145 0.2581759
000120 76 e5 34 bd 07 18 4b 3d 7e ce 25 3e 51 0c cf bd
       -0.044164144 0.04958346 0.16192052 -0.10109771
000130 5b 4f e6 3d 76 16 8b bd 44 47 02 3e 14 d8 0f 3d
       0.112456046 -0.067913935 0.12722498 0.035118178
000140 6d a9 1d be bc 06 ac bd 92 b5 3a 3d 7d 12 75 3d
       -0.15396662 -0.08399722 0.045583315 0.059832085
000150 16 33 09 be 98 08 cd 3c 1c cf 2f bd d2 c5 ce bd
       -0.13398394 0.025028512 -0.042922124 -0.10096325
000160 09 55 e7 3c bf 52 21 bd c9 ff 22 3e 11 b5 eb 3d
       0.02823879 -0.039385553 0.15917887 0.11509145
000170 7c 1f 1f 3e e4 fb 3d 3b cf 95 8b bd 4a 6f d7 3d
       0.15539354 0.002898925 -0.06815683 0.105192736
000180 7a 03 9c bd 97 ff 65 3d df dc fa 3d 73 09 0f bd
       -0.076178506 0.056151953 0.12249159 -0.03492112
000190 1f 89 3c be c6 fa 9f 3d bc 63 73 be d4 14 70 3d
       -0.18411683 0.07811503 -0.23768514 0.058613613
0001a0 2f ef 6f bb e9 15 2d bd 59 57 8d 3c 8a e9 17 bc
       -0.003661107 -0.042257223 0.017253565 -0.009271989
0001b0 0e 6e 82 bd 43 82 e4 bb c5 55 28 3c 70 8a 1c bd
       -0.063686475 -0.006973536 0.010274355 -0.03821796
0001c0 6b de c6 3d 24 75 ab bd 75 78 e6 3c 4c 4c 52 3d
       0.097103916 -0.08371952 0.02813361 0.051342294
0001d0 3f 24 ea 3c c8 5a d3 3d 33 c5 41 be 7a 8e 1e bc
       0.028581737 0.103200495 -0.18922882 -0.009677524
0001e0 c5 f9 1d 3d d5 32 12 3d 8b 7b c3 3d 84 88 3d 3b
       0.038568277 0.03569301 0.09545048 0.002892048
0001f0 da d6 e5 3d c2 da 95 bd b4 96 71 bd 5a d1 a8 bc
       0.1122262 -0.07317115 -0.058981612 -0.02060764
000200 d3 af 21 3e b8 06 e5 bc 68 a0 17 3e d9 80 a0 3d
       0.15789728 -0.027957305 0.14807284 0.07837076
000210 4e f4 d8 3d 70 12 62 bc 65 7b ec 3c 44 1b c8 3d
       0.105934724 -0.013798341 0.028867433 0.097708255
000220 20 7d fd bd 8c 53 e9 bc 85 7b bb 3d e6 55 3b 3e
       -0.12377381 -0.028482221 0.09154419 0.18294486
000230 00 41 45 3c c3 b0 3a 3e 2e e9 d8 bd fd 64 90 3e
       0.012039423 0.18231492 -0.105913505 0.28202048
000240 df 7e 05 3e be e2 3c 3e 19 0f 61 bd 9f c8 70 3d
       0.13036679 0.1844587 -0.05494604 0.058785077
000250 57 41 cd 3d da d5 15 3e 4c fa 53 be 40 3c 06 3e
       0.10022228 0.14632359 -0.2070095 0.13108921
000260 eb f7 09 be e4 09 b0 bd 0a 68 32 be 14 c7 a9 3d
       -0.1347348 -0.085956365 -0.174225 0.08289924
000270 47 9e 1f be 79 25 b7 bd dd 42 bc 3d a1 6a ee 3d
       -0.15587722 -0.08942694 0.09192441 0.116414316
000280 c9 71 90 bd ea 79 6e bc 53 e2 bb bd 55 9a 61 be
       -0.07052953 -0.014555434 -0.09174027 -0.22031529
000290 95 ef 5f 3d 43 88 12 3d 97 da 4c bd 74 3f 81 bd
       0.054671843 0.03577448 -0.05001315 -0.06310931
0002a0 94 e3 82 3e 34 70 28 be 0a 8f ae bc 43 9e a6 bb
       0.25564253 -0.16449052 -0.02130844 -0.0050847842
0002b0 9e 23 cf bd 23 49 a1 bd bf 77 a4 3d 36 68 e7 3d
       -0.10114215 -0.07875278 0.08030652 0.112991735
0002c0 39 1b af 3d 91 be 54 bd d8 28 99 3c 68 98 0b be
       0.08550114 -0.05193955 0.018696234 -0.13632357
0002d0 3c fa 58 3e 8e 6d 53 3d bc 31 04 3e ca 39 6d bd
       0.21189207 0.05161815 0.12909597 -0.05791644
0002e0 45 91 b3 3b f4 74 b2 3d 2e 87 6c bd 19 5f 14 3e
       0.005479964 0.08713713 -0.057746105 0.14489402
0002f0 81 fb 32 3c 07 de 61 bb 64 58 5e 3d a7 6f f2 bb
       0.010924221 -0.0034464614 0.054283515 -0.007398564
000300 2d 98 86 3d d2 79 4c be 04 fc a9 3c dd 7d 6b 3d
       0.06571994 -0.19968346 0.020750053 0.05749308
000310 ad cd 3f 3c e0 68 64 bd 9d 78 7a be 43 13 42 3e
       0.011706752 -0.05576408 -0.24460073 0.1895266
000320 7b 36 ad bb 79 e0 56 3e 60 d2 4a 3d 4f b5 52 3d
       -0.0052860356 0.20984067 0.049517035 0.05144244
000330 b0 1b 24 3d 10 81 a0 bc 7e 45 59 3e 39 de 81 3e
       0.040065467 -0.019592792 0.21217915 0.25364855
000340 6c ae a1 3b 9d 4b 25 3e c2 15 57 bd 9e a7 78 bc
       0.004934123 0.16142125 -0.052510984 -0.015176682
000350 3a cb 51 be 22 b8 2f 3e fe 3a 04 be 24 bc cb bd
       -0.20487681 0.17160085 -0.12913129 -0.09947994
000360 18 0b 29 be 6b 9f 24 be ba 30 0d be 96 5b 57 3e
       -0.16508138 -0.16076438 -0.13788119 0.21031031
000370 e2 7f 34 3a 3e d0 03 be 80 7a 84 be 92 14 1c bc
       0.0006885511 -0.12872407 -0.2587471 -0.009526389
000380 90 22 35 3e 36 cf 03 be d4 f5 bd bd 7a 3e 09 3e
       0.17688966 -0.12872013 -0.092754036 0.13402739
000390 ad 27 40 bd 45 49 27 3e be 80 83 be 37 f4 0f 3e
       -0.046912838 0.16336544 -0.2568416 0.14058004
0003a0 fc 85 76 b8 cf cb ce 3d 47 a6 8a 3d 5b d9 3f 3e
       -5.8775753e-05 0.10097467 0.06769996 0.18735258
0003b0 c2 0b d6 b9 e8 ee dd 3d 92 51 71 bb c3 8c 2e be
       -0.0004082602 0.108365834 -0.0036822301 -0.17045884
0003c0 81 45 15 3e 6e 75 d3 bd 9a df 81 3d 39 e5 db bc
       0.14577295 -0.10325132 0.06341477 -0.0268427
0003d0 e5 4d 71 3d a1 e9 91 3d 4d 99 b4 3c 79 d1 24 3e
       0.058912177 0.07124639 0.022045756 0.16095532
0003e0 97 15 d0 3d 00 39 8c bd 7f 2e 18 be 2a 5f 24 3d
       0.10160368 -0.068468094 -0.14861487 0.040129818
0003f0 58 7b 69 be 05 d2 5f 3d f2 f4 d8 bd 85 fa ff bc
       -0.22800958 0.05464365 -0.105935946 -0.031247387

network_body._body_endoder.seq_layers.2.bias f4 [128]
000000 44 c4 8c 3d 07 ba a2 3d 82 fe a9 3d a2 c9 c0 3d
       0.06873372 0.07945638 0.08300497 0.094134584
000010 e8 9f 96 3d ba b1 8e 3d 50 cb bd 3d bd 9b c7 3d
       0.073547184 0.069674924 0.092672944 0.097465016
000020 88 19 85 3d e4 87 6b 3d b6 72 f6 3c 7c a5 8d 3d
       0.0649901 0.057502642 0.030083995 0.06916329
000030 9e cf cd 39 ac 90 63 3d 6e b5 d4 bb 88 9d b6 3c
       0.00039255334 0.05555789 -0.0064913547 0.022291914
000040 48 c3 97 3d a2 d7 07 3d 35 72 e9 3c bd 70 30 3d
       0.07410294 0.033164628 0.028496841 0.043076266
000050 42 c5 a3 3d 62 f1 37 3d b2 fd c2 3d 44 00 10 3d
       0.07996608 0.044907935 0.09521045 0.035156503
000060 f3 ca 37 3d a2 03 11 3d 03 23 e8 3d bc 8d 75 3c
       0.04487128 0.035403855 0.11334803 0.014987405
000070 a3 4d 64 3d cf 9e 6c 3d 21 a7 c3 3d 0e ea a6 3d
       0.055738103 0.05776864 0.09553362 0.08150111
000080 1a 7a 72 3d 4c a8 b2 3d 0b 70 7f 3d b7 3f c2 3c
       0.059198476 0.08723506 0.062362712 0.023712022
000090 b4 83 73 3d 55 bb 96 3d 81 7b 91 3d 6f d2 ff 3c
       0.059451774 0.073599495 0.071036346 0.031228272
0000a0 93 bc 80 3d 2a 58 66 3d 25 74 5b 3d 8a e9 84 3d
       0.06285968 0.056236424 0.05357756 0.064898565
0000b0 37 9c 51 3d c3 3f b7 3d 84 84 de 3d 2c 5d 96 3c
       0.05117437 0.089477085 0.10865119 0.018354975
0000c0 cb f4 01 3d 69 69 49 3d 00 ea 31 3d 69 b7 a4 3c
       0.031727593 0.049172793 0.04343605 0.020106988
0000d0 13 ec 4b 3c db c2 75 3d d0 5a 2a 3d 53 c0 7b 3d
       0.012446421 0.06000028 0.04159051 0.06146271
0000e0 ba 3b 54 3d 23 ac 49 3d 1b dc 26 bb f5 2a 54 3d
       0.051814772 0.049236428 -0.0025460783 0.05179878
0000f0 e5 e0 d1 3d 8b 00 8c 3d 79 08 db 3d f7 c3 44 3d
       0.10247973 0.06836041 0.106949754 0.04803845
000100 30 50 29 3d b4 47 b5 3d dd 35 5b 3d 50 57 ba 3c
       0.04133624 0.08851567 0.053518165 0.022746712
000110 1c 33 a4 3d 2d 5b 4a 3d 15 ef d1 3d bb eb aa 3c
       0.08017561 0.04940336 0.102506794 0.020864358
000120 bf 98 8c 3d 81 f2 80 3d e2 c4 82 3d 02 7c 13 3d
       0.068650715 0.06296254 0.06385209 0.036006935
000130 a2 e5 7b bc e3 97 95 3d b4 f3 59 3d 3d 83 94 3d
       -0.015374573 0.07304361 0.05321093 0.07251594
000140 a0 cd a9 3c bd e0 87 3c 5a fd 45 3d ac f0 15 3d
       0.020727932 0.016586656 0.048337318 0.036606476
000150 79 80 7e 3d e2 0b e5 3d 86 82 37 3d f9 4c 82 3d
       0.06213424 0.11183907 0.04480221 0.063623376
000160 e8 fe c8 3c 3a fd 1b 3d 10 62 5d 3d b4 a3 bd 3d
       0.024535611 0.038083293 0.054048598 0.092597395
000170 52 75 d3 3c 78 af 98 3d ab 3f ed 3d 7e 7d 29 3d
       0.025812779 0.07455343 0.11584409 0.041379444
000180 57 02 78 3d db ec 44 3d 84 64 ff 3c d1 5e 6d 3d
       0.060549106 0.048077445 0.03117586 0.057951752
000190 a2 f8 c4 3d a7 3d 91 3c 41 a1 29 3d 2f 07 34 3d
       0.096177354 0.017729593 0.04141355 0.043952163
0001a0 f2 6d 00 3e b4 26 ac 3d d2 98 03 3d 88 3d 87 bc
       0.12541941 0.084058195 0.032128163 -0.016508833
0001b0 37 d6 3b 3d 3a d0 41 3d d0 aa 46 3d 94 3f 13 3c
       0.045858588 0.04731772 0.048502743 0.008987326
0001c0 7a 8a ab 3d bc dd 46 3d 58 88 82 3d e2 a2 d8 3d
       0.08376022 0.048551306 0.06373662 0.105779424
0001d0 25 9c d0 3d a1 f8 b9 3d 2a 5e e1 3c ab a0 95 3d
       0.10186032 0.09080625 0.027510721 0.073060356
0001e0 bb 33 48 3d 54 ea 8c 3d a1 d5 da 3d c8 af 37 3d
       0.04887746 0.06880632 0.10685278 0.044845372
0001f0 fd 51 f1 3d 0e 7f 0e 3d 98 d3 9a 3d b1 ff b5 3d
       0.11783216 0.034789138 0.075598896 0.0888666

action_model._continuous_distribution.log_sigma f4 [1, 2]
000000 40 20 15 be 72 80 1e bd
       -0.14563084 -0.038696714

action_model._continuous_distribution.mu.weight f4 [2, 128]
000000 af c7 3e bd 01 17 9b 3d fe dc 0e 3e 88 1d 7d 3c
       -0.046577152 0.07572747 0.1395149 0.015448935
000010 b3 2f 3d bd 23 9c f9 bd e7 90 5a bd 12 cf f1 3d
       -0.046188068 -0.12187984 -0.053360846 0.11807074
000020 ac 9e d5 3d a7 f4 ac 3d 89 d2 11 bd d6 ec 3a bc
       0.10430655 0.08445101 -0.035601173 -0.011409005
000030 c0 2d 7e 3d 08 35 98 3c 3f a5 01 3d cc 5b 8d 3d
       0.06205535 0.018579975 0.03165173 0.069022745
000040 52 24 b7 bd ac 5e d9 3d 6c 10 97 bd 29 7e a0 bd
       -0.089424744 0.1061376 -0.07376179 -0.07836563
000050 87 84 fe bd 0a 1c e8 bd 72 d6 14 bd 1c 51 7c bd
       -0.12427621 -0.11333473 -0.036337323 -0.06160079
000060 e6 f5 22 3d bf e7 30 bd f7 f8 9c 3c 11 35 a1 3c
       0.03978529 -0.04318976 0.019161684 0.019678624
000070 cf 50 80 bd 62 75 2c be fc 36 0c be 69 99 1c 3b
       -0.06265413 -0.16841653 -0.1369285 0.002389515
000080 31 b4 7b 3c ec e4 92 bd 3a 27 e1 bd dc 9c 71 bc
       0.015362785 -0.0717257 -0.1099381 -0.014746871
000090 fe 63 88 bc f8 6c dd 3d 3f c1 4f 3d b3 d3 31 3d
       -0.016649242 0.108118 0.050721403 0.043414783
0000a0 78 5c bc bd 8f 0e ef 3c 95 79 73 3d 75 bc ae 3c
       -0.091973245 0.029181747 0.05944212 0.021330098
0000b0 93 34 27 3a 84 16 1c 3e 58 02 ad bd 66 b4 33 bc
       0.00063783786 0.15242964 -0.08447713 -0.010968303
0000c0 b4 a5 b2 3d 4a f0 c6 bd 23 fa 57 3d 7a d6 3b 3d
       0.087230116 -0.097138 0.052728783 0.045858838
0000d0 7c 6d 1f bc 88 37 9d bd da 72 9a bd a4 a9 60 bd
       -0.009730693 -0.07676607 -0.075414374 -0.054849282
0000e0 fa b9 b0 bd 65 3c b4 bd 6d 10 13 3d 7d a5 9b bc
       -0.08629222 -0.08800582 0.035904337 -0.01899981
0000f0 54 d3 16 3e 5f 3a 05 3e bd 8f 3b 3e 87 3a 9f bd
       0.14729053 0.13010548 0.1831655 -0.07774835
000100 6a 59 89 3c 25 cd fe bd 0d df 14 3c d5 9f 93 bd
       0.016766269 -0.12441472 0.009086383 -0.0720822
000110 14 99 1d 3d 05 a0 26 bd f5 a5 46 bd 76 be 04 bd
       0.038476065 -0.04067995 -0.048498113 -0.0324082
000120 a7 d5 e5 3d 20 7d df 3d 08 2c b0 3d c9 f8 25 3c
       0.112223916 0.109125376 0.08602148 0.010130116
000130 7a 40 24 bc 11 f9 92 bd 80 00 7a 3d e6 76 cc bd
       -0.010025138 -0.07176412 0.061035633 -0.099836156
000140 76 8a 6c 3d f4 fb a4 bc fa b7 63 3d 63 53 7d 3d
       0.057749234 -0.020139672 0.055595376 0.061847102
000150 77 21 be bd a7 92 34 3e ec b1 6d 3d ac 1e 22 3d
       -0.09283727 0.17634068 0.058031008 0.039580032
000160 d1 54 99 3d a4 9c 7b bd 8b 67 f1 bd a9 17 fe 3c
       0.074868806 -0.06142868 -0.117873274 0.031017141
000170 d3 0e 8d 3d cc b4 1c 3e c3 a9 aa bd 46 54 2f bd
       0.06887593 0.15303344 -0.08333161 -0.04280498
000180 ae 3f 8a 3c e5 45 c9 3d 08 fd 88 3d 5d 35 be 3d
       0.016876068 0.098277844 0.06688887 0.09287522
000190 ea 72 3a be 57 ca 52 bd e4 fc e5 bc a5 02 d3 bd
       -0.18207899 -0.051462498 -0.02807469 -0.10303239
0001a0 dc e3 31 3e f0 09 90 3d 0d 60 9c bd 0f 63 a5 3c
       0.17372078 0.070331454 -0.07635508 0.020188836
0001b0 d0 4f a2 3d ab 29 85 3c 4f 9d f2 3d 83 e2 45 bd
       0.07925379 0.01625522 0.118464105 -0.04831172
0001c0 42 b6 5c 3a bd bf a3 3d 89 e0 02 be af 5b 10 bd
       0.00084194925 0.079955555 -0.12780966 -0.035243686
0001d0 b6 7b 93 3d 14 d7 06 3e cb 7a 83 3d f7 d9 40 bd
       0.0720133 0.13167983 0.06419905 -0.047082867
0001e0 ce 46 4e 3c 42 45 0c be 02 71 8f bd c8 14 3c 3d
       0.012590123 -0.13698295 -0.070039764 0.045918256
0001f0 25 76 eb bd a4 49 cb 3d 51 04 b6 bc 87 66 c7 3d
       -0.11497144 0.09926155 -0.022218855 0.097363524
000200 8d f2 bd 3d 28 b1 f8 3d c4 88 78 3b b3 53 00 be
       0.092747785 0.12143165 0.0037923316 -0.12531929
000210 70 3b 06 be ec 07 a7 3d d2 d6 17 3e 6f c1 9e 3d
       -0.13108611 0.08155808 0.14828041 0.07751738
000220 7f f8 c1 3d 7d c0 06 bd e2 bf bd bd 1b 6e 0b be
       0.09471225 -0.032898415 -0.09265114 -0.1361622
000230 65 6b 98 bb 14 bb 1e be 7c 0e 3f 3c 44 df 58 bd
       -0.0046514743 -0.15501052 0.011661168 -0.052947298
000240 ed 91 b4 bd 53 f5 24 3c 4d a6 e3 3b 52 55 d3 bd
       -0.08816896 0.0100682555 0.006947315 -0.10319008
000250 e4 3a 17 3d ba 59 b5 3c 98 66 23 be a9 08 b2 3d
       0.036921397 0.022137512 -0.15957105 0.08693058
000260 ea e8 97 bd d8 8d bd bd 6a 26 09 3e 48 ef 43 bd
       -0.07417472 -0.0925557 0.1339356 -0.04783562
000270 55 82 7c 3d d8 c9 99 bd c8 82 a3 3c bb b1 0b be
       0.06164773 -0.07509202 0.019959822 -0.13642018
000280 91 1e 0f be 38 4c c1 3d 9e 2d 15 bd b1 78 8a bd
       -0.13976504 0.09438366 -0.036420457 -0.06761301
000290 02 dc 02 3e bd b4 92 bc cd a5 ca 3d 1d 1b ce bd
       0.12779239 -0.017908448 0.09894905 -0.10063765
0002a0 6c de 3a bd a8 93 07 be b7 f8 91 bd 2e 6e c7 bd
       -0.045622274 -0.1323992 -0.07127517 -0.09737812
0002b0 82 bf 93 3d 77 86 fe bb 90 3e fd bd fe db 89 bd
       0.072142616 -0.0077674943 -0.123654485 -0.06731413
0002c0 7d 51 9b bd 4c b7 52 3c 65 0c c7 bd 7d 34 a3 bd
       -0.07583902 0.012861084 -0.09719161 -0.07968996
0002d0 41 23 9a bd 57 c3 e3 bd 4e d8 cb bd ca f8 0c be
       -0.075262554 -0.111212425 -0.09953366 -0.1376678
0002e0 df c5 bb bd a4 43 7e 3d 41 f4 37 3d 82 a7 c4 3d
       -0.091686 0.062076226 0.044910673 0.09602262
0002f0 1f d2 3f bc 68 29 9a 3c e8 c6 df 3d d8 91 9a bd
       -0.011707812 0.018818572 0.1092661 -0.07547349
000300 e8 9a f7 bd 5a 31 b9 bd a5 98 01 be 6b a5 12 3c
       -0.12090093 -0.09042616 -0.12655886 0.0089505715
000310 5e 2c ee bd e9 4a 0c be fd 42 04 3e 26 87 35 3d
       -0.11629556 -0.13700451 0.12916179 0.04431834
000320 79 58 69 bc e6 e2 a7 3c 24 51 6a bd c0 a2 c6 3d
       -0.014242285 0.020493936 -0.057206288 0.09699011
000330 77 98 fe bc bf 14 dc 3d 9b 1c ed bd 4b 48 7d 3d
       -0.03107856 0.107461445 -0.11577722 0.061836522
000340 d8 75 2a bc 7c 82 56 3d 65 81 e1 bd 37 1b 9d 3d
       -0.010404073 0.052370533 -0.11011008 0.076712064
000350 d0 9b 6d bd 52 04 65 bb 80 f4 c5 bc 79 f2 c8 3d
       -0.058009923 -0.0034945202 -0.024164438 0.09811873
000360 d2 c8 3c 3c b6 ae b0 bd b4 a8 6f bd f8 cc 0b 3e
       0.011522489 -0.086270735 -0.058510497 0.13652408
000370 e2 98 00 bd b1 6c fc 3c de a4 cd 3d c3 59 a5 bd
       -0.0313958 0.030813547 0.100412115 -0.08073761
000380 89 30 d9 bd 47 0c 0f bc d1 50 ad 3c 92 65 9e bd
       -0.106049605 -0.0087309545 0.0211567 -0.07734217
000390 e1 df 85 bc 3f e9 80 bd ce 93 e3 3d e1 e5 e8 3c
       -0.016342105 -0.06294488 0.11112176 0.028429927
0003a0 05 9b b9 bc cc 60 e5 bd 52 c2 d1 3c 24 c0 08 bd
       -0.022656927 -0.11200103 0.025605354 -0.033386365
0003b0 47 61 94 bd b7 aa c1 3d 07 5e a7 bd 23 06 7e 3c
       -0.07245117 0.094563894 -0.08172231 0.015504393
0003c0 60 9e ff 3d ae 67 c5 3d e6 2e 89 bc e6 7d 12 3e
       0.124813795 0.09638916 -0.016745996 0.14305839
0003d0 af 64 1c be 59 29 28 3a cf 8c 01 3d dd ff 06 be
       -0.15272783 0.00064148527 0.031628426 -0.13183542
0003e0 24 f1 ca 3d 8a d3 c6 3c 62 52 23 be 35 6a 2c bc
       0.09909275 0.024270792 -0.15949395 -0.010523369
0003f0 29 bc df bd cd ce 88 39 7c 00 d3 3d 8d 54 ee 3d
       -0.109245606 0.0002609402 0.10302827 0.116372205

action_model._continuous_distribution.mu.bias f4 [2]
000000 de f3 8a bb b3 03 d0 3a
       -0.004240497 0.0015870243

exp_avg f4 [128, 8]
000000 2d f9 07 bb cd 1c 9b 39 14 6f 96 3d d0 dc 26 bd
       -0.0020747886 0.00029585362 0.07345405 -0.040737927
000010 18 77 b2 3a 60 ad 2a 3d 8c 02 4d 3d c9 bd df 3d
       0.0013615815 0.04166925 0.050051257 0.109248705
000020 9f d7 c6 3b 55 6f 14 37 4b 58 43 3c 5a 6f e6 3a
       0.0060681845 8.847409e-06 0.011922906 0.0017580793
000030 24 ce 2a 38 5d 02 50 3c c8 3a 6a 3c 96 b2 2e 3c
       4.0723142e-05 0.012695876 0.014296241 0.010662695
000040 4b a8 3c 3c 29 aa 60 39 c4 e7 6d 3d 61 f6 db bc
       0.011514734 0.00021425694 0.058082357 -0.026850881
000050 b2 3e 81 3a e8 98 ae 3c 8f 16 40 3d 9c 3e c4 3d
       0.0009860604 0.021313146 0.046896514 0.09582254
000060 e7 d9 64 ba 63 34 b5 36 e1 ac 80 ba a2 23 59 38
       -0.000872998 5.400319e-06 -0.0009817147 5.1770017e-05
000070 30 77 d0 37 24 72 45 39 46 dc 09 ba aa c1 1b bb
       2.4851033e-05 0.00018829905 -0.00052589586 -0.0023766556
000080 e4 19 01 ba f1 a3 27 b8 f0 f9 45 3b 2d 83 12 bb
       -0.00049248175 -3.9968585e-05 0.0030208789 -0.002235602
000090 19 dc 40 b9 8a 8a 19 bb 95 db 83 bb 94 90 bd 3b
       -0.0001839254 -0.0023428523 -0.004023979 0.0057850573
0000a0 5b 3a b1 bb 41 dc ec 38 ae 31 b1 3c 41 fe 96 3a
       -0.005408568 0.000112943824 0.021630134 0.0011519865
0000b0 cd 42 08 3a 0b 5c 10 3d d5 1b 5c bc 9d 32 fe bb
       0.00051979424 0.03524403 -0.01343437 -0.0077574984
0000c0 60 8c 21 39 39 1a cf b8 9c c2 24 bc 52 68 b8 bb
       0.0001540645 -9.8754135e-05 -0.010056164 -0.0056276703
0000d0 b3 46 ee b9 4f 1e 9e bc b0 32 17 3c a0 4a 1d 3c
       -0.00045447572 -0.019301562 0.009228393 0.0096003115
0000e0 f8 59 27 3c c9 c6 b1 37 47 5a 9f 3c bf b0 94 bc
       0.010214321 2.119261e-05 0.019452227 -0.018150685
0000f0 06 8d cc 38 98 b7 44 bc 36 15 5e 3d 34 c7 84 3d
       9.753746e-05 -0.012006663 0.054219447 0.064833075
000100 ee 63 52 3c 03 8f c9 b8 c0 9b b6 3b 72 50 dc ba
       0.012841208 -9.611065e-05 0.005572766 -0.0016808643
000110 e4 e5 e7 b9 5f c9 32 bb 34 38 b3 3c bd ce 46 3c
       -0.00044231035 -0.002728067 0.021877386 0.012134251
000120 68 cf e4 ba 1e f2 f9 b6 5a 9e e2 3a 6a 48 e0 bb
       -0.0017456831 -7.4489644e-06 0.0017289624 -0.00684457
000130 9d b0 0f b8 4b 03 2f bc 31 79 78 bc 21 9c dd 3b
       -3.425834e-05 -0.010681937 -0.015165613 0.006762997
000140 38 77 55 3b 0d 87 6c 39 fa ff 58 3d f3 b5 59 bc
       0.003257228 0.00022557024 0.052978493 -0.013288009
000150 0d 11 88 3a d2 f5 30 3d e0 6d 99 bb 7c 59 12 3d
       0.0010381058 0.043203183 -0.0046822876 0.03572987
000160 c4 f6 96 bc 05 e1 b7 36 7d d6 18 bd 74 ef 09 bb
       -0.018428214 5.4800207e-06 -0.037313927 -0.0021047266
000170 f7 44 d3 37 51 59 c8 bc 08 8f 02 bd 31 74 08 bd
       2.5185274e-05 -0.024456652 -0.031874686 -0.033313934
000180 ae a4 c2 bc 92 b8 07 38 5a b9 41 bc 38 8d 7a 3b
       -0.023760166 3.2358403e-05 -0.011823976 0.0038231146
000190 5f 26 1c 39 f3 83 c2 3c ae c3 79 bd dc 63 15 bd
       0.00014891614 0.023744559 -0.06097763 -0.036472186
0001a0 12 a8 85 bb 6e 0c 1e 38 ff cb 23 ba b9 9d 22 3b
       -0.0040788734 3.768171e-05 -0.00062483543 0.0024813248
0001b0 1d d7 35 39 10 7d 28 3c fe c3 9d bc 77 da 4d bc
       0.00017341641 0.0102837235 -0.019258495 -0.012564293
0001c0 ad 36 a1 bb 8c 8c c1 38 b8 11 f1 3a 7f e3 7a bc
       -0.004919848 9.229136e-05 0.0018392121 -0.015313028
0001d0 5d ad de 39 da 7e c2 bc 80 7d 72 bc ef 2a b9 3c
       0.00042472305 -0.023742128 -0.014800429 0.02260348
0001e0 93 12 23 3b 2b b0 4a b8 78 20 2d 3b 2d 53 16 39
       0.0024882897 -4.8324622e-05 0.0026417058 0.000143361
0001f0 2b 31 69 b9 5a f2 ba bb e5 35 08 38 f2 b1 8a 3b
       -0.00022238928 -0.00570516 3.247512e-05 0.0042326385
000200 53 12 59 bb db d9 08 b8 90 cf 4b bc cf 3c fc 3a
       -0.0033122494 -3.262782e-05 -0.0124396235 0.0019244197
000210 f5 74 1d b9 ee 8e e8 bb a3 69 84 bc ad 40 98 bc
       -0.00015016257 -0.0070971167 -0.016163653 -0.018585527
000220 b6 94 6b bc 88 05 4f 38 3a 3d af bb 73 a5 25 bb
       -0.014378717 4.9357797e-05 -0.005347875 -0.0025275617
000230 c5 2e 6e 39 6f 7b 2f 3c 4c 2f f7 bc fe 17 57 bc
       0.00022714872 0.010710581 -0.03017392 -0.013128279
000240 22 f1 6a 3c f4 6b 05 b9 12 89 76 bc 31 2a 0e bb
       0.014339717 -0.00012724084 -0.015047329 -0.0021692629
000250 3d 82 19 ba 04 9f 0e bd a2 f1 d5 3c 5c 0a 3f 3c
       -0.0005855894 -0.034819618 0.026116196 0.011660185
000260 56 24 c6 3b 24 8c ca 38 79 06 c1 3c f8 7f 2c bc
       0.006046812 9.658214e-05 0.023562657 -0.010528557
000270 60 0a e9 39 8e df 00 3c 88 b6 7f 3c 39 a0 10 3d
       0.00044448953 0.0078658 0.015607484 0.03530905
000280 ac c4 67 ba 3f 33 c7 b8 52 ef c9 bc c1 ef 0d 3c
       -0.0008841257 -9.498605e-05 -0.02465025 0.008663119
000290 de 30 e5 b9 dc 67 15 bc cb e2 9c bc 79 43 1c bd
       -0.00043714693 -0.009119 -0.019151112 -0.038150284
0002a0 10 96 09 3c ca 81 99 37 64 b3 8c 3c e5 bb 83 bb
       0.008397594 1.8299459e-05 0.017175384 -0.0040202015
0002b0 1b a0 b0 38 35 34 38 bb b5 3d a5 3c 99 03 cf 3c
       8.422156e-05 -0.002810729 0.020171026 0.02527027
0002c0 d2 41 b1 3a 17 b6 87 b8 01 e6 ae bb cb 58 e3 bb
       0.0013523644 -6.4712185e-05 -0.005337477 -0.006938075
0002d0 9a 23 9c b9 a7 f8 8e bc 0f 40 7d 3c 83 30 69 3c
       -0.00029781164 -0.017452551 0.015457167 0.0142327575
0002e0 38 90 5b 3b 2c 0b b8 39 bc 80 ad 3d 48 ce 08 bd
       0.003350271 0.00035103539 0.0847182 -0.03339985
0002f0 53 c0 d3 3a 68 57 67 3d 4b df ff 3c ae e2 c6 3d
       0.001615534 0.05647984 0.031234404 0.097112045
000300 5f af ac b9 f9 3b 07 38 ad d0 12 3c 77 1a 6e b9
       -0.00032937058 3.2242362e-05 0.008960885 -0.00022707308
000310 0f 99 1b 39 f9 49 1c 3c 55 41 5b 3b 5a 0d 97 3b
       0.0001483897 0.009539121 0.003345569 0.004609746
000320 36 fc 6b ba 02 52 c5 b5 c2 5f d8 3a 62 b4 b6 bc
       -0.0009002121 -1.4701511e-06 0.001650803 -0.02230281
000330 c8 ab e2 b6 a6 a2 b2 bc 66 ce 25 3d b7 76 78 3d
       -6.755323e-06 -0.021806072 0.04048004 0.06066009
000340 4b a1 79 bc 9d f5 d0 38 1d 10 4b 3b 51 54 56 3c
       -0.015236209 9.963962e-05 0.0030984946 0.013081626
000350 9c 69 f0 39 e6 9b 32 3d 12 55 84 bd 1b ce 52 bd
       0.00045855052 0.043605708 -0.064615384 -0.05146609
000360 18 a9 75 b9 1e 2a 70 b8 e2 b8 d8 bb ba 6e 98 bb
       -0.00023428013 -5.7259684e-05 -0.0066138366 -0.0046518715
000370 ee 27 8a b9 9f 53 4d bc 9f af b2 3b f9 fa be 3b
       -0.0002635116 -0.012532144 0.0054530646 0.005828258
000380 9c ea 93 bc f3 68 82 39 67 0b 33 3d 4a 43 a1 3c
       -0.018056206 0.00024873725 0.043712046 0.019685406
000390 a7 0a 96 3a d4 99 ca 3d 84 56 b4 bd 7c c7 7a bd
       0.0011447266 0.09892622 -0.08805564 -0.0612254
0003a0 d5 f1 a6 bb 13 46 f1 37 60 ef 96 bb c4 8f 96 bb
       -0.0050947466 2.876207e-05 -0.0046061724 -0.004594775
0003b0 c4 ca 0a 39 8b 4f 6c 3b 35 fa a7 bb ec fe 92 3b
       0.00013236242 0.0036058153 -0.0051262625 0.0044859555
0003c0 50 29 85 3b 5d 22 1b 38 d4 e3 83 3c ef 36 9b bb
       0.0040637627 3.6986883e-05 0.016099848 -0.004736773
0003d0 b6 7f 32 39 67 12 85 3b d9 64 42 3c a7 27 b3 3c
       0.00017022979 0.0040610316 0.011864864 0.021869494
0003e0 46 4c fc 3a e0 c0 81 38 f7 f8 8a 3c a9 61 16 bc
       0.0019248805 6.187125e-05 0.016964419 -0.009178557
0003f0 c3 4a 95 39 9b af 91 3b dd bd 6f 3c f1 01 0a 3d
       0.00028475196 0.0044459826 0.014632669 0.033693258

exp_avg_sq f4 [128, 8]
000000 ce 0b 38 3b a9 b6 a8 33 0b b5 6e 3b 29 5e 26 3b
       0.0028083208 7.856335e-08 0.0036423828 0.0025385714
000010 ae 6b ec 3a 06 6c 30 3b 9d c1 99 3b 5e 6c dc 3b
       0.0018037462 0.0026919856 0.00469227 0.0067267856
000020 d9 44 d2 39 fd a9 2c 32 17 0c d8 39 a8 6f ae 39
       0.00040105617 1.00503685e-08 0.00041207738 0.00033271057
000030 2a 9d ea 37 14 03 c6 39 29 a6 11 3a ea 9c 49 3a
       2.7968159e-05 0.00037767796 0.0005556071 0.00076909235
000040 9f a6 fb 3a 39 d9 6d 33 7e f8 10 3b 31 ff c6 3a
       0.0019199437 5.5378425e-08 0.002212077 0.0015182254
000050 12 c6 c2 38 09 9c bd 3a a3 94 63 3b 2b c5 b3 3b
       9.287534e-05 0.0014466058 0.0034726046 0.0054861507
000060 1a 76 27 38 f1 59 93 30 4f 3f 55 38 16 1f fb 37
       3.9925893e-05 1.0721221e-09 5.0842118e-05 2.9936007e-05
000070 3c 28 2e 36 2a 6f 06 38 ac 19 82 38 be 8a 99 38
       2.595144e-06 3.205162e-05 6.203665e-05 7.321451e-05
000080 73 01 d0 3a a9 52 25 33 da 2d bc 3a 99 39 84 3a
       0.0015869573 3.8492235e-08 0.0014356927 0.0010087966
000090 56 0b c9 39 a3 b9 9d 3a 31 00 25 3b 7c c3 1f 3b
       0.00038346153 0.0012033473 0.0025177116 0.0024377992
0000a0 ef cf fc 39 3c cf 72 32 66 95 03 3a b4 da c7 39
       0.00048220108 1.4133374e-08 0.00050195155 0.00038119184
0000b0 3c b6 18 37 81 43 44 3a 55 80 51 3a 2e 7b 42 3a
       9.102336e-06 0.00074868655 0.000799184 0.0007418868
0000c0 43 cf 0c 3a a2 4c 79 32 d6 9a 11 3a cf f1 de 39
       0.00053714606 1.4511132e-08 0.00055543834 0.000425233
0000d0 96 a5 d4 3a c5 66 f3 39 bc eb 89 3a 03 cc 5f 3a
       0.0016223665 0.0004642514 0.0010522525 0.0008537175
0000e0 5a ca a3 3a f3 91 07 33 ba a9 af 3a 51 96 7e 3a
       0.0012496219 3.1564877e-08 0.0013402023 0.000971173
0000f0 d9 69 e5 3a 08 0d 91 3a d7 83 09 3b 80 cf 21 3b
       0.0017502859 0.0011066506 0.0020983124 0.002469033
000100 cf f3 60 3b 76 a7 b2 33 e0 59 57 3b a3 f6 16 3b
       0.0034325009 8.319232e-08 0.0032859966 0.002303519
000110 81 77 62 3b 0c a8 48 3b b5 21 98 3b a2 4b b1 3b
       0.0034556093 0.0030617742 0.00464269 0.0054106275
000120 7a 86 2e 3b af c4 93 33 87 4a 23 3b d1 ee dc 3a
       0.0026630447 6.8809975e-08 0.0024916248 0.0016855841
000130 98 c5 8b 3b 42 05 0e 3b 06 c6 9c 3b e1 3f 83 3b
       0.0042654984 0.0021670614 0.0047843484 0.0040054177
000140 09 63 3d 3b ca d7 cb 33 af 54 5e 3b 64 d0 22 3b
       0.002889814 9.492176e-08 0.0033924987 0.0024843449
000150 74 24 9e 3b 2b 1a 5d 3b 44 69 9a 3b 20 e7 e6 3b
       0.004826123 0.003373752 0.0047122557 0.007046595
000160 60 52 43 3b 43 cb bf 33 4c be 59 3b 38 87 2c 3b
       0.0029803738 8.931104e-08 0.0033224998 0.0026325714
000170 5e ef eb 3b 4d 03 39 3b 32 16 bd 3b fc 12 99 3b
       0.0072001657 0.0028230727 0.005770468 0.0046714526
000180 da 69 5c 3a 07 74 c1 32 7d 4c 5a 3a fc 03 58 3a
       0.0008408107 2.252092e-08 0.00083274377 0.000824034
000190 39 9a dd 37 05 b3 82 3a ee aa a5 3a 10 3b e3 3a
       2.6417069e-05 0.0009971565 0.0012639442 0.0017336328
0001a0 f1 29 8e 39 95 2c e8 31 e1 80 81 39 cd 9b 4d 39
       0.000271156 6.757157e-09 0.0002470082 0.00019608364
0001b0 c1 de 11 39 7a b3 96 39 22 bc d6 39 a6 f2 e5 39
       0.0001391126 0.0002874395 0.0004095743 0.0004385907
0001c0 33 a5 77 3b ee 49 0b 34 9d 0e 89 3b 88 92 54 3b
       0.0037787675 1.2972279e-07 0.0041826502 0.0032435972
0001d0 ac 21 95 3c 68 19 8d 3b d0 a1 e5 3b 5f d9 fd 3b
       0.018204533 0.004306007 0.007007815 0.00774686
0001e0 be 80 71 3a 2d 45 d1 32 84 74 6a 3a 63 b1 22 3a
       0.00092126045 2.436226e-08 0.0008943754 0.0006206242
0001f0 3e a9 5c 3a b0 fd 40 3a fa 28 00 3b af 11 b6 3a
       0.0008417553 0.0007362021 0.0019555674 0.0013890768
000200 dd dd 9e 39 a9 76 0c 32 0d c1 aa 39 fc af 9a 39
       0.0003030141 8.176053e-09 0.0003256876 0.00029504288
000210 3e 01 3c 3a e1 29 85 39 b6 8e ff 39 12 e4 23 3a
       0.0007171816 0.0002539894 0.00048743718 0.00062519417
000220 d7 79 06 3a fc e6 64 32 98 57 f9 39 20 58 d8 39
       0.000512985 1.33238665e-08 0.00047558243 0.0004126439
000230 1c 81 7f 3a c4 f3 02 3a be 74 59 3a 5e a1 65 3a
       0.0009746717 0.00049954304 0.0008295289 0.00087597023
000240 1e cf 1b 3b d2 b4 6e 33 9d a3 03 3b 06 57 cb 3a
       0.0023774575 5.557815e-08 0.0020086535 0.0015513606
000250 c1 79 fa 3b b7 24 02 3b b8 2d 3f 3b 1b bb 5a 3b
       0.0076439087 0.001985831 0.0029171538 0.0033375684
000260 80 3a 56 3a 23 07 d7 32 2f b4 5d 3a 05 ae 24 3a
       0.00081721693 2.503254e-08 0.00084573304 0.00062820344
000270 8f b6 8a 3a 16 fc 56 3a 69 d0 b9 3a 5d 19 fc 3a
       0.0010582971 0.0008201016 0.0014176491 0.0019233633
000280 dd b0 9a 3a 41 04 00 33 24 85 88 3a 8d ec 46 3a
       0.0011801977 2.980619e-08 0.0010415656 0.00075883494
000290 dd e4 2e 3b f2 c5 7a 3a 13 0f da 3a be 57 0d 3b
       0.0026686706 0.00095662393 0.0016636573 0.002156719
0002a0 b4 b4 33 3a 45 ee 92 32 6c de 34 3a a5 bc 04 3a
       0.0006855235 1.710499e-08 0.00068995985 0.00050635106
0002b0 35 46 48 39 2d 1c 26 3a 75 cc 8d 3a 4b d1 af 3a
       0.0001909964 0.0006336596 0.0010818379 0.0013413815
0002c0 28 da ed 39 33 0f 4b 32 5f 57 eb 39 93 e7 a9 39
       0.00045366702 1.1819611e-08 0.0004488779 0.00032406728
0002d0 e3 7a b3 3a 7b bf e8 39 4f f5 34 3a 8a a4 29 3a
       0.0013693239 0.00044393152 0.0006903009 0.00064713566
0002e0 ed b6 59 3b c3 ba df 33 39 a6 8f 3b 5d 76 43 3b
       0.0033220605 1.04182185e-07 0.004383829 0.0029825189
0002f0 ba ec ec 38 44 d8 6b 3b 1e ad be 3b 7f 65 18 3c
       0.00011297451 0.0035987059 0.005818977 0.009301542
000300 3a 9a ae 38 1e 51 0c 31 b2 6e ab 38 96 f6 95 38
       8.3256935e-05 2.041879e-09 8.174534e-05 7.150804e-05
000310 f5 80 58 36 e1 00 db 38 60 bd 32 39 87 d2 ec 38
       3.226157e-06 0.000104428975 0.0001704595 0.00011292571
000320 c3 3c e5 3a 4d 62 47 33 3e fa ff 3a ee 29 af 3a
       0.0017489422 4.6422702e-08 0.0019529534 0.0013363936
000330 24 73 bd 3a 49 ab d8 3a 2d 5e 37 3b d1 72 60 3b
       0.001445387 0.0016530539 0.0027979717 0.0034248123
000340 25 33 08 3b dc 65 79 33 2a e9 06 3b f1 92 c9 3a
       0.0020782438 5.806747e-08 0.0020585754 0.0015378875
000350 4c 6b ea 3b 2b c0 15 3b ff d8 90 3b ab 0c 5b 3b
       0.007153904 0.0022850137 0.004420399 0.0033424299
000360 60 14 b6 39 d7 a0 22 32 15 98 bb 39 81 0b 91 39
       0.00034728926 9.466212e-09 0.0003578073 0.00027665126
000370 dc 9b ac 3a e4 ea 95 39 bc ea 0f 3a 47 81 17 3a
       0.0013169008 0.00028594502 0.0005489995 0.00057794567
000380 e4 62 80 3b 24 92 e8 33 b6 f5 84 3b 89 f5 31 3b
       0.0039180387 1.0829925e-07 0.0040576113 0.0027154407
000390 18 cc da 38 92 2a a9 3b ca f7 d5 3b 79 c7 db 3b
       0.000104330655 0.0051625455 0.006529783 0.0067071286
0003a0 a2 9e 7f 3a 04 4c ca 32 ee 71 65 3a e5 55 0c 3a
       0.0009751116 2.3550463e-08 0.00087526336 0.00053533755
0003b0 66 38 c4 3a 02 45 61 3a 2a db ec 3a 1f 4f bd 3a
       0.0014970421 0.0008593352 0.0018070687 0.0014443136
0003c0 3a bd b9 39 1a 2f 1c 32 7d 22 b0 39 10 09 63 39
       0.00035426934 9.091105e-09 0.00033595032 0.00021651783
0003d0 44 8c 42 37 15 17 c5 39 01 78 1e 3a 33 4c 16 3a
       1.1595959e-05 0.00037591966 0.00060451037 0.00057334005
0003e0 d8 06 dc 39 73 b9 48 32 0c 26 ea 39 f3 86 b0 39
       0.0004196677 1.16836985e-08 0.00044660305 0.0003366988
0003f0 5c 25 94 3a 8c ab c0 39 3f 98 42 3a 0c ba 55 3a
       0.0011302638 0.00036748906 0.0007423199 0.00081530283

exp_avg f4 [128]
000000 1b 68 58 3d ee 1a cf 3a cc b8 1c 3d e1 cb 7c 3a
       0.052833658 0.0015800872 0.038262174 0.00096434174
000010 57 df e9 bb bd 3a a5 3c eb 77 90 bc 60 08 78 3b
       -0.00713722 0.02016961 -0.017635306 0.0037846789
000020 ed 99 8c bc 0b 4b ae ba d2 fe 24 3d cf 2c 80 3a
       -0.017163241 -0.0013297511 0.040282078 0.0009778979
000030 7f 59 bd 3b 3f 80 dc 3b 20 03 87 3c 2d 63 0d bc
       0.005778491 0.0067291553 0.016480982 -0.008629602
000040 37 ee be bb 73 69 10 3c fe 24 ba bc e8 4a 8d 3c
       -0.0058267373 0.008814204 -0.022722717 0.017247632
000050 49 f5 8a bc e8 2b 56 3b 16 56 3d bc 87 62 80 3d
       -0.016962664 0.0032679979 -0.011556169 0.062687926
000060 fc ac bc 3b fd 87 89 b9 87 c3 91 3c d5 87 27 bc
       0.005757926 -0.00026231995 0.01779343 -0.010225256
000070 fe f0 35 3d 96 4d a8 3b 4e 71 d8 3b 78 07 35 3c
       0.04441928 0.005136202 0.006605304 0.011049144
000080 0f 38 dc 3c a2 90 ee bc e0 58 7c 3a 49 15 69 bd
       0.0268822 -0.0291217 0.00096262805 -0.056905065
000090 98 d5 0e 3a 21 89 81 3c f5 29 49 3a 23 17 17 bc
       0.0005448698 0.015812458 0.00076737936 -0.009221825
0000a0 02 d1 e2 3c a7 f9 40 bc bf 08 27 3c 42 ab 81 3c
       0.027687553 -0.011778272 0.010194956 0.015828732
0000b0 55 d3 66 bd 44 02 26 bd 10 e8 b0 3b 77 c4 1d bb
       -0.056353886 -0.040529504 0.0053987578 -0.00240734
0000c0 d3 6e 0a 3c e9 ae 0f 3c a6 35 3a 3c 66 95 8a bc
       0.008449274 0.008769729 0.01136533 -0.016916942
0000d0 79 1e 23 3d a5 78 da 3b 4e 75 7e bc 63 da ab 3c
       0.039823983 0.006667214 -0.015530897 0.020978158
0000e0 6f eb 33 3d 18 df 85 3c 9f 7c 26 bd 95 9d 9b 3b
       0.0439257 0.016341731 -0.04064619 0.00474901
0000f0 55 4a 99 ba 5a 63 e1 bb 61 5d c4 3c 13 d4 40 3d
       -0.0011695126 -0.0068782987 0.023970308 0.04707725
000100 d2 7d 03 bc b4 bb 79 bc a3 b2 10 bc 0e dd a7 bc
       -0.008025603 -0.015242506 -0.008831653 -0.02049115
000110 00 f3 95 3c 14 f3 1c bd 29 56 dc 3b cb 13 19 3d
       0.018304348 -0.038317755 0.0067241383 0.03737239
000120 d9 dc b0 bc 08 6c 15 3d fa 15 ad 3c cb b1 56 3b
       -0.021589683 0.03647998 0.021128643 0.0032759781
000130 04 13 67 bc 22 33 e0 bc 00 a7 bc bc 80 7f 25 3d
       -0.014103655 -0.027368132 -0.02302885 0.040404797
000140 f0 38 50 ba cd d4 fb 3c 17 e2 6e b9 8e fe 01 bd
       -0.00079430547 0.03074112 -0.00022781674 -0.031736903
000150 89 d2 26 bd 87 93 bf 3b 9f 20 f7 bc e0 aa 88 bc
       -0.040728126 0.005846444 -0.030166922 -0.016683042
000160 20 22 1c bd 9b d2 c6 bc ae 90 c6 bc 2b 1e c0 3c
       -0.03811848 -0.024270346 -0.02423891 0.023451885
000170 07 58 bb bb 2c bb f3 bb f0 f9 0f bd d5 82 15 bc
       -0.005717281 -0.007438084 -0.03515047 -0.009125431
000180 0f 74 ea bb 44 23 db bc cf 42 71 3a c2 fe c2 3c
       -0.0071549485 -0.026750214 0.00092033757 0.023803119
000190 2e 5f ac 3c 68 9e 25 bc 86 68 b4 bb b4 11 b0 bb
       0.021041479 -0.010108568 -0.005505624 -0.005373204
0001a0 81 62 65 3c 10 64 74 bc 40 87 fd 3b de 49 2b 3d
       0.014000536 -0.014916435 0.0077370703 0.041818492
0001b0 55 38 66 bb dd d4 96 3c 71 d9 2e 3c 0e 0c fa bb
       -0.0035128791 0.018412048 0.010671959 -0.0076308316
0001c0 97 93 1f bc 2d ed bf bb f4 94 6c 3c fe e0 e7 bc
       -0.009739778 -0.005857131 0.01443981 -0.028305527
0001d0 1f b5 83 3c 4f 46 58 3c 5d 0c 68 bb 17 73 83 3a
       0.016077576 0.013200357 -0.003540776 0.0010028806
0001e0 dc 4b da 3c 1d 8d 82 3c d2 43 07 3c 9d 6c 76 3b
       0.0266475 0.015936429 0.008255916 0.003760136
0001f0 62 aa 89 bc f9 62 4d bb 8b 66 78 3c 14 85 cd bc
       -0.016804878 -0.003133951 0.015161167 -0.02508787
