RollerBall/results/RollerBall_v2/RollerBall/RollerBall-73669.onnx (onnx, 22868 bytes, 7 tensors)

network_body._body_endoder.seq_layers.0.weight f4 [64, 4]
000000 77 1c 75 bf a4 db d0 be c6 b1 8e bf da 45 0b 3f
       -0.9574656 -0.40792572 -1.1148002 0.5440346
000010 02 e7 0c bf 70 82 d3 3d a6 3f 98 bf a8 5d 29 bf
       -0.5503999 0.10327613 -1.1894424 -0.66158533
000020 13 2d 3d 3f 53 0c b1 bc e0 46 55 3f 4e 97 04 bf
       0.738969 -0.021612322 0.8331127 -0.5179337
000030 97 88 8d be 48 cc ea bd 12 43 7b bf 67 16 6b 3f
       -0.27643272 -0.11464745 -0.98149216 0.9183106
000040 2c 24 c8 bd 47 cc f7 3e 30 98 ef 3e df 42 19 be
       -0.09772524 0.4839804 0.46795797 -0.14966916
000050 df 04 35 3f 6f 4b 48 3f 7d 22 c1 3e 1e cb 88 bf
       0.7071056 0.782401 0.37721625 -1.0686986
000060 78 61 87 3e 23 f2 eb 3d f8 c6 8b bf 95 af 4b 3e
       0.2644155 0.11520793 -1.0920095 0.19891198
000070 0f 9b 3b 3e 39 d6 7a bd 96 99 a6 3e 7d 8c 0c 3f
       0.18320869 -0.061239455 0.32539052 0.5490187
000080 50 ce 78 3d bf 08 d8 bd dc 83 08 3f 7d 50 5b be
       0.06074363 -0.10548543 0.533262 -0.21417423
000090 2e 02 99 be 08 23 57 3f 0c 6f 4e 3f 73 a1 85 3d
       -0.29884475 0.8403783 0.80638194 0.065249346
0000a0 b8 93 90 3e ae a4 59 bf 79 8e 06 3f 43 74 24 3f
       0.282377 -0.85016906 0.52561146 0.642399
0000b0 fb 8d 05 3f 35 50 85 be 01 4a 89 bd f4 7a c5 bc
       0.5216977 -0.26037756 -0.06703568 -0.02410648
0000c0 68 4f a6 ba b2 f2 33 3e 38 2c 3a be 7f bf f1 3e
       -0.001268846 0.1757305 -0.1818093 0.47216412
0000d0 27 7c 37 bf b2 f2 be 3e 92 bf 87 bf a4 72 93 3a
       -0.71673816 0.37294537 -1.0605338 0.0011249376
0000e0 b5 c8 fb 3e d8 22 b7 be 30 11 b8 3d 53 db 66 3f
       0.49176565 -0.3576877 0.08987653 0.9017841
0000f0 90 90 03 be 73 3c 7f 3f c5 6d 3a 3f f9 af 09 3f
       -0.12848115 0.99701613 0.72823745 0.5378414
000100 0f ff 9b 3f 8e a2 fd 3e 3c 51 c2 bd 38 9a 94 be
       1.2187213 0.49538082 -0.094881505 -0.2902391
000110 ac 9d 18 3f 3f 06 1c 3f a8 dd a1 3e 0f 66 73 3e
       0.5961559 0.6094703 0.31614423 0.23769401
000120 2b 09 92 3d 56 f7 59 bf 8a c0 1c 3f dd 11 b8 be
       0.07130655 -0.8514303 0.6123129 -0.3595113
000130 35 c5 d0 3d 02 7c a5 3e 72 b0 39 bf 15 7d 57 3d
       0.10193864 0.32321173 -0.7253486 0.052609522
000140 6d b5 aa 3d 52 88 8f 3d d9 ce 4d 3e 67 dc 08 3f
       0.083353855 0.07008423 0.20098437 0.5346131
000150 c8 7b 7b 3d c5 f2 12 3f f2 0b 0d 3e 68 3e 15 bf
       0.061397344 0.57401687 0.13774088 -0.5829835
000160 09 8f ed be 21 f9 04 bf 93 a5 a7 be c4 5a 05 bf
       -0.4639819 -0.5194264 -0.3274351 -0.5209162
000170 e8 b0 66 3d b0 ef d0 be 14 b4 62 3f a6 b9 e2 3d
       0.056321055 -0.40807867 0.8855603 0.11070566
000180 1c d2 57 3c 10 34 68 3f fd 4a e0 3e 60 d9 e7 3e
       0.013172653 0.9070444 0.43807212 0.4528303
000190 a6 34 2a bf 47 05 56 3e 95 94 b0 3c af cc ca be
       -0.66486585 0.2090045 0.021555224 -0.39609286
0001a0 e3 c7 26 3f 1b 56 63 be 73 ee 81 be a4 f0 27 bf
       0.6514875 -0.22200815 -0.25377235 -0.65601563
0001b0 a7 0a 8c bd 24 c5 2a 3e 8f e9 69 bf 44 4a 07 bf
       -0.06837969 0.16676766 -0.9137201 -0.52847695
0001c0 f0 3f df 3d 04 25 be 3e e9 be 61 3f e7 85 10 bf
       0.10900867 0.37137616 0.8818193 -0.5645432
0001d0 95 82 b3 be c3 37 85 3e 95 8d 86 3e 52 b7 53 be
       -0.35060564 0.26019105 0.26279894 -0.206754
0001e0 3d 91 86 be 1c 61 4b bd 97 27 71 be 0e 08 e2 3e
       -0.26282683 -0.049653158 -0.23550259 0.4414677
0001f0 22 a9 a7 bf cf 10 35 bf b4 ab db 3e 34 f5 19 bc
       -1.309849 -0.7072877 0.42904437 -0.00939684
000200 2f 20 57 3f ac ba 48 bf a0 9a 39 bf 88 2f 87 bd
       0.84033483 -0.7840984 -0.72501564 -0.06600863
000210 b4 83 d3 be 2f f4 5a 3e 4a 27 2e 3e e4 33 6c bf
       -0.4131142 0.21382211 0.17007175 -0.9226668
000220 b2 1f 0a bf c2 86 65 3f ab db 21 bf 82 6e 09 3f
       -0.53954613 0.8965875 -0.6322581 0.53684247
000230 08 31 93 bd 30 c2 03 bf bb 82 89 bd 7c 1c 20 bf
       -0.07187086 -0.5146818 -0.06714388 -0.62543464
000240 c0 5a fd be 99 b2 e1 bd 28 81 af bc 77 38 ef 3d
       -0.494833 -0.11020393 -0.021423891 0.11680692
000250 91 f6 5c 3f 58 7f 1c 3e 16 de 30 3f a5 6d e7 3e
       0.8631373 0.15282953 0.69088876 0.4520084
000260 51 d9 39 3f bc 8e cd 3c 65 47 1d bd ea 94 05 be
       0.72597224 0.025092475 -0.038398165 -0.13045087
000270 1d 72 48 be ea 18 a8 3e e9 6f 17 bf ad 2c 18 3d
       -0.19574781 0.32831508 -0.59155136 0.03715198
000280 42 bd 81 be eb d0 6c 3e ac dc 3e bf 54 b8 a4 bd
       -0.25339705 0.23126571 -0.7455547 -0.0804297
000290 80 de ff be 4c a5 fe be 60 3a c3 bd 8a 13 ff be
       -0.49974442 -0.49735487 -0.095326185 -0.49819595
0002a0 81 b7 6e bf ab ee 4f be 72 c9 e0 bc d7 67 10 3e
       -0.93248755 -0.20305888 -0.027439807 0.14102112
0002b0 ab 36 79 3e ec 6c b0 be 50 81 52 3e e3 3c 7b be
       0.2433726 -0.344581 0.20557141 -0.24534945
0002c0 37 76 9b be b9 1e 86 3f 35 13 07 bf 9b 5e 74 be
       -0.30363628 1.0478126 -0.5276368 -0.23864214
0002d0 18 8d 3a 3d 58 a1 3f bf 3c 43 c4 be f5 35 51 bf
       0.045544714 -0.74855566 -0.38332546 -0.81722957
0002e0 8a 79 55 3f 3f ef be be 12 9a 85 3f 97 c7 cf be
       0.8338858 -0.37291905 1.0437644 -0.40581962
0002f0 23 34 46 3e 98 b8 08 3f a3 73 4e be de 6a 4d 3d
       0.19355826 0.5340667 -0.201613 0.050150745
000300 d0 c1 c7 bd cf 48 a2 3f fe 55 91 be 38 97 25 3d
       -0.09753764 1.267847 -0.2838592 0.040427417
000310 4f 61 0b 3f e7 b3 55 bd aa ec 10 be 39 1c e5 be
       0.54445356 -0.05217352 -0.1415278 -0.44748095
000320 08 0d 96 bf a1 c6 4b bf 8f 89 47 3d 64 61 59 3e
       -1.1722727 -0.7959996 0.04871517 0.21228558
000330 dd 9e 0a bd 39 e6 c0 be 61 2c 82 bf 42 46 8d 3e
       -0.03384291 -0.37675646 -1.0169793 0.27592665
000340 1c 66 09 3f 5a 37 30 3f f9 39 25 3d fb 3e 75 be
       0.5367143 0.6883446 0.04033849 -0.23949806
000350 2d 1b 9a 3e f2 96 fd 3e 9b 42 62 3e be 6c ad 3e
       0.30098858 0.49529225 0.2209572 0.33872026
000360 d3 8d 94 3f cb 01 f6 3e 88 e5 39 3f fe a9 07 bd
       1.1605781 0.48048243 0.7261586 -0.0331211
000370 67 36 63 bf 25 ff 39 bf 18 b6 11 3f e8 b5 9e bf
       -0.88754886 -0.72654945 0.5691848 -1.2399263
000380 50 e8 b8 3e d1 a7 b6 be 8a e5 76 be 26 82 6b bd
       0.3611474 -0.3567491 -0.24111 -0.057497166
000390 49 4c 8f bd 99 11 04 bf db f0 75 be d5 c3 83 3e
       -0.06996972 -0.5158935 -0.2401766 0.25735345
0003a0 46 ee a9 be 15 30 23 bf 02 01 98 be 28 d2 a6 3f
       -0.331896 -0.6374524 -0.2968827 1.3032885
0003b0 6b 23 54 3f 0f 25 97 3e 2e 4e e1 3e 98 ff e1 be
       0.82866544 0.2952046 0.4400496 -0.44140315
0003c0 6c a6 1f bf 05 cf 89 bd 04 5c 88 be 55 65 b5 bd
       -0.62363315 -0.06728939 -0.26632702 -0.08857218
0003d0 27 43 7c 3e 04 fe 15 be f7 9c e1 3e c3 3c 0f bc
       0.24634992 -0.1464768 0.44065067 -0.008742514
0003e0 5c 19 31 3e 6e 88 79 bf 81 c5 74 3f d1 e4 72 bf
       0.1729483 -0.974738 0.9561387 -0.94880396
0003f0 91 08 11 bf 1b 76 7a 3f be 67 60 3f be ad 45 3f
       -0.56653696 0.97836465 0.876583 0.77218235

network_body._body_endoder.seq_layers.0.bias f4 [64]
000000 ca cd e7 3c 6b e0 f9 3c 42 2f 64 3d 41 96 93 3d
       0.02829637 0.030502519 0.05570913 0.07206393
000010 fb 1e bf 3c 8f ad 92 3d d2 50 74 3d db 3c a4 bb
       0.023330202 0.0716201 0.05964739 -0.0050121373
000020 1e 2b cc 3d 50 25 45 bc 6c 0b 79 3b 1b 02 4e 3d
       0.099691615 -0.012032822 0.0038001193 0.050294977
000030 cb 4d 25 3d 0c 39 62 3d 65 58 bc b9 4a 1a 85 3d
       0.040357392 0.055230185 -0.00035924013 0.06499155
000040 74 57 70 3d d6 d0 d1 3c 6e ba 86 3d bd a5 f1 3c
       0.05867715 0.025612276 0.065785274 0.029497975
000050 3c c8 98 bc 89 a1 f7 bb 4c dc d3 3c ee 11 72 3d
       -0.018650167 -0.0075570983 0.025861882 0.05909913
000060 ac 8c 93 3c 78 79 a3 3c fc cd 98 3d 54 43 16 3d
       0.018011414 0.019955382 0.074611634 0.036685303
000070 c1 73 36 3d 9b b0 32 3d 71 e4 9b 3c 8d c8 48 3d
       0.044543985 0.043625455 0.019029828 0.049019385
000080 16 67 3b 3d 3b a7 08 3c 6d ea e8 3b b5 7c 07 bd
       0.045752607 0.008340652 0.007108024 -0.033077914
000090 3f 6d 66 3d 34 0c 78 3c d6 05 41 3d 9e 76 49 3d
       0.05625653 0.015139628 0.047124706 0.049185388
0000a0 df 5f 9f 3d 46 cc 21 bd d4 b8 d0 bc 24 4d 13 bd
       0.07781958 -0.03950145 -0.025478758 -0.03596224
0000b0 8d 6a 6c 3c 63 d8 60 bd 3d 57 08 bd ef a6 11 3d
       0.014429701 -0.054893862 -0.033286322 0.03555959
0000c0 ec b5 96 3c 22 f9 b6 3d ad 5d 9d 3c ad 37 67 3d
       0.018397294 0.08934237 0.019209707 0.05644958
0000d0 a5 b1 49 3d fa cd 1b 3d 49 5d da 3c a3 ed ca bb
       0.04924168 0.03803823 0.02665581 -0.0061928793
0000e0 dc d9 18 3d 10 7d 20 bc 2f 77 1c bd af 21 ba bc
       0.037317142 -0.009795442 -0.0381996 -0.02272114
0000f0 61 3d 75 3d c0 2f f5 3c 9b 10 01 3d ba 44 64 3d
       0.05987299 0.029929996 0.031509977 0.055729605

network_body._body_endoder.seq_layers.2.weight f4 [64, 64]
000000 d5 98 01 3a 5f 40 59 bd 63 4c 17 be ce d2 50 3d
       0.0004943733 -0.053039905 -0.14775233 0.05098229
000010 2a a3 8f 3d d8 70 91 bd 21 9e ce ba 76 56 54 3e
       0.07013543 -0.07101601 -0.0015763679 0.20736107
000020 da a2 17 3d eb 10 a0 3d f4 9d 2f 3e c6 92 0a be
       0.03702054 0.07815727 0.17150098 -0.13532552
000030 72 69 47 3e 46 59 33 bd 35 7f c2 bd e0 a1 0d bd
       0.19473818 -0.04378631 -0.09496919 -0.034578204
000040 f4 26 a5 bd 04 74 02 3e c0 04 05 be de e4 a2 3d
       -0.0806407 0.12739569 -0.12990093 0.07953809
000050 01 96 97 be f8 15 d0 3d e0 85 9c 3d 8f b5 b8 3d
       -0.2960663 0.1016044 0.07642722 0.090190046
000060 69 df 2c bb d3 d0 40 3e 1f 19 88 3d aa 1b 14 3e
       -0.002637828 0.1882966 0.066454165 0.14463678
000070 74 92 90 bd 0f 85 c7 3c c3 fa 23 3e 9f 74 0b 3e
       -0.07059184 0.02435544 0.16013627 0.13618706
000080 de 90 86 be e5 29 c4 3d ed b0 cc bd 42 9a 41 3e
       -0.262824 0.09578303 -0.099946834 0.18906501
000090 85 05 76 be 3b 31 29 3e 9a 50 da 3d 69 01 81 bd
       -0.24025543 0.16522686 0.10659905 -0.06299097
0000a0 a2 fd 49 3d 5b 97 78 be c3 d9 2c bd 0b 28 52 3e
       0.04931415 -0.24276488 -0.04219986 0.20523088
0000b0 08 ff 05 be e9 93 5e 3d b5 97 b2 bd 2a c8 e8 bc
       -0.13085568 0.054340277 -0.08720342 -0.028415758
0000c0 38 ad 2d 3e e0 3e b2 bd 1d 44 30 be de 05 94 3d
       0.16960609 -0.08703399 -0.17213483 0.072276816
0000d0 80 cb 42 bc 14 91 9b bc 22 89 2b 3e a0 84 a3 bc
       -0.0118893385 -0.018990077 0.16751531 -0.019960701
0000e0 c0 88 f9 3c 31 33 89 be d0 59 17 be 9d c5 72 bc
       0.030460715 -0.26796868 -0.14780354 -0.0148176225
0000f0 79 3a 8d bb 69 66 1c 3e 87 a4 fb bd 87 d1 fc bd
       -0.004309949 0.15273441 -0.122872405 -0.12344652
000100 7d 1b c0 3c e3 8b 07 bd f2 73 f0 3b b9 d9 0b bd
       0.023450607 -0.03309239 0.0073380405 -0.034143183
000110 42 ab c8 3d 4a 76 29 3c 99 2f 4e 3b b5 66 3e 3e
       0.0979829 0.010343144 0.0031461476 0.18593867
000120 08 da 14 3c 13 b2 d5 bd d6 9d 6c 3b 3a d2 1b 3e
       0.009085186 -0.104343556 0.003610482 0.15216914
000130 97 66 12 bc 8a 92 04 3e d6 1c 1b 3e ee 3a 7b bc
       -0.008935592 0.12946525 0.15147719 -0.015333874
000140 fa 77 7f be 3a 02 68 bd 1d 88 3e 3e 98 9b a9 3d
       -0.24948111 -0.05664275 0.1860661 0.0828163
000150 09 3b 5e 3d 67 43 a4 3c 36 11 4b 3e f1 06 50 3c
       0.05425552 0.020051671 0.19830784 0.012696967
000160 33 9c a0 bd 45 7b 53 3e 12 6d e9 bc 91 12 d2 bd
       -0.07842293 0.20652492 -0.028494392 -0.102574475
000170 99 03 57 3e 70 0e 8e 3d ae cd 97 bc 60 70 38 3d
       0.20997466 0.069363475 -0.018530693 0.045029044
000180 7d 72 04 3e 22 26 4c be 7f d4 a4 3d f6 14 1a be
       0.12934299 -0.19936422 0.08048343 -0.15047058
000190 9c 21 5d 3e 51 9b 78 3e 10 40 fb 3c b8 2f 9f 3d
       0.21594852 0.24277999 0.030670196 0.077727735
0001a0 cb 4b 27 bc 95 ce 6a 3c c4 f1 49 3e da 4a a5 3d
       -0.010210942 0.01433148 0.19721133 0.080709174
0001b0 e1 e0 76 3e 06 67 8d be 5d 28 2d bd bd 6b 0d be
       0.24109222 -0.27617663 -0.04227482 -0.1381063
0001c0 b4 9b 02 be d9 7e 57 be 77 77 46 3e 5f 1f d4 bd
       -0.12754709 -0.21044482 0.1938151 -0.10357546
0001d0 08 e8 98 be d1 32 b8 bb 07 d9 24 3e a3 c0 df bc
       -0.29864526 -0.005621292 0.16098414 -0.027313536
0001e0 0c 97 9a 3d 31 7d 08 3d 0a c5 ec bc e3 eb 05 be
       0.07548341 0.033322517 -0.02890255 -0.13078265
0001f0 64 38 99 3d 60 43 34 3e ac 59 c7 bd 4d 62 a8 3d
       0.07481459 0.17603827 -0.097339004 0.082218744
000200 e4 fe 1f 3e 66 d2 04 bd 2f ec db bd cf ec d2 3d
       0.15624577 -0.032427214 -0.10738408 0.10299074
000210 4a 34 b7 bd c2 fb 96 be 58 03 f9 3d de b8 70 bc
       -0.0894552 -0.2948895 0.12158841 -0.014692513
000220 f1 d2 17 be b2 4e aa bc c8 38 00 bd f7 5f 40 3e
       -0.14826562 -0.020789478 -0.03130415 0.18786608
000230 e6 a0 00 3e 37 e9 f7 3d 40 e6 29 b8 0f 26 97 bc
       0.12561378 0.12105029 -4.0507177e-05 -0.018450765
000240 ff 4b 85 bd bf 4a af 3b 71 a5 1b be 42 67 6c 3e
       -0.06508636 0.0053494866 -0.1519983 0.23086265
000250 85 04 12 be 53 c1 d8 3c 91 86 78 3e d5 73 32 bc
       -0.14259537 0.026459372 0.24270083 -0.010891874
000260 2e e5 2b 3d 58 a6 ba bc f2 86 ea bd a2 7c 9d 3d
       0.04196661 -0.022784397 -0.1145152 0.076897874
000270 fc d9 54 3e 16 a5 e1 3c dc 2e 85 3d c4 0e a2 bd
       0.2078628 0.02754454 0.06503078 -0.079129726
000280 1d 0a 11 3d 8e 86 15 bd c4 df 0c 3d 2d 5b 85 3d
       0.035410035 -0.036505274 0.034393087 0.06511531
000290 52 b8 38 bd 48 f4 cf 3d 8f 60 20 3e ac 7a db 3e
       -0.045097657 0.10154015 0.15661834 0.4286703
0002a0 eb 0d 68 3d 9f 86 b0 3c 42 5c ad 3c e3 5c 20 be
       0.0566539 0.021548567 0.021162156 -0.15660433
0002b0 e7 de 27 3e b0 44 25 3c 5d b6 02 bd cf 29 c7 3d
       0.16393624 0.010087177 -0.031912196 0.09724771
0002c0 45 eb 7d 3e b0 90 00 3e 07 9d 71 be 7c 2c dc 3d
       0.2479678 0.12555194 -0.23595057 0.10750672
0002d0 78 9d ca 3d 63 4a eb bc 5e dd 4b 3d e4 12 e5 3d
       0.09893316 -0.028721994 0.04977166 0.11185244
0002e0 49 e4 43 3d 2e 1e f1 bd bc c4 5e 3d 07 ad ab bd
       0.04782513 -0.117733344 0.05438684 -0.08382612
0002f0 38 bd 5b 3e 7b 96 dd bd 64 13 e2 3b 22 5a 18 be
       0.214589 -0.108197175 0.006899284 -0.14878133
000300 3e e6 2c bc 4a fe 90 3c 25 5d e1 bd b3 e4 6f 3e
       -0.010552941 0.01769938 -0.11004094 0.23427086
000310 55 2d f5 bd bc 11 34 bd b5 5a 83 3e 90 63 2b be
       -0.11971537 -0.043962225 0.2565514 -0.16737199
000320 1a 04 72 3c 8b 45 07 3d df ef bd 3b 5e 42 46 3e
       0.014771486 0.033025306 0.005796417 0.19361255
000330 2f ce 01 bd cc 63 0c 3e 34 f7 3f bd 4f 6e 5a bd
       -0.031690773 0.13709944 -0.04686661 -0.053327855
000340 02 c2 39 3d a9 4f a3 bc b5 0c 07 3e 87 30 ac be
       0.045351036 -0.019935446 0.13188441 -0.33630773
000350 c1 cd 0e 3d 35 2a 66 3d aa 10 b1 3e aa 27 e6 bd
       0.03486419 0.056192596 0.34583026 -0.11238034
000360 14 99 d6 3d 16 56 41 be be 25 23 bd df 49 9f be
       0.10478416 -0.18880495 -0.039830916 -0.31111047
000370 4c fe b4 3d 20 7d f3 bd 9a e1 0b 3e c9 1f b0 3c
       0.08837566 -0.118891 0.13660279 0.021499531
000380 59 a5 4e 3c dd 62 98 3e 6a 12 89 bd a5 37 63 bd
       0.012612664 0.29762927 -0.06692965 -0.05547299
000390 2c 58 93 bd ae dc 97 bd 2f 39 5c 3e 30 38 29 3e
       -0.07194552 -0.07415138 0.21506189 0.1652534
0003a0 7d 36 33 3e 79 4f 1a be a6 00 47 bd de 29 9c bd
       0.17501254 -0.15069379 -0.048584603 -0.07625173
0003b0 88 75 4d 3d 25 dd a8 bd 0c ba cd 3a 33 77 18 3d
       0.050160915 -0.08245305 0.0015695705 0.037223052
0003c0 2b ca cf 3d 5b 03 c1 3e 78 f0 28 3d 1a a8 3b bd
       0.10145982 0.37697873 0.041244954 -0.04581461
0003d0 cd 9b 7e 3e bb 37 3d 3e 24 a3 20 bc d2 27 d5 3d
       0.24864121 0.1847829 -0.009804521 0.10407986
0003e0 8d df c3 3d ef f6 41 bc db 95 c2 bd ab eb a2 3d
       0.09564123 -0.011838659 -0.09501239 0.07955106
0003f0 3b 99 c7 bd 8e 34 9c 3a c6 8a 1a bd 0b 8a 73 3d
       -0.09746023 0.0011917518 -0.03773 0.05945782

network_body._body_endoder.seq_layers.2.bias f4 [64]
000000 15 33 5d bc 32 5f e6 3c 11 f8 65 3d 10 31 14 3c
       -0.013500948 0.028121565 0.056144778 0.009044901
000010 6c 3b bc bc 30 6e 0f 3d 58 3b 51 3d 0e c3 50 3d
       -0.022977553 0.035017192 0.051081985 0.05096727
000020 a2 aa 30 bc 06 46 13 bd a4 91 fc 3c 0e 2f b8 bc
       -0.0107828695 -0.03595545 0.030831166 -0.022483375
000030 45 88 19 3d 92 81 21 3c 57 52 03 3d 4a 63 05 3d
       0.037483472 0.009857552 0.032060947 0.032565393
000040 e9 6d b4 3b 11 42 6a 3d 99 5d 2d 3d 40 72 51 3d
       0.0055062664 0.057191912 0.04232559 0.051134348
000050 51 c7 89 3c 46 4d 20 3d 5d 1b 80 3c 18 9f d9 3b
       0.016818674 0.039136194 0.015638048 0.00664128
000060 fb 04 0a 3c 9f 00 e9 3c cd e1 85 bb 1a 98 45 3d
       0.008424039 0.028442679 -0.0040857554 0.04824076
000070 b4 17 54 3d 56 7d 55 bb fc d6 56 3d c6 05 23 3d
       0.051780418 -0.0032575927 0.05245112 0.039800428
000080 2f 81 e5 3b a3 60 b3 3c 5a 83 5f 3d 44 1a 3b 3c
       0.0070039253 0.021896666 0.054568626 0.011419836
000090 4f dd 18 3d 87 a8 ac 3c c7 ad 54 3d a0 91 45 3d
       0.03732043 0.021076454 0.05192354 0.048234582
0000a0 86 b2 cc bc 1a a4 46 3c ec de e4 3b a8 72 f6 3c
       -0.02498747 0.012124086 0.006984582 0.03008397
0000b0 2e b7 87 3d 5a 7b d7 bb 79 1a af 3c 18 6e 7f bc
       0.06626736 -0.006575984 0.021374928 -0.015590213
0000c0 3c 57 5a 3d 79 88 8a 3d 0b eb c7 3c bc b2 54 3d
       0.05330585 0.06764311 0.02440407 0.051928267
0000d0 55 26 b7 bb d2 3c 67 3c 21 ee e2 3c ea 91 27 3d
       -0.0055892863 0.014113622 0.02770144 0.04091064
0000e0 94 91 02 3b 3b 4b 42 3d fa 2f 71 3d 03 98 65 3c
       0.0019923197 0.047435027 0.058883645 0.014013293
0000f0 c5 c1 eb bb 07 ce a7 3d 23 6d 9f 3c 1e ac 68 3d
       -0.00719473 0.081935935 0.01946122 0.05680477

action_model._continuous_distribution.log_sigma f4 [1, 2]
000000 6f bc 86 bc 71 55 05 bb
       -0.016447274 -0.0020345116

action_model._continuous_distribution.mu.weight f4 [2, 64]
000000 6d e2 93 3c a4 5f 87 bd 30 28 90 bb 45 cc 0d 3d
       0.018052304 -0.06610039 -0.004399322 0.034618635
000010 3b 0c 3f 3b 1c 7b 95 3c 14 0e a9 bd 53 e9 88 3d
       0.0029151577 0.01824718 -0.08254638 0.06685128
000020 92 ae 50 bc b1 9d 37 3d 0d a4 89 3d a0 98 04 3c
       -0.012736933 0.04482812 0.06720743 0.008093029
000030 7e c3 5d bc 79 41 d1 3c ef 34 ab bc ed 0a 57 3d
       -0.0135353785 0.025543915 -0.020899264 0.052500654
000040 61 29 0c 3d d1 18 23 3d 77 e8 d0 3d 36 cf 3e bd
       0.03421915 0.03981859 0.10200589 -0.04658433
000050 3e b4 bf bc 47 41 8b 39 c0 6a 94 bc 6b 70 15 bd
       -0.023401376 0.0002656078 -0.018117309 -0.036484163
000060 d8 59 35 bd f8 25 82 3d d6 8b a1 39 e1 e3 75 3d
       -0.044275135 0.06354898 0.000308125 0.060031775
000070 95 ef a2 bd bf ef 35 bc c8 5f 20 bd 97 ed a1 bd
       -0.07955853 -0.011104523 -0.039153844 -0.07906645
000080 ca 00 bd bc b5 8a fb bb 6a c4 66 3d a9 0a 3f bd
       -0.023071665 -0.0076764473 0.05633966 -0.046641026
000090 58 76 7f bd 0a b1 85 bd fe 41 c0 3d 59 4c ec 3c
       -0.06236872 -0.06527908 0.09387587 0.028845
0000a0 3d 0e 19 bd aa ed 9c 3d c5 f4 9e 3c fc 67 0b 3d
       -0.037367094 0.07662518 0.019403825 0.034034714
0000b0 f5 c0 db 3b f6 fd 54 bd 6f 4f 1d bd 4e cc eb bc
       0.006706352 -0.05200001 -0.038405832 -0.028783944
0000c0 5d 45 7b 3d da 9b a0 bd ce 8c 91 bd 4e 98 01 bd
       0.061345447 -0.07842226 -0.071069345 -0.03163939
0000d0 c1 7d 43 bc ab 0a 27 3d aa 0d 41 3d fa 57 60 3d
       -0.011931838 0.04078166 0.04713217 0.0547714
0000e0 ce 00 23 bc f6 da a4 bd 6b 38 c3 3d 78 4d 0c 3d
       -0.009948922 -0.08049576 0.09532245 0.034253567
0000f0 95 54 30 ba f9 0d 80 3d c5 74 15 bd 87 0b 61 bd
       -0.0006726471 0.06252665 -0.036488313 -0.054942634
000100 58 08 c2 bb fd 8e 2e 3d c8 8a b9 bd dd db 6b bd
       -0.005921405 0.042616833 -0.090596735 -0.057582725
000110 dd 0d 46 bc 9e 25 9e bd 2d 8b 60 bc 69 5c d7 3c
       -0.012088266 -0.07722019 -0.013705057 0.026289182
000120 a2 6f 0e 3d 2a 14 09 3d 85 3a 9e 3c 79 09 95 bc
       0.03477443 0.033466496 0.019315014 -0.018192993
000130 5d db 5e 3d d0 77 07 3d 37 fe 3b 3d 2f 12 40 bd
       0.05440842 0.033073246 0.045896735 -0.04689234
000140 91 46 ac bc e1 41 92 bd 17 aa a2 3c 44 3c c8 3d
       -0.021029742 -0.07141472 0.019856496 0.0977712
000150 39 b8 1f 3d 7d 52 38 bd 22 dc 03 bd 25 2b 2d 3d
       0.038994048 -0.045000542 -0.032192357 0.042277474
000160 5d d4 07 3d 17 2e 3f bd 6e 9f 3b bc d3 a0 75 3c
       0.03316151 -0.046674814 -0.011451585 0.014991957
000170 b4 2a 8e 3c 7d 5e 1b bd 1d 1a 8f bd 0d 21 8b bc
       0.017354347 -0.037931908 -0.069874026 -0.016983533
000180 e2 51 95 3c 53 19 2e bd 24 b5 91 bd 42 b1 f9 3c
       0.018227521 -0.04250462 -0.07114628 0.03048003
000190 3b 69 32 3d cb 3c b4 3b 03 66 c4 bc d2 e6 8a bd
       0.043557387 0.005500411 -0.023974424 -0.06782307
0001a0 aa e9 60 3d c8 d4 51 3d 01 02 c3 3c 0e 6c 94 3d
       0.05491034 0.051228315 0.023804666 0.07247172
0001b0 77 ee 9c bd f2 59 9c bc cf bc ee 3c cb be 7f bc
       -0.07662671 -0.019085858 0.029142765 -0.015609453
0001c0 ca 6e b0 bc 47 dc ad 3c 20 6b 2a bd f1 ff 80 3d
       -0.021537203 0.0212232 -0.04160607 0.06298817
0001d0 47 bc 0f 3d c3 dd 3a bd 5e 47 42 3d 78 bf 21 bd
       0.035091665 -0.045621645 0.047431342 -0.03948924
0001e0 72 5d 1e 3d dc c7 82 bd 5e 4c 3f 3d 84 76 88 bc
       0.038663335 -0.063857764 0.04670369 -0.016658075
0001f0 ec 2d e0 3c d0 a7 26 bd 9b 90 af 3c 67 92 82 3d
       0.027365647 -0.040687382 0.021431258 0.0637558

action_model._continuous_distribution.mu.bias f4 [2]
000000 e7 f6 c6 3a b7 1c 10 bc
       0.0015179784 -0.008795909
