RollerBall/results/RollerBall_v2/RollerBall/RollerBall-73669.pt (torch, 129180 bytes, 36 tensors)

network_body._body_endoder.seq_layers.0.weight f4 [64, 4]
000000 77 1c 75 bf a4 db d0 be c6 b1 8e bf da 45 0b 3f
       -0.9574656 -0.40792572 -1.1148002 0.5440346
000010 02 e7 0c bf 70 82 d3 3d a6 3f 98 bf a8 5d 29 bf
       -0.5503999 0.10327613 -1.1894424 -0.66158533
000020 13 2d 3d 3f 53 0c b1 bc e0 46 55 3f 4e 97 04 bf
       0.738969 -0.021612322 0.8331127 -0.5179337
000030 97 88 8d be 48 cc ea bd 12 43 7b bf 67 16 6b 3f
       -0.27643272 -0.11464745 -0.98149216 0.9183106
000040 2c 24 c8 bd 47 cc f7 3e 30 98 ef 3e df 42 19 be
       -0.09772524 0.4839804 0.46795797 -0.14966916
000050 df 04 35 3f 6f 4b 48 3f 7d 22 c1 3e 1e cb 88 bf
       0.7071056 0.782401 0.37721625 -1.0686986
000060 78 61 87 3e 23 f2 eb 3d f8 c6 8b bf 95 af 4b 3e
       0.2644155 0.11520793 -1.0920095 0.19891198
000070 0f 9b 3b 3e 39 d6 7a bd 96 99 a6 3e 7d 8c 0c 3f
       0.18320869 -0.061239455 0.32539052 0.5490187
000080 50 ce 78 3d bf 08 d8 bd dc 83 08 3f 7d 50 5b be
       0.06074363 -0.10548543 0.533262 -0.21417423
000090 2e 02 99 be 08 23 57 3f 0c 6f 4e 3f 73 a1 85 3d
       -0.29884475 0.8403783 0.80638194 0.065249346
0000a0 b8 93 90 3e ae a4 59 bf 79 8e 06 3f 43 74 24 3f
       0.282377 -0.85016906 0.52561146 0.642399
0000b0 fb 8d 05 3f 35 50 85 be 01 4a 89 bd f4 7a c5 bc
       0.5216977 -0.26037756 -0.06703568 -0.02410648
0000c0 68 4f a6 ba b2 f2 33 3e 38 2c 3a be 7f bf f1 3e
       -0.001268846 0.1757305 -0.1818093 0.47216412
0000d0 27 7c 37 bf b2 f2 be 3e 92 bf 87 bf a4 72 93 3a
       -0.71673816 0.37294537 -1.0605338 0.0011249376
0000e0 b5 c8 fb 3e d8 22 b7 be 30 11 b8 3d 53 db 66 3f
       0.49176565 -0.3576877 0.08987653 0.9017841
0000f0 90 90 03 be 73 3c 7f 3f c5 6d 3a 3f f9 af 09 3f
       -0.12848115 0.99701613 0.72823745 0.5378414
000100 0f ff 9b 3f 8e a2 fd 3e 3c 51 c2 bd 38 9a 94 be
       1.2187213 0.49538082 -0.094881505 -0.2902391
000110 ac 9d 18 3f 3f 06 1c 3f a8 dd a1 3e 0f 66 73 3e
       0.5961559 0.6094703 0.31614423 0.23769401
000120 2b 09 92 3d 56 f7 59 bf 8a c0 1c 3f dd 11 b8 be
       0.07130655 -0.8514303 0.6123129 -0.3595113
000130 35 c5 d0 3d 02 7c a5 3e 72 b0 39 bf 15 7d 57 3d
       0.10193864 0.32321173 -0.7253486 0.052609522
000140 6d b5 aa 3d 52 88 8f 3d d9 ce 4d 3e 67 dc 08 3f
       0.083353855 0.07008423 0.20098437 0.5346131
000150 c8 7b 7b 3d c5 f2 12 3f f2 0b 0d 3e 68 3e 15 bf
       0.061397344 0.57401687 0.13774088 -0.5829835
000160 09 8f ed be 21 f9 04 bf 93 a5 a7 be c4 5a 05 bf
       -0.4639819 -0.5194264 -0.3274351 -0.5209162
000170 e8 b0 66 3d b0 ef d0 be 14 b4 62 3f a6 b9 e2 3d
       0.056321055 -0.40807867 0.8855603 0.11070566
000180 1c d2 57 3c 10 34 68 3f fd 4a e0 3e 60 d9 e7 3e
       0.013172653 0.9070444 0.43807212 0.4528303
000190 a6 34 2a bf 47 05 56 3e 95 94 b0 3c af cc ca be
       -0.66486585 0.2090045 0.021555224 -0.39609286
0001a0 e3 c7 26 3f 1b 56 63 be 73 ee 81 be a4 f0 27 bf
       0.6514875 -0.22200815 -0.25377235 -0.65601563
0001b0 a7 0a 8c bd 24 c5 2a 3e 8f e9 69 bf 44 4a 07 bf
       -0.06837969 0.16676766 -0.9137201 -0.52847695
0001c0 f0 3f df 3d 04 25 be 3e e9 be 61 3f e7 85 10 bf
       0.10900867 0.37137616 0.8818193 -0.5645432
0001d0 95 82 b3 be c3 37 85 3e 95 8d 86 3e 52 b7 53 be
       -0.35060564 0.26019105 0.26279894 -0.206754
0001e0 3d 91 86 be 1c 61 4b bd 97 27 71 be 0e 08 e2 3e
       -0.26282683 -0.049653158 -0.23550259 0.4414677
0001f0 22 a9 a7 bf cf 10 35 bf b4 ab db 3e 34 f5 19 bc
       -1.309849 -0.7072877 0.42904437 -0.00939684
000200 2f 20 57 3f ac ba 48 bf a0 9a 39 bf 88 2f 87 bd
       0.84033483 -0.7840984 -0.72501564 -0.06600863
000210 b4 83 d3 be 2f f4 5a 3e 4a 27 2e 3e e4 33 6c bf
       -0.4131142 0.21382211 0.17007175 -0.9226668
000220 b2 1f 0a bf c2 86 65 3f ab db 21 bf 82 6e 09 3f
       -0.53954613 0.8965875 -0.6322581 0.53684247
000230 08 31 93 bd 30 c2 03 bf bb 82 89 bd 7c 1c 20 bf
       -0.07187086 -0.5146818 -0.06714388 -0.62543464
000240 c0 5a fd be 99 b2 e1 bd 28 81 af bc 77 38 ef 3d
       -0.494833 -0.11020393 -0.021423891 0.11680692
000250 91 f6 5c 3f 58 7f 1c 3e 16 de 30 3f a5 6d e7 3e
       0.8631373 0.15282953 0.69088876 0.4520084
000260 51 d9 39 3f bc 8e cd 3c 65 47 1d bd ea 94 05 be
       0.72597224 0.025092475 -0.038398165 -0.13045087
000270 1d 72 48 be ea 18 a8 3e e9 6f 17 bf ad 2c 18 3d
       -0.19574781 0.32831508 -0.59155136 0.03715198
000280 42 bd 81 be eb d0 6c 3e ac dc 3e bf 54 b8 a4 bd
       -0.25339705 0.23126571 -0.7455547 -0.0804297
000290 80 de ff be 4c a5 fe be 60 3a c3 bd 8a 13 ff be
       -0.49974442 -0.49735487 -0.095326185 -0.49819595
0002a0 81 b7 6e bf ab ee 4f be 72 c9 e0 bc d7 67 10 3e
       -0.93248755 -0.20305888 -0.027439807 0.14102112
0002b0 ab 36 79 3e ec 6c b0 be 50 81 52 3e e3 3c 7b be
       0.2433726 -0.344581 0.20557141 -0.24534945
0002c0 37 76 9b be b9 1e 86 3f 35 13 07 bf 9b 5e 74 be
       -0.30363628 1.0478126 -0.5276368 -0.23864214
0002d0 18 8d 3a 3d 58 a1 3f bf 3c 43 c4 be f5 35 51 bf
       0.045544714 -0.74855566 -0.38332546 -0.81722957
0002e0 8a 79 55 3f 3f ef be be 12 9a 85 3f 97 c7 cf be
       0.8338858 -0.37291905 1.0437644 -0.40581962
0002f0 23 34 46 3e 98 b8 08 3f a3 73 4e be de 6a 4d 3d
       0.19355826 0.5340667 -0.201613 0.050150745
000300 d0 c1 c7 bd cf 48 a2 3f fe 55 91 be 38 97 25 3d
       -0.09753764 1.267847 -0.2838592 0.040427417
000310 4f 61 0b 3f e7 b3 55 bd aa ec 10 be 39 1c e5 be
       0.54445356 -0.05217352 -0.1415278 -0.44748095
000320 08 0d 96 bf a1 c6 4b bf 8f 89 47 3d 64 61 59 3e
       -1.1722727 -0.7959996 0.04871517 0.21228558
000330 dd 9e 0a bd 39 e6 c0 be 61 2c 82 bf 42 46 8d 3e
       -0.03384291 -0.37675646 -1.0169793 0.27592665
000340 1c 66 09 3f 5a 37 30 3f f9 39 25 3d fb 3e 75 be
       0.5367143 0.6883446 0.04033849 -0.23949806
000350 2d 1b 9a 3e f2 96 fd 3e 9b 42 62 3e be 6c ad 3e
       0.30098858 0.49529225 0.2209572 0.33872026
000360 d3 8d 94 3f cb 01 f6 3e 88 e5 39 3f fe a9 07 bd
       1.1605781 0.48048243 0.7261586 -0.0331211
000370 67 36 63 bf 25 ff 39 bf 18 b6 11 3f e8 b5 9e bf
       -0.88754886 -0.72654945 0.5691848 -1.2399263
000380 50 e8 b8 3e d1 a7 b6 be 8a e5 76 be 26 82 6b bd
       0.3611474 -0.3567491 -0.24111 -0.057497166
000390 49 4c 8f bd 99 11 04 bf db f0 75 be d5 c3 83 3e
       -0.06996972 -0.5158935 -0.2401766 0.25735345
0003a0 46 ee a9 be 15 30 23 bf 02 01 98 be 28 d2 a6 3f
       -0.331896 -0.6374524 -0.2968827 1.3032885
0003b0 6b 23 54 3f 0f 25 97 3e 2e 4e e1 3e 98 ff e1 be
       0.82866544 0.2952046 0.4400496 -0.44140315
0003c0 6c a6 1f bf 05 cf 89 bd 04 5c 88 be 55 65 b5 bd
       -0.62363315 -0.06728939 -0.26632702 -0.08857218
0003d0 27 43 7c 3e 04 fe 15 be f7 9c e1 3e c3 3c 0f bc
       0.24634992 -0.1464768 0.44065067 -0.008742514
0003e0 5c 19 31 3e 6e 88 79 bf 81 c5 74 3f d1 e4 72 bf
       0.1729483 -0.974738 0.9561387 -0.94880396
0003f0 91 08 11 bf 1b 76 7a 3f be 67 60 3f be ad 45 3f
       -0.56653696 0.97836465 0.876583 0.77218235

network_body._body_endoder.seq_layers.0.bias f4 [64]
000000 ca cd e7 3c 6b e0 f9 3c 42 2f 64 3d 41 96 93 3d
       0.02829637 0.030502519 0.05570913 0.07206393
000010 fb 1e bf 3c 8f ad 92 3d d2 50 74 3d db 3c a4 bb
       0.023330202 0.0716201 0.05964739 -0.0050121373
000020 1e 2b cc 3d 50 25 45 bc 6c 0b 79 3b 1b 02 4e 3d
       0.099691615 -0.012032822 0.0038001193 0.050294977
000030 cb 4d 25 3d 0c 39 62 3d 65 58 bc b9 4a 1a 85 3d
       0.040357392 0.055230185 -0.00035924013 0.06499155
000040 74 57 70 3d d6 d0 d1 3c 6e ba 86 3d bd a5 f1 3c
       0.05867715 0.025612276 0.065785274 0.029497975
000050 3c c8 98 bc 89 a1 f7 bb 4c dc d3 3c ee 11 72 3d
       -0.018650167 -0.0075570983 0.025861882 0.05909913
000060 ac 8c 93 3c 78 79 a3 3c fc cd 98 3d 54 43 16 3d
       0.018011414 0.019955382 0.074611634 0.036685303
000070 c1 73 36 3d 9b b0 32 3d 71 e4 9b 3c 8d c8 48 3d
       0.044543985 0.043625455 0.019029828 0.049019385
000080 16 67 3b 3d 3b a7 08 3c 6d ea e8 3b b5 7c 07 bd
       0.045752607 0.008340652 0.007108024 -0.033077914
000090 3f 6d 66 3d 34 0c 78 3c d6 05 41 3d 9e 76 49 3d
       0.05625653 0.015139628 0.047124706 0.049185388
0000a0 df 5f 9f 3d 46 cc 21 bd d4 b8 d0 bc 24 4d 13 bd
       0.07781958 -0.03950145 -0.025478758 -0.03596224
0000b0 8d 6a 6c 3c 63 d8 60 bd 3d 57 08 bd ef a6 11 3d
       0.014429701 -0.054893862 -0.033286322 0.03555959
0000c0 ec b5 96 3c 22 f9 b6 3d ad 5d 9d 3c ad 37 67 3d
       0.018397294 0.08934237 0.019209707 0.05644958
0000d0 a5 b1 49 3d fa cd 1b 3d 49 5d da 3c a3 ed ca bb
       0.04924168 0.03803823 0.02665581 -0.0061928793
0000e0 dc d9 18 3d 10 7d 20 bc 2f 77 1c bd af 21 ba bc
       0.037317142 -0.009795442 -0.0381996 -0.02272114
0000f0 61 3d 75 3d c0 2f f5 3c 9b 10 01 3d ba 44 64 3d
       0.05987299 0.029929996 0.031509977 0.055729605

network_body._body_endoder.seq_layers.2.weight f4 [64, 64]
000000 d5 98 01 3a 5f 40 59 bd 63 4c 17 be ce d2 50 3d
       0.0004943733 -0.053039905 -0.14775233 0.05098229
000010 2a a3 8f 3d d8 70 91 bd 21 9e ce ba 76 56 54 3e
       0.07013543 -0.07101601 -0.0015763679 0.20736107
000020 da a2 17 3d eb 10 a0 3d f4 9d 2f 3e c6 92 0a be
       0.03702054 0.07815727 0.17150098 -0.13532552
000030 72 69 47 3e 46 59 33 bd 35 7f c2 bd e0 a1 0d bd
       0.19473818 -0.04378631 -0.09496919 -0.034578204
000040 f4 26 a5 bd 04 74 02 3e c0 04 05 be de e4 a2 3d
       -0.0806407 0.12739569 -0.12990093 0.07953809
000050 01 96 97 be f8 15 d0 3d e0 85 9c 3d 8f b5 b8 3d
       -0.2960663 0.1016044 0.07642722 0.090190046
000060 69 df 2c bb d3 d0 40 3e 1f 19 88 3d aa 1b 14 3e
       -0.002637828 0.1882966 0.066454165 0.14463678
000070 74 92 90 bd 0f 85 c7 3c c3 fa 23 3e 9f 74 0b 3e
       -0.07059184 0.02435544 0.16013627 0.13618706
000080 de 90 86 be e5 29 c4 3d ed b0 cc bd 42 9a 41 3e
       -0.262824 0.09578303 -0.099946834 0.18906501
000090 85 05 76 be 3b 31 29 3e 9a 50 da 3d 69 01 81 bd
       -0.24025543 0.16522686 0.10659905 -0.06299097
0000a0 a2 fd 49 3d 5b 97 78 be c3 d9 2c bd 0b 28 52 3e
       0.04931415 -0.24276488 -0.04219986 0.20523088
0000b0 08 ff 05 be e9 93 5e 3d b5 97 b2 bd 2a c8 e8 bc
       -0.13085568 0.054340277 -0.08720342 -0.028415758
0000c0 38 ad 2d 3e e0 3e b2 bd 1d 44 30 be de 05 94 3d
       0.16960609 -0.08703399 -0.17213483 0.072276816
0000d0 80 cb 42 bc 14 91 9b bc 22 89 2b 3e a0 84 a3 bc
       -0.0118893385 -0.018990077 0.16751531 -0.019960701
0000e0 c0 88 f9 3c 31 33 89 be d0 59 17 be 9d c5 72 bc
       0.030460715 -0.26796868 -0.14780354 -0.0148176225
0000f0 79 3a 8d bb 69 66 1c 3e 87 a4 fb bd 87 d1 fc bd
       -0.004309949 0.15273441 -0.122872405 -0.12344652
000100 7d 1b c0 3c e3 8b 07 bd f2 73 f0 3b b9 d9 0b bd
       0.023450607 -0.03309239 0.0073380405 -0.034143183
000110 42 ab c8 3d 4a 76 29 3c 99 2f 4e 3b b5 66 3e 3e
       0.0979829 0.010343144 0.0031461476 0.18593867
000120 08 da 14 3c 13 b2 d5 bd d6 9d 6c 3b 3a d2 1b 3e
       0.009085186 -0.104343556 0.003610482 0.15216914
000130 97 66 12 bc 8a 92 04 3e d6 1c 1b 3e ee 3a 7b bc
       -0.008935592 0.12946525 0.15147719 -0.015333874
000140 fa 77 7f be 3a 02 68 bd 1d 88 3e 3e 98 9b a9 3d
       -0.24948111 -0.05664275 0.1860661 0.0828163
000150 09 3b 5e 3d 67 43 a4 3c 36 11 4b 3e f1 06 50 3c
       0.05425552 0.020051671 0.19830784 0.012696967
000160 33 9c a0 bd 45 7b 53 3e 12 6d e9 bc 91 12 d2 bd
       -0.07842293 0.20652492 -0.028494392 -0.102574475
000170 99 03 57 3e 70 0e 8e 3d ae cd 97 bc 60 70 38 3d
       0.20997466 0.069363475 -0.018530693 0.045029044
000180 7d 72 04 3e 22 26 4c be 7f d4 a4 3d f6 14 1a be
       0.12934299 -0.19936422 0.08048343 -0.15047058
000190 9c 21 5d 3e 51 9b 78 3e 10 40 fb 3c b8 2f 9f 3d
       0.21594852 0.24277999 0.030670196 0.077727735
0001a0 cb 4b 27 bc 95 ce 6a 3c c4 f1 49 3e da 4a a5 3d
       -0.010210942 0.01433148 0.19721133 0.080709174
0001b0 e1 e0 76 3e 06 67 8d be 5d 28 2d bd bd 6b 0d be
       0.24109222 -0.27617663 -0.04227482 -0.1381063
0001c0 b4 9b 02 be d9 7e 57 be 77 77 46 3e 5f 1f d4 bd
       -0.12754709 -0.21044482 0.1938151 -0.10357546
0001d0 08 e8 98 be d1 32 b8 bb 07 d9 24 3e a3 c0 df bc
       -0.29864526 -0.005621292 0.16098414 -0.027313536
0001e0 0c 97 9a 3d 31 7d 08 3d 0a c5 ec bc e3 eb 05 be
       0.07548341 0.033322517 -0.02890255 -0.13078265
0001f0 64 38 99 3d 60 43 34 3e ac 59 c7 bd 4d 62 a8 3d
       0.07481459 0.17603827 -0.097339004 0.082218744
000200 e4 fe 1f 3e 66 d2 04 bd 2f ec db bd cf ec d2 3d
       0.15624577 -0.032427214 -0.10738408 0.10299074
000210 4a 34 b7 bd c2 fb 96 be 58 03 f9 3d de b8 70 bc
       -0.0894552 -0.2948895 0.12158841 -0.014692513
000220 f1 d2 17 be b2 4e aa bc c8 38 00 bd f7 5f 40 3e
       -0.14826562 -0.020789478 -0.03130415 0.18786608
000230 e6 a0 00 3e 37 e9 f7 3d 40 e6 29 b8 0f 26 97 bc
       0.12561378 0.12105029 -4.0507177e-05 -0.018450765
000240 ff 4b 85 bd bf 4a af 3b 71 a5 1b be 42 67 6c 3e
       -0.06508636 0.0053494866 -0.1519983 0.23086265
000250 85 04 12 be 53 c1 d8 3c 91 86 78 3e d5 73 32 bc
       -0.14259537 0.026459372 0.24270083 -0.010891874
000260 2e e5 2b 3d 58 a6 ba bc f2 86 ea bd a2 7c 9d 3d
       0.04196661 -0.022784397 -0.1145152 0.076897874
000270 fc d9 54 3e 16 a5 e1 3c dc 2e 85 3d c4 0e a2 bd
       0.2078628 0.02754454 0.06503078 -0.079129726
000280 1d 0a 11 3d 8e 86 15 bd c4 df 0c 3d 2d 5b 85 3d
       0.035410035 -0.036505274 0.034393087 0.06511531
000290 52 b8 38 bd 48 f4 cf 3d 8f 60 20 3e ac 7a db 3e
       -0.045097657 0.10154015 0.15661834 0.4286703
0002a0 eb 0d 68 3d 9f 86 b0 3c 42 5c ad 3c e3 5c 20 be
       0.0566539 0.021548567 0.021162156 -0.15660433
0002b0 e7 de 27 3e b0 44 25 3c 5d b6 02 bd cf 29 c7 3d
       0.16393624 0.010087177 -0.031912196 0.09724771
0002c0 45 eb 7d 3e b0 90 00 3e 07 9d 71 be 7c 2c dc 3d
       0.2479678 0.12555194 -0.23595057 0.10750672
0002d0 78 9d ca 3d 63 4a eb bc 5e dd 4b 3d e4 12 e5 3d
       0.09893316 -0.028721994 0.04977166 0.11185244
0002e0 49 e4 43 3d 2e 1e f1 bd bc c4 5e 3d 07 ad ab bd
       0.04782513 -0.117733344 0.05438684 -0.08382612
0002f0 38 bd 5b 3e 7b 96 dd bd 64 13 e2 3b 22 5a 18 be
       0.214589 -0.108197175 0.006899284 -0.14878133
000300 3e e6 2c bc 4a fe 90 3c 25 5d e1 bd b3 e4 6f 3e
       -0.010552941 0.01769938 -0.11004094 0.23427086
000310 55 2d f5 bd bc 11 34 bd b5 5a 83 3e 90 63 2b be
       -0.11971537 -0.043962225 0.2565514 -0.16737199
000320 1a 04 72 3c 8b 45 07 3d df ef bd 3b 5e 42 46 3e
       0.014771486 0.033025306 0.005796417 0.19361255
000330 2f ce 01 bd cc 63 0c 3e 34 f7 3f bd 4f 6e 5a bd
       -0.031690773 0.13709944 -0.04686661 -0.053327855
000340 02 c2 39 3d a9 4f a3 bc b5 0c 07 3e 87 30 ac be
       0.045351036 -0.019935446 0.13188441 -0.33630773
000350 c1 cd 0e 3d 35 2a 66 3d aa 10 b1 3e aa 27 e6 bd
       0.03486419 0.056192596 0.34583026 -0.11238034
000360 14 99 d6 3d 16 56 41 be be 25 23 bd df 49 9f be
       0.10478416 -0.18880495 -0.039830916 -0.31111047
000370 4c fe b4 3d 20 7d f3 bd 9a e1 0b 3e c9 1f b0 3c
       0.08837566 -0.118891 0.13660279 0.021499531
000380 59 a5 4e 3c dd 62 98 3e 6a 12 89 bd a5 37 63 bd
       0.012612664 0.29762927 -0.06692965 -0.05547299
000390 2c 58 93 bd ae dc 97 bd 2f 39 5c 3e 30 38 29 3e
       -0.07194552 -0.07415138 0.21506189 0.1652534
0003a0 7d 36 33 3e 79 4f 1a be a6 00 47 bd de 29 9c bd
       0.17501254 -0.15069379 -0.048584603 -0.07625173
0003b0 88 75 4d 3d 25 dd a8 bd 0c ba cd 3a 33 77 18 3d
       0.050160915 -0.08245305 0.0015695705 0.037223052
0003c0 2b ca cf 3d 5b 03 c1 3e 78 f0 28 3d 1a a8 3b bd
       0.10145982 0.37697873 0.041244954 -0.04581461
0003d0 cd 9b 7e 3e bb 37 3d 3e 24 a3 20 bc d2 27 d5 3d
       0.24864121 0.1847829 -0.009804521 0.10407986
0003e0 8d df c3 3d ef f6 41 bc db 95 c2 bd ab eb a2 3d
       0.09564123 -0.011838659 -0.09501239 0.07955106
0003f0 3b 99 c7 bd 8e 34 9c 3a c6 8a 1a bd 0b 8a 73 3d
       -0.09746023 0.0011917518 -0.03773 0.05945782

network_body._body_endoder.seq_layers.2.bias f4 [64]
000000 15 33 5d bc 32 5f e6 3c 11 f8 65 3d 10 31 14 3c
       -0.013500948 0.028121565 0.056144778 0.009044901
000010 6c 3b bc bc 30 6e 0f 3d 58 3b 51 3d 0e c3 50 3d
       -0.022977553 0.035017192 0.051081985 0.05096727
000020 a2 aa 30 bc 06 46 13 bd a4 91 fc 3c 0e 2f b8 bc
       -0.0107828695 -0.03595545 0.030831166 -0.022483375
000030 45 88 19 3d 92 81 21 3c 57 52 03 3d 4a 63 05 3d
       0.037483472 0.009857552 0.032060947 0.032565393
000040 e9 6d b4 3b 11 42 6a 3d 99 5d 2d 3d 40 72 51 3d
       0.0055062664 0.057191912 0.04232559 0.051134348
000050 51 c7 89 3c 46 4d 20 3d 5d 1b 80 3c 18 9f d9 3b
       0.016818674 0.039136194 0.015638048 0.00664128
000060 fb 04 0a 3c 9f 00 e9 3c cd e1 85 bb 1a 98 45 3d
       0.008424039 0.028442679 -0.0040857554 0.04824076
000070 b4 17 54 3d 56 7d 55 bb fc d6 56 3d c6 05 23 3d
       0.051780418 -0.0032575927 0.05245112 0.039800428
000080 2f 81 e5 3b a3 60 b3 3c 5a 83 5f 3d 44 1a 3b 3c
       0.0070039253 0.021896666 0.054568626 0.011419836
000090 4f dd 18 3d 87 a8 ac 3c c7 ad 54 3d a0 91 45 3d
       0.03732043 0.021076454 0.05192354 0.048234582
0000a0 86 b2 cc bc 1a a4 46 3c ec de e4 3b a8 72 f6 3c
       -0.02498747 0.012124086 0.006984582 0.03008397
0000b0 2e b7 87 3d 5a 7b d7 bb 79 1a af 3c 18 6e 7f bc
       0.06626736 -0.006575984 0.021374928 -0.015590213
0000c0 3c 57 5a 3d 79 88 8a 3d 0b eb c7 3c bc b2 54 3d
       0.05330585 0.06764311 0.02440407 0.051928267
0000d0 55 26 b7 bb d2 3c 67 3c 21 ee e2 3c ea 91 27 3d
       -0.0055892863 0.014113622 0.02770144 0.04091064
0000e0 94 91 02 3b 3b 4b 42 3d fa 2f 71 3d 03 98 65 3c
       0.0019923197 0.047435027 0.058883645 0.014013293
0000f0 c5 c1 eb bb 07 ce a7 3d 23 6d 9f 3c 1e ac 68 3d
       -0.00719473 0.081935935 0.01946122 0.05680477

action_model._continuous_distribution.log_sigma f4 [1, 2]
000000 6f bc 86 bc 71 55 05 bb
       -0.016447274 -0.0020345116

action_model._continuous_distribution.mu.weight f4 [2, 64]
000000 6d e2 93 3c a4 5f 87 bd 30 28 90 bb 45 cc 0d 3d
       0.018052304 -0.06610039 -0.004399322 0.034618635
000010 3b 0c 3f 3b 1c 7b 95 3c 14 0e a9 bd 53 e9 88 3d
       0.0029151577 0.01824718 -0.08254638 0.06685128
000020 92 ae 50 bc b1 9d 37 3d 0d a4 89 3d a0 98 04 3c
       -0.012736933 0.04482812 0.06720743 0.008093029
000030 7e c3 5d bc 79 41 d1 3c ef 34 ab bc ed 0a 57 3d
       -0.0135353785 0.025543915 -0.020899264 0.052500654
000040 61 29 0c 3d d1 18 23 3d 77 e8 d0 3d 36 cf 3e bd
       0.03421915 0.03981859 0.10200589 -0.04658433
000050 3e b4 bf bc 47 41 8b 39 c0 6a 94 bc 6b 70 15 bd
       -0.023401376 0.0002656078 -0.018117309 -0.036484163
000060 d8 59 35 bd f8 25 82 3d d6 8b a1 39 e1 e3 75 3d
       -0.044275135 0.06354898 0.000308125 0.060031775
000070 95 ef a2 bd bf ef 35 bc c8 5f 20 bd 97 ed a1 bd
       -0.07955853 -0.011104523 -0.039153844 -0.07906645
000080 ca 00 bd bc b5 8a fb bb 6a c4 66 3d a9 0a 3f bd
       -0.023071665 -0.0076764473 0.05633966 -0.046641026
000090 58 76 7f bd 0a b1 85 bd fe 41 c0 3d 59 4c ec 3c
       -0.06236872 -0.06527908 0.09387587 0.028845
0000a0 3d 0e 19 bd aa ed 9c 3d c5 f4 9e 3c fc 67 0b 3d
       -0.037367094 0.07662518 0.019403825 0.034034714
0000b0 f5 c0 db 3b f6 fd 54 bd 6f 4f 1d bd 4e cc eb bc
       0.006706352 -0.05200001 -0.038405832 -0.028783944
0000c0 5d 45 7b 3d da 9b a0 bd ce 8c 91 bd 4e 98 01 bd
       0.061345447 -0.07842226 -0.071069345 -0.03163939
0000d0 c1 7d 43 bc ab 0a 27 3d aa 0d 41 3d fa 57 60 3d
       -0.011931838 0.04078166 0.04713217 0.0547714
0000e0 ce 00 23 bc f6 da a4 bd 6b 38 c3 3d 78 4d 0c 3d
       -0.009948922 -0.08049576 0.09532245 0.034253567
0000f0 95 54 30 ba f9 0d 80 3d c5 74 15 bd 87 0b 61 bd
       -0.0006726471 0.06252665 -0.036488313 -0.054942634
000100 58 08 c2 bb fd 8e 2e 3d c8 8a b9 bd dd db 6b bd
       -0.005921405 0.042616833 -0.090596735 -0.057582725
000110 dd 0d 46 bc 9e 25 9e bd 2d 8b 60 bc 69 5c d7 3c
       -0.012088266 -0.07722019 -0.013705057 0.026289182
000120 a2 6f 0e 3d 2a 14 09 3d 85 3a 9e 3c 79 09 95 bc
       0.03477443 0.033466496 0.019315014 -0.018192993
000130 5d db 5e 3d d0 77 07 3d 37 fe 3b 3d 2f 12 40 bd
       0.05440842 0.033073246 0.045896735 -0.04689234
000140 91 46 ac bc e1 41 92 bd 17 aa a2 3c 44 3c c8 3d
       -0.021029742 -0.07141472 0.019856496 0.0977712
000150 39 b8 1f 3d 7d 52 38 bd 22 dc 03 bd 25 2b 2d 3d
       0.038994048 -0.045000542 -0.032192357 0.042277474
000160 5d d4 07 3d 17 2e 3f bd 6e 9f 3b bc d3 a0 75 3c
       0.03316151 -0.046674814 -0.011451585 0.014991957
000170 b4 2a 8e 3c 7d 5e 1b bd 1d 1a 8f bd 0d 21 8b bc
       0.017354347 -0.037931908 -0.069874026 -0.016983533
000180 e2 51 95 3c 53 19 2e bd 24 b5 91 bd 42 b1 f9 3c
       0.018227521 -0.04250462 -0.07114628 0.03048003
000190 3b 69 32 3d cb 3c b4 3b 03 66 c4 bc d2 e6 8a bd
       0.043557387 0.005500411 -0.023974424 -0.06782307
0001a0 aa e9 60 3d c8 d4 51 3d 01 02 c3 3c 0e 6c 94 3d
       0.05491034 0.051228315 0.023804666 0.07247172
0001b0 77 ee 9c bd f2 59 9c bc cf bc ee 3c cb be 7f bc
       -0.07662671 -0.019085858 0.029142765 -0.015609453
0001c0 ca 6e b0 bc 47 dc ad 3c 20 6b 2a bd f1 ff 80 3d
       -0.021537203 0.0212232 -0.04160607 0.06298817
0001d0 47 bc 0f 3d c3 dd 3a bd 5e 47 42 3d 78 bf 21 bd
       0.035091665 -0.045621645 0.047431342 -0.03948924
0001e0 72 5d 1e 3d dc c7 82 bd 5e 4c 3f 3d 84 76 88 bc
       0.038663335 -0.063857764 0.04670369 -0.016658075
0001f0 ec 2d e0 3c d0 a7 26 bd 9b 90 af 3c 67 92 82 3d
       0.027365647 -0.040687382 0.021431258 0.0637558

action_model._continuous_distribution.mu.bias f4 [2]
000000 e7 f6 c6 3a b7 1c 10 bc
       0.0015179784 -0.008795909

exp_avg f4 [64, 4]
000000 02 f7 82 3b 0d 32 06 b9 35 fb 5e 39 ee f3 d4 bb
       0.003996731 -0.00012797881 0.00021265152 -0.0064988052
000010 0e 60 f0 39 78 e5 2a b9 61 ec df b9 2f b1 c6 39
       0.00045847934 -0.00016297947 -0.0004270999 0.00037897515
000020 b9 1d 67 3b d0 e3 97 3a 4d c7 6c 3b a5 ae e6 39
       0.0035265519 0.0011588279 0.0036129535 0.0004399914
000030 4f 90 d6 3b 3e e6 0c 3a 8a 90 f1 3a 12 f3 a1 ba
       0.0065479646 0.0005374885 0.0018429917 -0.0012355766
000040 8a 98 0f bb 46 40 72 3a fb fd d7 3b f9 50 37 3b
       -0.0021910989 0.0009241145 0.006591556 0.0027971847
000050 ba 9a 2b 3c 2d ee f5 3a 71 fc 71 3b ef 11 73 3a
       0.010473901 0.0018762999 0.0036924148 0.00092723867
000060 d2 fd d1 3b 5a 3c 27 3a 2b cf 62 39 4d 8b 87 ba
       0.0064084316 0.00063795375 0.00021630216 -0.0010341197
000070 f0 4d e2 bb d5 3d 81 b9 cf 22 91 3a 2d f6 3d 3b
       -0.0069062635 -0.00024650866 0.0011072996 0.0028985844
000080 64 3e 91 ba 7b e9 8e 3a fc f6 eb 3b 60 61 ed 3b
       -0.0011081216 0.0010903323 0.0072010737 0.007244274
000090 61 98 20 bb b8 32 91 39 f8 73 4d 3b f7 0d 07 3b
       -0.0024504887 0.00027694344 0.003134964 0.002060769
0000a0 29 2e eb bb 25 6c f2 39 40 7a 96 3a 6d 27 ff 3b
       -0.0071771336 0.0004623841 0.0011480525 0.0077866823
0000b0 2a 1d d9 3b 2a 78 81 3a 76 2e 92 3a e0 69 97 3a
       0.006625791 0.0009877731 0.0011152762 0.0011551939
0000c0 4a bc ef 3a b3 2b d0 b9 83 95 fc 39 17 39 08 bb
       0.0018290367 -0.0003970541 0.0004817658 -0.0020785981
0000d0 11 17 24 3b 0f 77 07 ba 6f a1 30 3a c6 9f 48 bc
       0.0025038163 -0.00051675824 0.00067379227 -0.012245124
0000e0 3b 83 67 ba 78 73 0f b9 2c 4f 6f 3a f8 64 a1 ba
       -0.00088315055 -0.00013680558 0.0009128924 -0.0012313416
0000f0 fc 00 ae bb 83 56 de 39 42 d6 9a 3b 5a ab 0c 3b
       -0.005310176 0.00042407596 0.0047252486 0.0021464438
000100 09 16 11 3c 6e 02 a9 3a 92 d0 68 3b 7b b1 bc 3b
       0.008855351 0.0012894401 0.0035524708 0.005758462
000110 01 1a bc bb f6 5a 32 3a 4c ba a4 3b 26 a1 35 3b
       -0.0057404046 0.00068037154 0.005027091 0.002771446
000120 15 47 05 3a a8 b5 48 3a 69 2b 95 3b 7a b4 82 3b
       0.00050841394 0.00076564634 0.004552294 0.0039887996
000130 ba 40 4f 3b 81 98 19 b9 36 67 ee 39 5d 61 f4 bb
       0.0031624273 -0.00014648029 0.00045471796 -0.0074578957
000140 b2 c8 8f bb 27 9b 23 b9 8d 2e 4a ba 73 51 21 3b
       -0.0043879384 -0.0001560269 -0.0007712625 0.0024615198
000150 bf 58 4d 3a f3 48 fd 39 fd c0 db 39 fa c8 a6 39
       0.00078333536 0.00048310272 0.00041914723 0.00031811727
000160 b8 9b 0a 3a b2 04 26 b6 43 e6 f8 b9 ca 1f 0e bb
       0.0005287486 -2.473866e-06 -0.00047473804 -0.0021686428
000170 e6 d2 e3 bb d6 87 90 3a 73 b2 28 3c 84 03 22 3b
       -0.0069526313 0.001102681 0.010296452 0.0024721334
000180 bc 51 93 bb fa 5f f0 39 5e d9 2a 3b 0d 4a 9c 3b
       -0.0044958275 0.00045847875 0.0026069502 0.0047695697
000190 ef ab 8c 3b 99 eb 9c b9 f6 e8 4d 3b 77 f5 7b 3b
       0.004292957 -0.00029930173 0.0031419373 0.003844587
0001a0 df 26 0f 3c 27 e3 d0 3a bc ec 2a 3b 0f 0d cc ba
       0.008737295 0.0015936837 0.0026081046 -0.0015567857
0001b0 48 67 93 ba b4 39 9c 39 df 2d 8c b9 0a 1e f3 ba
       -0.001124599 0.0002979763 -0.00026737057 -0.0018548381
0001c0 36 4a 18 3b 97 56 63 3a 9e de 4b 3b 10 a1 a5 3a
       0.0023237593 0.00086722657 0.0031108032 0.0012636501
0001d0 1f 86 92 ba c0 60 53 3a be 26 01 3c ec d1 e0 3b
       -0.0011178887 0.0008063428 0.007882772 0.006860962
0001e0 11 0d 8c 3b 5d 7e b7 b9 74 c2 15 bb 96 72 35 bb
       0.0042740186 -0.00034998628 -0.0022851499 -0.0027686707
0001f0 a6 62 87 3b b4 8e 84 38 2b fa ed 3b 80 b9 2b 3c
       0.004131633 6.320831e-05 0.0072624884 0.010481238
000200 3d fb 04 3b 14 a3 f0 b8 10 ed 9b 3a 73 50 30 ba
       0.0020291351 -0.000114744675 0.0011896212 -0.0006725855
000210 6a ad 34 bb 61 35 15 3a fe b0 d8 38 e1 ba 38 ba
       -0.0027569183 0.0005691853 0.0001033265 -0.000704689
000220 42 87 72 3b 8d ec a3 b9 4f 2d 11 bb 1b 8e 84 bb
       0.003700689 -0.00031266027 -0.002215225 -0.0040452606
000230 76 9b b2 ba a7 58 79 38 14 a4 f7 b9 73 a3 86 ba
       -0.0013626653 5.944879e-05 -0.0004723376 -0.00102721
000240 39 31 3e 3b 41 ef cd b8 90 25 d5 3b f4 36 8c 3b
       0.0029021038 -9.819726e-05 0.006504722 0.004279012
000250 7b 6c 42 b9 ba d5 25 3a ec 0a fc 3a f9 13 fa 37
       -0.00018541694 0.0006326098 0.0019229329 2.9811623e-05
000260 26 61 0c 3c 63 a5 92 3a e1 2f e4 3a ef 33 89 3b
       0.008568084 0.0011188205 0.0017409289 0.004187099
000270 4c 32 3b 3a 44 46 65 39 60 76 90 3a 80 12 00 bc
       0.00071409787 0.00021865318 0.0011021607 -0.007816911
000280 b8 da 68 3a 3f 1e 73 39 d7 2a 8e b9 51 65 c1 bb
       0.0008882689 0.00023185553 -0.0002711627 -0.0059019704
000290 c1 81 87 3a e0 f5 a3 b8 f1 d0 dc b9 12 e5 d2 39
       0.0010338352 -7.8182435e-05 -0.00042117343 0.00040224992
0002a0 45 35 47 3b a3 e1 82 b9 5c e7 91 ba 19 94 93 3b
       0.0030396741 -0.00024963645 -0.0011131573 0.0045037386
0002b0 45 48 fa ba 7d 50 5b b9 e5 02 25 3a e0 a7 73 ba
       -0.0019095024 -0.00020915452 0.0006294682 -0.00092947297
0002c0 0a 19 1d 3a 70 23 9f b9 af 37 44 ba db 5b 06 bb
       0.0005992806 -0.00030353246 -0.0007485104 -0.0020501527
0002d0 ed f3 a2 ba 24 de 14 39 2c 5a 04 ba 65 2a 34 ba
       -0.0012432315 0.00014197134 -0.0005048837 -0.00068727724
0002e0 de 0d e3 b9 0a 5f f7 b7 cb a2 4e 3a 76 a4 17 3a
       -0.00043307146 -2.948895e-05 0.00078825344 0.00057846995
0002f0 fb eb cb 3b d5 85 4e 3a 7e 65 8b 3a 24 91 b0 ba
       0.0062231994 0.0007878219 0.0010635105 -0.001347099
000300 36 b0 9f 3a fd 87 20 3a eb be 01 3b 3c e7 bd ba
       0.0012183252 0.00061237795 0.0019797634 -0.0014488469
000310 b7 58 00 3c fa 61 c6 3a 2e c0 93 3a 18 6e 30 39
       0.007833651 0.00151354 0.0011272484 0.00016825681
000320 91 2d 19 3b 90 02 bd b6 30 99 aa 3b b6 6c d2 3b
       0.0023373107 -5.6329372e-06 0.0052062497 0.0064216508
000330 f6 ef 6b 3b d5 e7 9a 39 27 38 c4 b9 5b 99 47 bb
       0.0036001182 0.00029545897 -0.0003742587 -0.0030456397
000340 3b 06 d4 3b c7 35 98 3a 62 a8 cc 3a bc 38 41 3a
       0.0064704693 0.0011612707 0.0015614147 0.000737082
000350 d6 4b 15 bb 8e 47 e4 39 bc 93 64 3b 5e 42 dc 3a
       -0.0022780797 0.0004354086 0.0034878096 0.0016804447
000360 06 14 7f 3b a2 f5 e8 39 f6 80 95 ba 3e 0c d7 b9
       0.0038921847 0.000444335 -0.0011406231 -0.00041017117
000370 97 0d 34 3b 38 8b 3b b9 ab 35 4e 39 c2 d2 7e 38
       0.002747392 -0.00017885573 0.00019665684 6.0754603e-05
000380 ac 90 91 3b bd d7 1a 3a 1f 34 91 3a 58 73 78 3b
       0.004442295 0.00059067813 0.0011078155 0.0037910547
000390 5a 3c 3f 3a 07 fb 04 ba 98 e3 b8 ba 51 1d a5 ba
       0.0007295065 -0.00050728064 -0.0014105914 -0.0012597238
0003a0 10 f6 39 bb 07 9a cb 39 4b 19 8f b9 2d 4e ac 3b
       -0.0028375424 0.00038833937 -0.0002729393 0.0052583427
0003b0 82 cb 20 3b d8 e1 ba 39 e0 82 0c 3a d4 bf 15 3a
       0.0024535363 0.0003564495 0.0005360078 0.00057124835
0003c0 b8 49 5d 3b d4 6e e0 b9 2c dc 3a 3a 80 52 61 bb
       0.0033765864 -0.00042807183 0.0007128145 -0.003438145
0003d0 48 52 5e bb fe d8 15 3a fe b3 a1 3b 59 f5 c1 38
       -0.0033923555 0.0005716233 0.004934787 9.248657e-05
0003e0 19 22 db 3a fa 27 8e 3a ca 8d 5f 3b 65 c2 81 39
       0.0016718536 0.0010845654 0.0034111612 0.00024749633
0003f0 86 76 b7 bb 21 57 bb 39 62 8f b1 3b 61 1a b1 3b
       -0.005598846 0.00035732336 0.005418704 0.005404756

exp_avg_sq f4 [64, 4]
000000 f2 58 a5 39 72 c4 74 37 6d 95 a7 39 73 8d eb 39
       0.00031537522 1.4589272e-05 0.00031964053 0.0004492808
000010 ca d0 47 38 82 71 24 36 96 d1 86 38 94 52 17 38
       4.7639747e-05 2.4503975e-06 6.428656e-05 3.6078112e-05
000020 10 cd 55 39 d0 f3 0d 37 69 bd 30 39 57 0a cd 39
       0.00020389655 8.461022e-06 0.00016855229 0.0003910835
000030 a3 bc 46 39 c1 24 0b 37 bb 7c 5d 39 ef be 41 39
       0.00018953024 8.293603e-06 0.00021122668 0.00018477043
000040 ef 31 88 39 6d c8 41 37 d0 9b 98 39 52 e5 a2 39
       0.00025977145 1.1550362e-05 0.0002910779 0.00031069905
000050 e0 a9 ff 39 5d a8 b4 37 5c 97 07 3a 3b c9 d4 39
       0.00048763957 2.1536072e-05 0.00051723956 0.0004058572
000060 0c 12 4b 39 cc 14 09 37 7c 80 3f 39 46 9d 6c 39
       0.00019366312 8.1706785e-06 0.00018263044 0.00022565303
000070 ee f0 32 39 a3 db ed 36 8d dc 2f 39 61 37 a6 39
       0.00017065156 7.0887195e-06 0.00016771462 0.00031703248
000080 e2 80 21 39 d8 05 e7 36 d7 36 5d 39 1a 2d 21 39
       0.00015402169 6.885017e-06 0.00021096632 0.00015370958
000090 0a f1 8b 38 2f a5 56 36 c5 82 b2 38 1b 36 b7 38
       6.6729335e-05 3.1984634e-06 8.512059e-05 8.736198e-05
0000a0 be a7 a7 38 0f 72 76 36 0a fe ac 38 b0 55 3c 39
       7.994425e-05 3.6723247e-06 8.2489176e-05 0.00017960998
0000b0 d1 33 12 39 02 d0 99 36 57 8a c5 38 f8 c1 13 39
       0.00013942948 4.5839706e-06 9.41946e-05 0.00014091271
0000c0 cc 24 bd 38 70 ce 7f 36 f5 c9 b9 38 e8 02 13 39
       9.019076e-05 3.8118123e-06 8.859105e-05 0.00014020095
0000d0 24 83 f3 38 27 39 aa 36 4a d3 b8 38 a7 2b 81 39
       0.0001161157 5.073048e-06 8.8131594e-05 0.0002463732
0000e0 de 6d 22 38 b0 ac d1 35 02 4a 2d 38 57 ec 94 38
       3.872613e-05 1.5621972e-06 4.131534e-05 7.101212e-05
0000f0 1c 18 54 39 f3 50 08 37 47 47 31 39 f5 c3 94 39
       0.00020226877 8.125079e-06 0.00016906588 0.0002837476
000100 b7 4d ff 39 44 78 aa 37 57 44 f9 39 2c b7 2d 3a
       0.00048695292 2.0321582e-05 0.00047543898 0.0006626721
000110 5b 50 23 39 e5 d7 ff 36 96 1e 42 39 26 57 a8 39
       0.00015574826 7.6247256e-06 0.00018512676 0.00032108388
000120 ae 02 6d 38 53 90 26 36 4f 2e 91 38 82 89 ad 38
       5.65077e-05 2.4819935e-06 6.9227644e-05 8.274896e-05
000130 33 db 13 39 9c 64 e4 36 8c 43 3d 39 9a f4 47 39
       0.0001410067 6.806642e-06 0.00018049608 0.0001906924
000140 49 6e 97 38 7b 90 21 36 2d 8f 6b 38 3f 8c 8f 38
       7.220783e-05 2.4074968e-06 5.616171e-05 6.844894e-05
000150 89 be da 37 38 0e 7c 35 38 88 b2 37 5f 9f 63 37
       2.607635e-05 9.3898007e-07 2.1282685e-05 1.3567361e-05
000160 5d 49 bb 38 42 80 58 36 bb 33 7a 38 90 dd dd 38
       8.93052e-05 3.2261164e-06 5.9652823e-05 0.000105793704
000170 b0 6e a1 39 bf ae 6a 37 11 4e cc 39 0b 38 dd 39
       0.00030790782 1.3988173e-05 0.00038968076 0.0004219416
000180 d6 8d f0 38 eb f4 bb 36 e5 6f 05 39 24 6f 80 39
       0.00011470511 5.6015465e-06 0.00012725552 0.0002449687
000190 dd d2 7b 39 f8 e0 16 37 4e af 52 39 1c 1e 7b 39
       0.00024015778 8.993076e-06 0.00020092467 0.00023948442
0001a0 c4 6a f6 39 ca fb 97 37 ce 7c e1 39 7c 03 f8 39
       0.00047000323 1.8117851e-05 0.0004300833 0.00047304842
0001b0 fa af d6 38 da 21 b6 36 3d 34 15 39 95 78 19 39
       0.000102370934 5.4279635e-06 0.00014229208 0.00014636137
0001c0 e9 cb 31 38 56 f8 10 36 fd 2c 43 38 88 bf dc 38
       4.2389995e-05 2.1602223e-06 4.653352e-05 0.00010526093
0001d0 f6 dd 2e 39 39 e3 f3 36 e6 1c 3e 39 d4 09 1c 39
       0.0001667662 7.2684165e-06 0.00018130578 0.0001488098
0001e0 14 22 0f 39 cc ae c4 36 cd 79 1a 39 f0 47 45 39
       0.00013650238 5.861604e-06 0.00014731959 0.00018814183
0001f0 47 b1 b8 39 1c 35 6f 37 b5 6f ac 39 a7 0c 16 3a
       0.00035227297 1.4257876e-05 0.00032889625 0.0005723931
000200 aa 9d d5 38 85 54 a5 36 03 19 ee 38 ce 40 29 39
       0.00010185999 4.9272226e-06 0.00011353383 0.00016141238
000210 32 28 8d 39 2c 77 3a 37 96 7c 88 39 3c 94 d3 39
       0.00026923564 1.1114211e-05 0.00026032765 0.000403555
000220 9c 86 f0 38 96 38 b4 36 bf 1b 0d 39 fa 6d 26 39
       0.00011469165 5.3710055e-06 0.00013457144 0.00015871963
000230 d9 72 c2 37 d4 7a 48 35 ad e5 58 37 eb bd 03 38
       2.3180082e-05 7.4684544e-07 1.2928079e-05 3.140971e-05
000240 b6 16 9c 39 11 42 35 37 74 de 79 39 e5 a2 ac 39
       0.0002977156 1.0803823e-05 0.0002382936 0.00032927762
000250 19 a3 67 38 78 8d 01 36 19 8a 33 38 05 a6 15 38
       5.522659e-05 1.9304844e-06 4.280554e-05 3.5678986e-05
000260 a3 25 b3 39 30 c5 46 37 a7 99 8a 39 a6 a4 a6 39
       0.00034169582 1.1847631e-05 0.0002643589 0.0003178466
000270 6d 71 98 39 1b fd 5b 37 93 66 a3 39 0e d9 01 3a
       0.00029076208 1.3112348e-05 0.00031166206 0.0004953303
000280 e7 e5 5a 39 fb 4f 2e 37 a4 5f 92 39 a2 10 97 39
       0.00020875745 1.038983e-05 0.00027918548 0.00028813357
000290 1f 43 31 37 a1 70 01 35 24 36 4a 37 a6 11 ba 37
       1.056565e-05 4.822014e-07 1.2052744e-05 2.2181146e-05
0002a0 96 02 90 38 f2 bd 2e 36 88 4d 7a 38 11 c7 4d 38
       6.866937e-05 2.6038583e-06 5.967685e-05 4.9061204e-05
0002b0 58 16 7b 37 51 77 21 35 9a 28 8a 37 a5 ae af 37
       1.4965968e-05 6.01508e-07 1.6469789e-05 2.094295e-05
0002c0 06 14 e1 38 4a 70 91 36 8b a2 a4 38 1f ef 2e 39
       0.00010732566 4.334409e-06 7.8504054e-05 0.00016683013
0002d0 1f 2e bf 37 e5 e8 6b 35 5e 79 97 37 e4 80 19 38
       2.2790451e-05 8.788323e-07 1.8057119e-05 3.659808e-05
0002e0 33 f8 fc 36 68 c4 87 34 78 e8 d8 36 9f 94 85 37
       7.5390794e-06 2.5288614e-07 6.4643646e-06 1.5924043e-05
0002f0 94 cb 92 39 3e 43 3b 37 fa 64 82 39 dd cb fc 39
       0.00027998968 1.1161725e-05 0.00024870766 0.00048217076
000300 d5 cc 30 38 07 b8 df 35 86 e5 f2 37 3c 89 64 38
       4.2152435e-05 1.6668354e-06 2.8955528e-05 5.4487246e-05
000310 e1 1d ac 39 fc f2 59 37 58 19 a1 39 0e 5e b3 39
       0.00032828658 1.2990782e-05 0.00030727196 0.00034211617
000320 53 79 30 39 f9 c1 d6 36 be a7 1a 39 df c2 41 39
       0.00016829865 6.4002784e-06 0.00014749073 0.0001847851
000330 c0 66 d0 38 5d 13 97 36 2b bd 02 39 20 d6 cc 38
       9.9373516e-05 4.502405e-06 0.00012468237 9.767362e-05
000340 0f be ad 39 57 42 5d 37 40 a8 a1 39 c1 33 e5 39
       0.00033138736 1.3188072e-05 0.0003083367 0.00043716843
000350 0f 32 8a 38 71 ee 84 36 25 e3 ec 38 d2 c0 3c 39
       6.589677e-05 3.961665e-06 0.00011295666 0.00018000908
000360 85 59 4a 38 bf 3d 1a 36 79 35 5b 38 dd d3 6d 38
       4.8243925e-05 2.298373e-06 5.226347e-05 5.6702516e-05
000370 5b 99 86 38 2e 80 35 36 39 85 8a 38 f9 ba de 38
       6.4181826e-05 2.7045712e-06 6.6051674e-05 0.00010620611
000380 3e 80 1a 39 85 36 bc 36 f4 31 13 39 11 cf 28 39
       0.00014734358 5.6091835e-06 0.00014037621 0.00016098867
000390 c2 f7 d2 38 86 f6 8c 36 cd ae f4 38 c5 e1 82 39
       0.00010059729 4.2010242e-06 0.00011667386 0.00024963744
0003a0 77 6e d4 38 68 f8 92 36 85 93 ef 38 33 52 3c 39
       0.000101295234 4.3800574e-06 0.00011423886 0.00017959699
0003b0 e1 f1 5d 38 76 0e 1c 36 3a 39 52 38 52 91 8f 38
       5.2915773e-05 2.3254229e-06 5.0121198e-05 6.8458394e-05
0003c0 13 fc 42 39 23 77 cf 36 d3 d5 f7 38 31 a4 32 39
       0.00018595187 6.18295e-06 0.00011817706 0.00017036569
0003d0 e5 49 e4 38 ea f1 a2 36 e3 2c 02 39 03 0f 14 39
       0.00010885651 4.8561387e-06 0.00012414488 0.00014119972
0003e0 08 42 12 39 e4 16 d2 36 b3 db 3d 39 0d 05 25 39
       0.00013948244 6.2611525e-06 0.00018106289 0.00015737508
0003f0 dc ac f8 39 f2 51 b2 37 ed 60 fc 39 d3 73 2f 3a
       0.00047431036 2.1257412e-05 0.000481374 0.00066929794

exp_avg f4 [64]
000000 16 32 86 b9 78 e5 aa b9 d0 e3 17 3b 3e e6 8c 3a
       -0.0002559579 -0.00032595894 0.0023176558 0.001074977
000010 46 40 f2 3a 2b ee 75 3b 5b 3c a7 3a d3 3d 01 ba
       0.001848229 0.0037525992 0.0012759076 -0.0004930172
000020 7c e9 0e 3b b9 32 11 3a 27 6c 72 3a 2b 78 01 3b
       0.0021806648 0.00055388693 0.00092476833 0.0019755464
000030 b3 2b 50 ba 0e 77 87 ba 7e 73 8f b9 81 56 5e 3a
       -0.0007941082 -0.0010335164 -0.00027361134 0.0008481518
000040 6e 02 29 3b f5 5a b2 3a a9 b5 c8 3a 81 98 99 b9
       0.0025788802 0.001360743 0.0015312928 -0.00029296058
000050 28 9b a3 b9 f3 48 7d 3a 92 04 a6 b6 d6 87 10 3b
       -0.00031205383 0.00096620544 -4.9477176e-06 0.002205362
000060 fb 5f 70 3a 98 eb 1c ba 27 e3 50 3b b4 39 1c 3a
       0.00091695756 -0.0005986034 0.0031873675 0.0005959526
000070 95 56 e3 3a c1 60 d3 3a 5f 7e 37 ba a2 8e 04 39
       0.0017344529 0.0016126857 -0.0006999727 0.00012641636
000080 0e a3 70 b9 61 35 95 3a 8f ec 23 ba ab 58 f9 38
       -0.00022948926 0.0011383706 -0.00062532065 0.00011889761
000090 44 ef 4d b9 ba d5 a5 3a 62 a5 12 3b 40 46 e5 39
       -0.00019639457 0.0012652196 0.0022376408 0.00043730624
0000a0 47 1e f3 39 e2 f5 23 b9 a4 e1 02 ba 7d 50 db b9
       0.0004637113 -0.0001563649 -0.00049927295 -0.00041830904
0000b0 6f 23 1f ba 26 de 94 39 0a 5f 77 b8 d5 85 ce 3a
       -0.00060706487 0.00028394273 -5.89779e-05 0.0015756438
0000c0 fd 87 a0 3a fc 61 46 3b 3a 03 3d b7 d5 e7 1a 3a
       0.0012247559 0.0030270806 -1.1266029e-05 0.00059091795
0000d0 c8 35 18 3b 91 47 64 3a a4 f5 68 3a 39 8b bb b9
       0.0023225415 0.0008708174 0.0008886701 -0.00035771148
0000e0 bd d7 9a 3a 06 fb 84 ba 07 9a 4b 3a d7 e1 3a 3a
       0.0011813563 -0.0010145612 0.00077667873 0.00071289897
0000f0 d3 6e 60 ba fd d8 95 3a f9 27 0e 3b 26 57 3b 3a
       -0.0008561436 0.0011432465 0.0021691306 0.000714647

exp_avg_sq f4 [64]
000000 71 c4 74 38 82 71 24 37 cf f3 0d 38 c2 24 0b 38
       5.8357084e-05 9.80159e-06 3.3844084e-05 3.3174416e-05
000010 6d c8 41 38 5e a8 b4 38 cb 14 09 38 a5 db ed 37
       4.6201447e-05 8.61443e-05 3.268271e-05 2.8354882e-05
000020 d9 05 e7 37 2d a5 56 37 0f 72 76 37 00 d0 99 37
       2.7540069e-05 1.2793852e-05 1.4689299e-05 1.8335879e-05
000030 6e ce 7f 37 28 39 aa 37 b0 ac d1 36 f3 50 08 38
       1.5247248e-05 2.0292195e-05 6.248789e-06 3.2500317e-05
000040 44 78 aa 38 e9 d7 ff 37 54 90 26 37 9c 64 e4 37
       8.128633e-05 3.049891e-05 9.927975e-06 2.7226568e-05
000050 7c 90 21 37 3a 0e 7c 36 42 80 58 37 be ae 6a 38
       9.629988e-06 3.7559207e-06 1.2904466e-05 5.595269e-05
000060 f0 f4 bb 37 f9 e0 16 38 cc fb 97 38 d8 21 b6 37
       2.2406195e-05 3.597231e-05 7.247142e-05 2.171185e-05
000070 56 f8 10 37 39 e3 f3 37 ca ae c4 37 1d 35 6f 38
       8.640889e-06 2.9073666e-05 2.3446413e-05 5.7031506e-05
000080 86 54 a5 37 2a 77 3a 38 97 38 b4 37 d6 7a 48 36
       1.9708892e-05 4.4456836e-05 2.1484024e-05 2.9873822e-06
000090 12 42 35 38 79 8d 01 37 2f c5 46 38 1b fd 5b 38
       4.3215296e-05 7.721938e-06 4.739052e-05 5.244939e-05
0000a0 fb 4f 2e 38 a1 70 01 36 f4 bd 2e 37 52 77 21 36
       4.155932e-05 1.9288057e-06 1.0415435e-05 2.4060323e-06
0000b0 49 70 91 37 e6 e8 6b 36 69 c4 87 35 3e 43 3b 38
       1.7337634e-05 3.5153294e-06 1.0115447e-06 4.46469e-05
0000c0 06 b8 df 36 fe f2 59 38 fa c1 d6 37 5d 13 97 37
       6.667341e-06 5.1963136e-05 2.5601115e-05 1.800962e-05
0000d0 58 42 5d 38 71 ee 84 37 bf 3d 1a 37 2e 80 35 37
       5.2752293e-05 1.584666e-05 9.193492e-06 1.0818285e-05
0000e0 86 36 bc 37 86 f6 8c 37 68 f8 92 37 76 0e 1c 37
       2.2436736e-05 1.6804097e-05 1.752023e-05 9.3016915e-06
0000f0 25 77 cf 37 eb f1 a2 37 e5 16 d2 37 f2 51 b2 38
       2.4731804e-05 1.9424557e-05 2.5044612e-05 8.502965e-05

exp_avg f4 [64, 64]
000000 94 88 15 38 ad 2c e4 39 8c 5a 2f 3a 90 0b af 38
       3.5651567e-05 0.00043520835 0.0006689213 8.346804e-05
000010 49 d5 82 38 73 e2 71 3a 26 bd 94 39 68 9f 86 38
       6.2386105e-05 0.0009227164 0.00028369686 6.41931e-05
000020 44 05 09 39 bb 69 26 b9 0f fc 97 38 86 9e a3 39
       0.000130673 -0.00015870381 7.247191e-05 0.00031207892
000030 1c 18 b7 37 b4 ea fe 38 8d fe ae 39 11 9c bb b8
       2.1826527e-05 0.00012155381 0.0003337752 -8.9459245e-05
000040 f9 50 6c 3a 64 0e 15 3a cf a6 35 39 f5 b3 fb 38
       0.00090147514 0.00056860433 0.00017323646 0.00012002132
000050 9b 8a 08 b6 e4 d9 9b 39 3c cd 96 39 7b 1b 91 b8
       -2.0346258e-06 0.00029726245 0.0002876314 -6.9192574e-05
000060 ca 5e 41 37 f8 55 98 39 60 95 f7 39 3b cc 9c 39
       1.1525766e-05 0.0002905575 0.00047222804 0.00029906802
000070 83 e9 dd 39 26 4d 9e 38 7d 7b a6 b8 23 f9 8e 36
       0.00042326385 7.548397e-05 -7.938498e-05 4.260933e-06
000080 8e 5e c8 39 fb 76 d8 39 a0 6b 1f b4 3e 30 57 39
       0.0003821742 0.00041287378 -1.4847183e-07 0.0002052197
000090 a0 c4 dd b8 a0 23 45 3a 41 04 00 3a a0 2a 1f 38
       -0.000105747255 0.0007520262 0.00048834464 3.794825e-05
0000a0 8b 0e b3 38 ec 35 90 39 34 f8 83 b8 ee 7e 14 39
       8.538094e-05 0.00027505995 -6.292798e-05 0.00014161665
0000b0 b8 31 50 39 c7 3c 90 39 eb 99 1d 3a 3c 07 35 39
       0.00019854947 0.00027511103 0.000601201 0.000172642
0000c0 3c 11 da 38 77 50 c7 39 4e f0 f4 b8 01 aa 08 39
       0.0001039826 0.0003801619 -0.00011679587 0.00013033302
0000d0 db 12 eb 39 0e 8b 88 39 a0 fc 88 3a f1 7e 22 3a
       0.0004483674 0.00026043545 0.0010451265 0.00061987253
0000e0 78 8c 14 39 c4 96 de b7 8e b9 5e b9 5b 56 31 3a
       0.00014166709 -2.6534668e-05 -0.00021240694 0.0006764882
0000f0 3d e6 07 39 b0 c6 f4 38 1d 9c e7 39 85 83 c0 b9
       0.00012960374 0.00011671835 0.00044176067 -0.00036719083
000100 04 68 e0 ba 01 ed 14 bb 74 2f f7 ba e8 4a d3 36
       -0.0017120843 -0.0022724273 -0.0018858747 6.2970103e-06
000110 94 26 a4 3a df d3 0e bb 83 10 e0 39 00 48 aa 3a
       0.0012523704 -0.0021793765 0.00042736912 0.0012991428
000120 c2 3e 33 3a 94 57 80 3b 45 06 b9 3a 7e f1 9d ba
       0.000683766 0.00391669 0.0014116248 -0.001205012
000130 ea dd 14 3a eb 42 d6 ba ca ba 33 39 da d0 76 3b
       0.000567882 -0.0016346847 0.00017140355 0.0037661106
000140 53 b9 4d bb e5 2a ad ba 22 64 63 39 d0 dc 64 39
       -0.003139098 -0.0013211636 0.0002168571 0.00021826033
000150 98 92 b8 3a 9d 27 2a ba fe ea b9 ba c6 c4 56 3b
       0.0014081774 -0.0006490888 -0.0014184413 0.0032771095
000160 4b 25 12 3b 23 56 ac ba 06 51 88 ba 81 81 57 ba
       0.002230006 -0.0013148229 -0.0010400123 -0.00082208967
000170 ba fb 31 39 fe 5c e2 39 30 88 26 3a 2f 09 bb 3a
       0.00016973811 0.00043175364 0.0006352691 0.0014269705
000180 64 2e be b9 f1 84 8e ba ad 0c a6 b9 8b 57 fa b9
       -0.00036274188 -0.001087336 -0.00031671431 -0.0004774894
000190 fc 67 af 39 cd 7d a3 ba 06 6b f3 ba cc b6 d5 b9
       0.00033456075 -0.0012473405 -0.0018571324 -0.0004076272
0001a0 5a 44 d8 b9 f3 ce 96 ba 10 1b 5f 38 d2 86 eb b9
       -0.00041249656 -0.0011505767 5.3192547e-05 -0.00044923142
0001b0 ae 69 93 ba 4f 7f 23 ba c4 4b e9 ba 08 51 03 ba
       -0.0011246705 -0.0006236927 -0.0017799069 -0.0005009328
0001c0 b2 08 11 ba 41 4e 7d ba 12 09 0a 3a 9b 28 8b 39
       -0.0005532607 -0.0009662845 0.0005265634 0.000265424
0001d0 2b 17 cd ba 85 24 10 39 97 c3 79 bb 91 a0 8e ba
       -0.0015647163 0.00013746515 -0.0038110965 -0.0010881593
0001e0 ef f0 c8 b9 5b 17 aa 38 66 76 3a 3b 7f 7e 11 bb
       -0.00038326482 8.110582e-05 0.0028451919 -0.0022200642
0001f0 77 30 ba ba 6f 22 8f 39 5f 8f c1 b8 cd df c2 3b
       -0.0014205117 0.0002730074 -9.229662e-05 0.0059470893
000200 2c 41 ae bb 99 2a bc 3b 1c a9 34 3a ed e9 a6 bb
       -0.0053178277 0.0057423827 0.00068916543 -0.005093804
000210 de 7b 4d 3a 12 25 36 3b e1 f0 9a b9 9e be 34 39
       0.0007838587 0.0027793092 -0.00029552638 0.00017237148
000220 a4 ed c3 39 14 46 57 3a ce 9d 46 3a b5 81 e4 3a
       0.00037370354 0.00082120416 0.00075766153 0.0017433675
000230 dd e7 cc ba 4c c3 48 b9 31 a4 a1 3a 55 a1 ae b9
       -0.0015633065 -0.0001914624 0.0012332258 -0.00033308068
000240 ee ea 9b 3b 23 11 42 3b ab 79 db 39 93 73 61 b9
       0.0047582304 0.0029612265 0.00041861585 -0.00021500727
000250 14 c2 18 ba c7 bc 0d 3b 18 2c 7f 3b 02 0d dd 39
       -0.000582726 0.0021627413 0.0038936194 0.00042162096
000260 61 66 5b b9 44 d3 82 3b 77 e9 19 3b e1 7d 67 3b
       -0.00020923607 0.00399247 0.0023485103 0.0035322832
000270 cb ea bb 3a 71 74 e3 3a 00 b9 35 bb 18 0e 49 3b
       0.0014336942 0.0017353428 -0.0027728677 0.0030678567
000280 c7 61 44 3b 0d 9c bb 3b 32 28 87 bb ff b9 25 3b
       0.0029965506 0.00572539 -0.0041246647 0.0025287864
000290 82 ec a3 b9 58 bb 9a 3b 33 13 2b 3b a4 7a 2f ba
       -0.00031265995 0.00472204 0.0026103973 -0.0006693995
0002a0 bf c7 c5 39 24 11 6e 3b a2 d9 2a 3a 0e 3e 3b 39
       0.0003772359 0.0036326135 0.0006517415 0.00017856827
0002b0 bc 4d 12 3b 54 f9 52 3b 20 ba 10 3a 75 33 06 3a
       0.0022324165 0.0032192068 0.0005520899 0.0005119362
0002c0 ec 62 b5 b7 f6 90 ea 3a 97 05 40 3a c4 ed 07 bb
       -2.1622945e-05 0.0017895985 0.00073250517 -0.0020741085
0002d0 5e b9 01 3b e8 8a 8d 3a d0 9f 9a 3b 6a 39 04 3c
       0.0019794325 0.0010798844 0.004718758 0.008070329
0002e0 3e 98 84 3a 40 78 c5 ba 33 06 af bb e1 bd c5 3a
       0.0010116172 -0.0015065745 -0.005341315 0.0015086496
0002f0 51 c1 de 3a 01 1c e4 39 46 26 15 3b 80 06 de ba
       0.0016994869 0.00043508413 0.0022758408 -0.0016939193
000300 e7 ec f6 ba 79 33 5e 3b bc 04 03 3a e2 ff f4 ba
       -0.0018838913 0.0033905192 0.0004997959 -0.0018691982
000310 b9 b0 18 b9 ee 1b d8 3a 1f dc 2d 39 b3 d0 e5 39
       -0.00014561684 0.0016487816 0.00016580567 0.00043833777
000320 72 ac 57 b9 f7 15 5a ba e0 f5 4e 3a 1c 82 b9 3a
       -0.00020568239 -0.0008319313 0.00078949146 0.0014153155
000330 1d fd cc b9 ce 74 ae 39 8f a9 e2 3a cb e0 50 ba
       -0.00039098496 0.00033274892 0.0017292964 -0.0007968067
000340 57 a8 63 3b 82 c1 22 3b d3 c1 c5 37 84 1a 3d b8
       0.003473779 0.0024834578 2.3574486e-05 -4.5085806e-05
000350 1d b3 22 b8 94 04 72 3a ab e0 24 3b 16 12 45 ba
       -3.8790622e-05 0.00092322496 0.0025158327 -0.00075176486
000360 1a 98 54 b9 96 13 20 3b 23 de b3 3a bc e7 f4 3a
       -0.00020274558 0.0024425737 0.0013722818 0.0018684785
000370 6a 9a 7f b5 36 0f 29 3a 0d 9b 91 ba 67 5a aa 3a
       -9.5219605e-07 0.0006449105 -0.0011108831 0.0012996913
000380 05 d9 ee 3a 2d 89 33 3b e9 f4 c4 ba fa d9 a8 3a
       0.0018222636 0.0027394996 -0.0015026602 0.0012882345
000390 ef a3 f9 b8 6b bf 73 3b c7 6e 03 3b e9 51 31 b9
       -0.0001190378 0.0037192951 0.0020055042 -0.0001691055
0003a0 63 f7 a1 39 11 f5 17 3b dd 62 15 3a 99 50 15 39
       0.0003089263 0.0023186842 0.00056986307 0.00014239772
0003b0 85 31 b9 3a 4a dc d2 3a eb c3 87 39 0a 1f 07 3a
       0.0014129138 0.001608738 0.00025895177 0.00051544665
0003c0 88 f9 56 39 ab 4e 94 3a 51 67 07 3a f6 fc 61 ba
       0.00020501588 0.0011314949 0.00051652367 -0.0008620763
0003d0 09 ba bc 3a de fa 94 3a 6b 95 75 3b 70 56 87 3b
       0.0014398705 0.0011366268 0.0037473093 0.004130177
0003e0 5b ca 31 3a 2a 10 11 ba 9e 70 1d bb 08 3f b1 3a
       0.00067821675 -0.00055337197 -0.0024023424 0.0013522813
0003f0 f8 2f b9 3a 79 51 0f 39 d2 49 37 3a dd 2e 07 bb
       0.0014128676 0.00013667894 0.0006991896 -0.0020627298
