RollerBall/results/RollerBall_v1/RollerBall.onnx (onnx, 76122 bytes, 7 tensors)

network_body._body_endoder.seq_layers.0.weight f4 [128, 8]
-0.13474828 -0.22001621 -0.14146568 -0.17852536 0.45151532 0.9102871 0.083265744 0.4211519
0.123017274 -0.3332925 -0.114509985 0.034407627 -0.49008036 0.2934831 -0.2213866 0.06396556
-0.6097753 -0.19202834 -0.61791277 -0.07194713 -0.777794 -0.6788276 0.24139927 -0.10479638
-0.25796777 0.41901797 0.23338751 0.20630956 -0.050362695 -0.21961187 0.15566401 0.114377216
0.029629529 0.07271868 -0.28143695 -0.20564564 -0.38767982 0.15871626 -0.37063 0.39443693
-0.13385035 0.018739713 -0.21769197 -0.18800491 -0.25679755 -0.43245554 0.045813993 0.3326935
-0.18392025 -0.24111608 -0.14774103 -0.37870517 0.252361 0.46461466 0.009180412 0.1997889
-0.2646831 0.4017787 -0.110798724 -0.083400264 0.52047503 0.19492492 -0.1123638 0.24301043
0.54675084 -0.1947746 0.0690259 -0.5343314 0.2288767 -0.029932126 -0.59358615 -0.32201004
-0.4288089 -0.36074433 -0.36158627 -0.5176625 -0.004516486 -0.5986885 0.15146223 -0.31393006
-0.31399027 0.1494206 -0.31512207 0.16853526 0.59861875 -0.09111432 0.2377609 0.44036448
0.4992159 -0.462232 -0.042341877 0.015951985 -0.15356533 0.102256015 -0.24396728 0.46813202
0.4953447 0.48943055 -0.5479345 -0.20831582 0.2482692 0.633507 0.7136399 0.6121405
0.007630393 -0.2281326 0.61984843 0.07868236 0.18101841 -0.34743318 -0.15703602 0.09409439
0.35103038 -0.022228707 -0.2991074 -0.2299203 -0.6124954 0.028685907 0.119526535 -0.33934182
-0.18636394 0.09663415 0.15780966 0.38192958 -0.25788146 -0.2866116 -0.42078605 -0.53948236
-0.43220037 -0.3291999 0.6053188 -0.06732679 0.1225516 0.2246403 0.7528654 0.22395928
0.1453002 0.39790764 -0.071181394 -0.7815958 0.40624505 -0.40355256 0.10801385 -0.16624159
0.32116395 -0.015596034 0.19061185 -0.22582938 0.16411299 0.054481074 0.17818694 -0.21381478
-0.54466236 0.16515267 -0.17661418 0.4868941 0.16503055 -0.11533342 -0.55370104 0.4547002
0.81902134 -0.6300009 0.5511798 -0.042189684 0.2432676 -0.3995517 0.089477584 -0.09816738
0.56866795 0.10555137 0.5731345 -0.3766144 0.3214424 0.30772442 0.41812602 0.72438043
-0.18205279 -0.5199756 0.16598788 0.33787316 -0.43018177 0.10440455 0.3409859 0.52041197
-0.007721414 0.15746637 0.3902007 0.100655496 -0.03672112 0.14569025 0.45438212 -0.043620534
0.22271588 -0.26724818 -0.30725786 -0.2751043 -0.03050296 -0.0586065 -0.5912743 -0.07700666
0.23191935 -0.38144815 0.45889467 0.36624545 0.09677556 0.01235832 0.23032016 -0.34564808
0.08046657 0.10224694 -0.016096575 -0.16947016 0.05668828 -0.022230756 -0.04526937 0.061815657
0.1461561 0.1471401 -0.11298467 0.35435712 -0.12540936 -0.29768425 0.2815936 -0.3637674
0.6776577 0.1886433 0.20852447 0.66845125 0.09265672 0.014915332 0.052833106 -0.29982805
0.091697544 0.23888364 0.323367 -0.03045664 -0.2840984 0.056863412 -0.3432031 0.20364588
-0.87995595 -0.39710182 0.10441303 -0.008675144 0.27601603 0.32138896 -0.01649378 0.30132595
-0.07505268 -0.10663659 0.13206966 -0.17436154 0.48589686 -0.8173727 0.07530631 0.2147539
00000000: 74fb 09be ee4b 61be 61dc 10be 5acf 36be
00000010: 042d e73e 9308 693f 3b87 aa3d 39a1 d73e
00000020: 7bf0 fb3d 51a5 aabe 3684 eabd 03ef 0c3d
00000030: d0eb fabe 6b43 963e 2bb3 62be 6000 833d
00000040: 3c1a 1cbf 14a3 44be 882f 1ebf 0459 93bd
00000050: 821d 47bf a5c7 2dbf 5f31 773e 7c9f d6bd
00000060: 5a14 84be 8689 d63e 23fd 6e3e d042 533e
00000070: 1d49 4ebd efe1 60be 6366 1f3e 9a3e ea3d
00000080: a0b9 f23c 88ed 943d 8118 90be c594 52be
00000090: f87d c6be 8486 223e 37c3 bdbe a3f3 c93e
000000a0: 1110 09be 0784 993c a5ea 5ebe 5c84 40be
000000b0: f87a 83be d06a ddbe 74a7 3b3d cd56 aa3e
000000c0: 9755 3cbe 22e7 76be 6d49 17be a5e5 c1be
000000d0: 7635 813e f9e1 ed3e 7069 163c 7695 4c3e
000000e0: 8b84 87be f0b5 cd3e 71ea e2bd c2cd aabd
000000f0: da3d 053f 669a 473e fe1e e6bd bad7 783e
00000100: ddf7 0b3f fe72 47be 735d 8d3d f1c9 08bf
00000110: a75e 6a3e 3834 f5bc 43f5 17bf 80de a4be
00000120: d78c dbbe 7bb3 b8be d621 b9be 8885 04bf
00000130: 08ff 93bb a643 19bf ea18 1b3e 71bb a0be
00000140: 55c3 a0be b701 193e ae57 a1be 8294 2c3e
00000150: 143f 193f 259a babd 9877 733e 7477 e13e
00000160: 3a99 ff3e aca9 ecbe ad6e 2dbd bdad 823c
00000170: 3b40 1dbe 9a6b d13d 8fd2 79be 00af ef3e
00000180: d29d fd3e a496 fa3e 6f45 0cbf be50 55be
00000190: 483a 7e3e 842d 223f 1bb1 363f 3db5 1c3f
000001a0: 6008 fa3b 989b 69be 63ae 1e3f 3824 a13d
000001b0: e45c 393e c3e2 b1be 0dce 20be 8fb4 c03d
000001c0: 41ba b33e fa18 b6bc 9b24 99be 3a70 6bbe
000001d0: 80cc 1cbf b5fe ea3c 54ca f43d 36be adbe
000001e0: 30d6 3ebe 20e8 c53d db98 213e 468c c33e
000001f0: 0a09 84be c1be 92be 4571 d7be 841b 0abf
00000200: 5e49 ddbe e48c a8be 2cf6 1a3f a1e2 89bd
00000210: 55fc fa3d 1b08 663e c9bb 403f 9555 653e
00000220: 93c9 143e 8dba cb3e 8dc7 91bd aa16 48bf
00000230: 5aff cf3e 719e cebe 5e36 dd3d 3c3b 2abe
00000240: 9a6f a43e 8286 7fbc c12f 433e d13f 67be
00000250: 3c0d 283e 8c27 5f3d a376 363e 43f2 5abe
00000260: fe6e 0bbf c81d 293e 59da 34be 2f4a f93e
00000270: c5fd 283e ee33 ecbd 5abf 0dbf 77ce e83e
00000280: 62ab 513f bd47 21bf 1f1a 0d3f 17cf 2cbd
00000290: 241b 793e 0a92 ccbe 0640 b73d fb0b c9bd
000002a0: 3994 113f 512b d83d f1b8 123f 9ad3 c0be
000002b0: 1994 a43e 0e8e 9d3e 9d14 d63e ff70 393f
000002c0: 0c6c 3abe 1f1d 05bf baf8 293e b6fd ac3e
000002d0: c940 dcbe 0dd2 d53d b495 ae3e b839 053f
000002e0: ea03 fdbb dd3e 213e 63c8 c73e 7824 ce3d
000002f0: e368 16bd d32f 153e c6a4 e83e 72ab 32bd
00000300: a20f 643e c1d4 88be e750 9dbe 79da 8cbe
00000310: 58e1 f9bc 5f0d 70bd c15d 17bf abb5 9dbd
00000320: 447c 6d3e 2c4d c3be 3ef4 ea3e 8684 bb3e
00000330: 4432 c63d 8d7a 4a3c 0cd9 6b3e c9f8 b0be
00000340: a8cb a43d d866 d13d f7dc 83bc 9689 2dbe
00000350: f831 683d 461d b6bc 606c 39bd 6a32 7d3d
00000360: f2a9 153e e5ab 163e 8264 e7bd 4c6e b53e
00000370: 506b 00be 126a 98be 092d 903e b83f babe
00000380: fa7a 2d3f b62b 413e 7087 553e 9f1f 2b3f
00000390: cec2 bd3d 705f 743c 8767 583d 1083 99be
000003a0: eccb bb3d ea9d 743e 5c90 a53e 3480 f9bc
000003b0: 5875 91be 9ce9 683d 51b8 afbe 8c88 503e
000003c0: cb44 61bf ee50 cbbe 80d6 d53d 3122 0ebc
000003d0: f951 8d3e 188d a43e f71d 87bc 6547 9a3e
000003e0: 38b5 99bd 4964 dabd 453d 073e d58b 32be
000003f0: 79c7 f83e 563f 51bf 323a 9a3d 72e8 5b3e

network_body._body_endoder.seq_layers.0.bias f4 [128]
0.06884616 0.0023024008 0.0052650175 0.0513963 -0.068770595 -0.04516554 -0.026899783 0.003389097
0.11155503 -0.040029194 0.07365952 0.053147282 0.022072017 0.05414322 0.017114183 0.02799035
0.011872861 -0.028561756 0.059024956 0.03794314 0.113084465 0.05072024 0.0148254465 -0.032023888
0.06935606 0.031578794 0.096302606 0.008494197 -0.142048 0.024717283 0.032478772 0.0017449323
-0.07054299 -0.012427111 0.057341527 0.022946192 0.017228296 0.060748577 0.023268927 0.124764524
0.031405833 -0.016611788 -0.041464932 0.024146758 0.018776312 -0.03275519 0.02149186 0.045763236
0.010275335 0.051612917 -0.08472574 0.014597946 0.07810622 0.036485225 0.109825835 0.07039054
0.029216882 -0.027768396 -0.04130634 0.04619634 0.119983345 -0.084768936 0.024212152 -0.0014125691
0.024533542 0.0010047064 -0.073548466 -0.07901901 -0.027653692 0.12914208 -0.010641401 -0.10013062
0.08539051 0.004297091 0.048690185 0.027494581 -0.01888842 -0.055816837 0.06508762 0.03087637
0.051114466 0.0006805596 -0.005199671 0.068724126 -0.01421539 0.02180756 0.03801796 -0.075407185
0.0030891367 -0.022534342 -0.033072602 0.04520227 0.033678453 0.06470214 0.04098467 0.030726919
0.040801175 0.018522043 -0.005456894 0.0681065 0.028216746 -0.054751366 0.10753765 -0.032377385
0.012165962 -0.033052184 0.017058535 0.02339239 0.004651562 -0.05121294 0.10776545 -0.05362194
-0.04391205 0.12400782 0.018443007 0.04798075 0.09746815 -0.079667956 -0.10894294 0.03155875
0.042521056 0.09960229 -0.020319618 -0.02416876 0.05759588 0.0030625 0.0053391173 0.032209903
00000000: 37ff 8c3d e0e3 163b 2b86 ac3b ed84 523d
00000010: 99d7 8cbd 80ff 38bd ef5c dcbc 9d1b 5e3b
00000020: f776 e43d a7f5 23bd cdda 963d f7b0 593d
00000030: 60d0 b43c 48c5 5d3d 0b33 8c3c 054c e53c
00000040: 6386 423c 58fa e9bc 27c4 713d 446a 1b3d
00000050: d498 e73d 07c0 4f3d 6ee6 723c 7b2b 03bd
00000060: 8d0a 8e3d c458 013d 4d3a c53d 3f2b 0b3c
00000070: 0875 11be e67b ca3c 7608 053d 36b6 e43a
00000080: d878 90bd 159b 4bbc f3de 6a3d a7f9 bb3c
00000090: 5b22 8d3c 80d3 783d 7a9e be3c 8b84 ff3d
000000a0: 67a3 003d 7215 88bc 22d7 29bd 6ccf c53c
000000b0: c8d0 993c 4e2a 06bd b20f b03c 3b72 3b3d
000000c0: e159 283c 1168 533d b084 adbd 392c 6f3c
000000d0: 27f6 9f3d 8871 153d 5eec e03d ea28 903d
000000e0: 3e58 ef3c 8c7a e3bc d630 29bd 6038 3d3d
000000f0: d4b9 f53d 569b adbd 9058 c63c f425 b9ba
00000100: 91fa c83c 5ab0 833a 94a0 96bd b8d4 a1bd
00000110: ff89 e2bc d23d 043e 4559 2ebc 4811 cdbd
00000120: 38e1 ae3d 9dce 8c3b 5c6f 473d 513c e13c
00000130: e3bb 9abc 32a0 64bd a84c 853d 71f0 fc3c
00000140: 675d 513d 9567 323a 0062 aabb 3cbf 8c3d
00000150: abe7 68bc c5a5 b23c b8b8 1b3d 156f 9abd
00000160: 1d73 4a3b f199 b8bc 2377 07bd 0426 393d
00000170: 6bf2 093d 8e82 843d 8bdf 273d 05b7 fb3c
00000180: 221f 273d 8abb 973c bfcf b2bb 6c7b 8b3d
00000190: ce26 e73c f842 60bd b33c dc3d 269e 04bd
000001a0: be53 473c ba61 07bd 57be 8b3c 66a1 bf3c
000001b0: 216c 983b a9c4 51bd 22b4 dc3d aea2 5bbd
000001c0: 1fdd 33bd d0f7 fd3d ca15 973c 7787 443d
000001d0: 629d c73d f428 a3bd 7a1d dfbd bf43 013d
000001e0: 8f2a 2e3d 49fc cb3d 5475 a6bc 90fd c5bc
000001f0: a8e9 6b3d 39b4 483b c3f3 ae3b 88ee 033d

network_body._body_endoder.seq_layers.2.weight f4 [128, 128]
0.08725571 0.030588783 0.028944956 -0.12532951 -0.012676195 0.06353868 -0.062180478 0.116099596
-0.088491686 0.09284551 0.08434299 -0.025458347 0.1467049 -0.07625491 -0.033144046 0.010604847
0.20011213 0.0335694 -0.018202348 0.071735665 -0.07267567 0.06153274 -0.048378598 0.08867728
-0.13175558 -0.030704347 -0.05673289 -0.045941252 0.029932443 0.059414327 0.17540294 0.09953078
0.09745831 0.10226371 0.15050106 0.18066768 0.13803859 0.08580701 -0.11593154 0.14875427
0.023279643 -0.12997569 -0.2445144 0.05328038 -0.120330945 -0.04727805 0.00021307918 -0.2239565
0.15443638 -0.088598184 0.04242792 -0.06715465 -0.096212365 -0.12576663 0.1870033 -0.04397711
0.20757668 0.148924 -0.0211744 -0.19464345 -0.09479955 -0.020210836 -0.12590744 0.11599657
0.018569145 -0.044009857 0.069569714 -0.08333628 -0.0798095 -0.0528609 0.024822636 0.003502441
0.053614113 0.015133212 0.1903503 -0.28270873 0.15375306 0.0069312644 -0.007059844 -0.12390024
0.014820415 -0.03411492 0.085102335 -0.055675425 -0.080343895 0.022837033 0.09745518 -0.043172285
0.101132505 -0.027858539 0.024849989 0.14893267 0.22861792 -0.16208622 0.10533446 0.036309093
0.16204359 0.012447147 0.07238238 0.107455574 -0.05550784 0.12831505 -0.069838434 -0.08431082
-0.04507647 0.09041902 0.17000811 0.09552333 -0.10712591 0.019395636 0.00024488755 -0.0091459965
-0.14981547 0.07259342 0.06359289 0.031524744 0.04726154 -0.067101285 -0.0012088611 -0.101500094
0.08645851 0.026974188 0.018595498 -0.08568072 -0.06130289 -0.09254518 0.08204124 -0.025337646
-0.18895663 0.049204428 -0.06465251 -0.013148303 0.14570567 0.067633085 -0.10773403 0.11880331
0.11077527 0.12328387 -0.2255987 -0.19705777 -0.032278314 0.020040696 0.1481125 0.16821226
0.14871302 0.024668224 -0.037284534 -0.045277994 -0.09520087 -0.025700204 -0.004674002 -0.16909851
-0.11536044 -0.13222136 0.013970093 -0.030166088 -0.10517103 0.014653876 0.11399808 0.057273865
-0.07034989 0.034770485 -0.02033796 -0.122752085 -0.069151506 -0.143182 -0.042552937 0.04057024
0.03304685 -0.15577318 -0.1741079 -0.11780927 0.17011042 0.17651716 -0.006776089 -0.019642144
-0.05371048 -0.049441542 -0.17572615 0.025471887 0.26223272 -0.09926489 -0.026822083 0.1402911
-0.057830326 0.15099186 0.056101162 0.107373364 0.022513816 -0.06405444 -0.12922499 0.17247462
0.025994744 0.1477534 -0.054489236 -0.027647598 0.045494787 0.09723348 -0.009175119 -0.2318703
0.28559008 -0.18398775 -0.22745915 -0.12401125 0.10695107 -0.018363805 0.08428884 -0.03372532
-0.19661489 0.11496363 -0.037761457 -0.020561703 0.13812873 -0.010687799 -0.16586696 0.10402481
0.048364203 -0.044180695 -0.0360184 -0.068927854 -0.066407785 0.082461156 -0.07162622 0.16143247
-0.035077896 -0.02378345 -0.06381142 0.12986194 0.04211289 -0.22702944 0.009480325 0.12043787
-0.1316935 0.069680706 -0.09375558 -0.047462855 0.0699955 -0.11551949 -0.017880857 -0.056905683
-0.02196959 -0.2008945 -0.19200596 0.126512 -0.051669143 -0.11093014 0.16034858 -0.14902195
-0.12129429 0.31725606 -0.17993863 0.006572375 -0.020443592 -0.1669396 0.01695786 0.05989836
00000000: 1fb3 b23d 5495 fa3c f91d ed3c 6156 00be
00000010: d1af 4fbc 9120 823d f5b0 7ebd a0c5 ed3d
00000020: 213b b5bd c925 be3d 04bc ac3d 068e d0bc
00000030: cf39 163e 892b 9cbd 0dc2 07bd f4bf 2d3c
00000040: 32ea 4c3e 1180 093d 171d 95bc 26ea 923d
00000050: fbd6 94bd c109 7c3d a328 46bd 6f9c b53d
00000060: efea 06be af87 fbbc bf60 68bd e52c 3cbd
00000070: e234 f53c 705c 733d d49c 333e cbd6 cb3d
00000080: 3998 c73d a36f d13d f31c 1a3e f300 393e
00000090: fd59 0d3e 96bb af3d 846d edbd 0a53 183e
000000a0: f3b4 be3c 5918 05be fc61 7abe 873c 5a3d
000000b0: 1270 f6bd a1a6 41bd 026e 5f39 da54 65be
000000c0: 9224 1e3e f772 b5bd e6c8 2d3d 6188 89bd
000000d0: fd0a c5bd f8c8 00be cb7d 3f3e 5821 34bd
000000e0: fb8e 543e 887f 183e ef75 adbc 9d50 47be
000000f0: 4426 c2bd 3291 a5bc e1ed 00be 9c8f ed3d
00000100: 521e 983c ae43 34bd 917a 8e3d 36ac aabd
00000110: 2a73 a3bd ac84 58bd d758 cb3c 3689 653b
00000120: 799a 5b3d 4bf1 773c 30eb 423e 33bf 90be
00000130: 7171 1d3e a91f e33b 4456 e7bb 69bf fdbd
00000140: 53d1 723c 16bc 0bbd 224a ae3d ea0b 64bd
00000150: 578b a4bd bb14 bb3c 9596 c73d 6cd5 30bd
00000160: 8f1e cf3d 9737 e4bc 3492 cb3c ce81 183e
00000170: d11a 6a3e eef9 25be 98b9 d73d d8b8 143d
00000180: c1ee 253e 1eef 4b3c 373d 943d ab11 dc3d
00000190: 305c 63bd 0565 033e 7407 8fbd 27ab acbd
000001a0: 1ba2 38bd 9b2d b93d 9b16 2e3e bca1 c33d
000001b0: d464 dbbd 99e3 9e3c 4064 8039 17d9 15bc
000001c0: 3a69 19be dcab 943d fd3c 823d 1720 013d
000001d0: 5195 413d 666c 89bd a672 9eba 48df cfbd
000001e0: 2911 b13d f9f8 dc3c 9655 983c 6079 afbd
000001f0: bd18 7bbd 5488 bdbd 3d05 a83d e590 cfbc
00000200: d97d 41be 958a 493d 8968 84bd fb6b 57bc
00000210: de33 153e 3783 8a3d a9a3 dcbd 264f f33d
00000220: 25de e23d 417c fc3d 5803 67be 83c9 49be
00000230: 4436 04bd 632c a43c ceaa 173e d63f 2c3e
00000240: 3a48 183e 0415 ca3c abb7 18bd 6b75 39bd
00000250: acf8 c2bd 3c89 d2bc 5f28 99bb 2928 2dbe
00000260: 1842 ecbd 0965 07be d1e2 643c df1e f7bc
00000270: e963 d7bd d016 703c d377 e93d 0098 6a3d
00000280: 9a13 90bd 7f6b 0e3d cb9b a6bc 7265 fbbd
00000290: 4e9f 8dbd 4d9e 12be fd4b 2ebd fb2c 263d
000002a0: 225c 073d 0183 1fbe 5749 32be fd45 f1bd
000002b0: 6d31 2e3e eac0 343e f409 debb 90e8 a0bc
000002c0: 85ff 5bbd 3783 4abd 8ef1 33be 6baa d03c
000002d0: 5e43 863e 644b cbbd fcb9 dbbc 78a8 0f3e
000002e0: 7edf 6cbd 9c9d 1a3e 55ca 653d 91e6 db3d
000002f0: e56e b83c f92e 83bd 8e53 04be 309d 303e
00000300: eef2 d43c ab4c 173e 1b30 5fbd 377d e2bc
00000310: be58 3a3d 5922 c73d 3d53 16bc 686f 6dbe
00000320: dd38 923e 4967 3cbe 0deb 68be 9cf9 fdbd
00000330: 2a09 db3d b16f 96bc a19f ac3d 9023 0abd
00000340: 6a55 49be 0d72 eb3d c2ab 1abd 0471 a8bc
00000350: 9e71 0d3e e11b 2fbc 07d9 29be f60a d53d
00000360: 8b19 463d d1f6 34bd 0888 13bd 0c2a 8dbd
00000370: ce00 88bd 65e1 a83d c5b0 92bd 8e4e 253e
00000380: d7ad 0fbd 82d5 c2bc 90af 82bd 87fa 043e
00000390: 917e 2c3d 687a 68be 5d53 1b3c 21a8 f63d
000003a0: a9da 06be c2b4 8e3d ed02 c0bd 6968 42bd
000003b0: cd59 8f3d 7b95 ecbd e07a 92bc ef15 69bd
000003c0: 92f9 b3bc 4ab7 4dbe 369d 44be 5d8c 013e
000003d0: 06a3 53bd 572f e3bd 6b32 243e 3699 18be
000003e0: 2469 f8bd 636f a23e d541 38be 145d d73b
000003f0: 5279 a7bc 37f2 2abe 36eb 8a3c fc57 753d

network_body._body_endoder.seq_layers.2.bias f4 [128]
0.008595303 0.042691495 0.08760431 0.012338588 0.10108087 -0.029559996 -0.030432256 0.03474157
-0.020907382 -0.02830782 0.031996798 -0.04739999 0.08910304 0.029438231 0.06137361 0.12019079
0.013368213 -0.022101155 0.097769186 0.08634301 -0.023606017 0.07563546 0.014124523 0.10687251
0.08791702 0.05559273 0.10195433 0.056852184 0.120897084 0.01163067 0.04969333 -0.009121466
0.030909298 0.04055123 0.076821685 -0.070426114 0.05220298 0.052086595 0.09966743 -0.011638118
-0.07089144 0.05367625 0.009946338 -0.02971216 0.027128013 0.082392454 0.06973484 0.0545869
0.04226307 0.022166979 -0.011435902 0.03437826 0.07607372 -0.013714782 0.0030086462 0.04095526
0.046938878 0.0039221793 -0.015742863 0.03017694 0.04144481 -0.028110694 0.0036019208 0.03977529
0.039133176 0.08277935 0.02234556 0.048756484 0.037569154 0.054718837 -0.00790999 -0.034652725
0.013340677 0.015577563 0.042852018 0.034997083 -0.0020316641 0.0016781109 0.015627708 -0.0031543027
0.038430735 0.027582277 -0.0014016931 0.026980722 0.03942395 -0.01453866 0.021153744 0.035977624
0.009417193 0.028037762 0.041667413 0.06230884 -0.014084489 -0.0088453265 0.04129466 0.054707345
0.03814869 0.04910457 -0.010777613 0.044911135 0.078647934 0.016147006 0.006903762 0.07058716
0.010060895 0.039010067 0.06296743 0.06472995 -0.04994248 -0.019229263 0.045604523 0.02992728
-0.01010147 0.05705724 0.02268599 -0.0030258715 0.05881506 0.055806685 0.083124034 -0.06445069
0.05632964 0.06871436 0.0059879706 -0.008364755 -0.03234579 0.02768882 0.005282044 0.11911307
00000000: 50d3 0c3c 47dd 2e3d e369 b33d ca27 4a3c
00000010: 7d03 cf3d ce27 f2bc 114d f9bc 2d4d 0e3d
00000020: f545 abbc cde5 e7bc 130f 033d 7e26 42bd
00000030: a87b b63d 7228 f13c e562 7b3d 9726 f63d
00000040: 5906 5b3c 7b0d b5bc 363b c83d 9bd4 b03d
00000050: 6861 c1bc c4e6 9a3d 8b6a 673c f9df da3d
00000060: d70d b43d 34b5 633d 6fcd d03d d6dd 683d
00000070: e498 f73d 918e 3e3c 3c8b 4b3d 3472 15bc
00000080: 7f35 fd3c 0c19 263d b054 9d3d 913b 90bd
00000090: cbd2 553d c158 553d 701e cc3d cead 3ebc
000000a0: 882f 91bd a1db 5b3d f7f5 223c ea66 f3bc
000000b0: 913b de3c 60bd a83d 24d1 8e3d 8396 5f3d
000000c0: 0a1c 2d3d 8697 b53c a65d 3bbc 38d0 0c3d
000000d0: 8acc 9b3d f7b3 60bc b52c 453b b4c0 273d
000000e0: fb42 403d a085 803b 2df7 80bc a135 f73c
000000f0: 08c2 293d 6648 e6bc 340e 6c3b 6aeb 223d
00000100: 1c4a 203d 3888 a93d 090e b73c e1b4 473d
00000110: 1de2 193d dc20 603d e798 01bc 04f0 0dbd
00000120: db92 5a3c 0939 7f3c 9985 2f3d 1a59 0f3d
00000130: ab25 05bb 0ff4 db3a ae05 803c 6bb8 4ebb
00000140: 8c69 1d3d 3af4 e13c 04b9 b7ba ad06 dd3c
00000150: 027b 213d 8f33 6ebc 9e4a ad3c 465d 133d
00000160: 924a 1a3c 73af e53c 73ab 2a3d 8e37 7f3d
00000170: a1c2 66bc fdeb 10bc 9724 293d cf14 603d
00000180: cd41 1c3d e021 493d 9694 30bc bdf4 373d
00000190: 2b12 a13d ba46 843c f438 e23b 0090 903d
000001a0: 74d6 243c 05c9 1f3d 11f5 803d 2391 843d
000001b0: 7c90 4cbd b086 9dbc cfcb 3a3d 0e2a f53c
000001c0: a380 25bc dab4 693d f8d7 b93c b34d 46bb
000001d0: 0fe8 703d 8d95 643d ef3c aa3d b9fe 83bd
000001e0: e9b9 663d 1dba 8c3d bd36 c43b 530c 09bc
000001f0: 057d 04bd aad3 e23c ff14 ad3b 8ef1 f33d

action_model._continuous_distribution.log_sigma f4 [1, 2]
-0.046381485 -0.11216314
00000000: 83fa 3dbd cab5 e5bd

action_model._continuous_distribution.mu.weight f4 [2, 128]
-0.028025417 0.06755225 0.017716276 0.00731677 0.03206812 0.006306472 0.0146696195 0.028692095
-0.025434455 -0.022946317 0.017372506 0.0007780331 0.067190155 0.038255744 0.04779416 0.089137934
-0.017873628 -0.056813415 0.08772675 0.052485973 -0.015110094 0.011380563 -0.0009436927 -0.05543681
0.04408425 0.029081492 0.06455382 0.018228702 0.05025236 -0.05314292 -0.010349876 0.028449353
-0.021480305 0.020870075 -0.06429107 -0.000798026 -0.11594185 0.08289777 0.027018966 0.005248946
-0.008179433 -0.0960559 0.017367518 -0.0072172033 -0.027452765 -0.10446368 0.0030823513 -0.093423426
-0.08663381 0.017726144 -0.06367907 0.0077825664 0.047362674 0.025376098 -0.0432039 -0.014515513
0.04444438 -0.0050451695 -0.046456795 -0.06005283 -0.01374698 -0.01043294 -0.06253563 0.032648064
-0.069468886 0.03494364 -0.027461605 -0.08461291 0.019092686 -0.1073101 -0.005784087 -0.018260825
0.032157667 -0.032505292 -0.0028159427 -0.061983496 -0.06694104 -0.025880884 -0.09057341 -0.052549113
-0.05884262 0.029835053 0.0025159898 0.0037050783 -0.07643482 -0.038845796 0.0364458 -0.008966458
-0.04036218 -0.1297457 0.05260048 0.028815394 -0.022310786 -0.053818755 0.032120228 0.0808347
-0.073129356 0.02709426 0.01704515 -0.046395514 0.08896262 0.025364088 -0.036370616 -0.11235527
-0.016398221 0.057043765 0.029166497 -0.045237597 -0.013573387 -0.011822238 0.008044183 0.043888878
0.017897706 0.07834301 -0.026449595 0.0079573225 0.04103914 0.07065641 0.07671837 -0.0032325203
0.06036121 -0.012760411 -0.028846527 -0.023923514 0.00075366447 -0.0047386843 -0.07902767 -0.033684902
-0.078516275 0.036951374 -0.060412485 -0.019620823 -0.039608695 0.019935498 0.021451859 0.017411092
0.013809612 -0.029916367 -0.07489514 0.03902515 0.019163286 0.010528852 0.0025018516 0.05869113
-0.07675648 0.01393941 0.017801844 0.017741445 0.039605785 0.13771649 -0.021577567 -0.12627009
-0.08832682 -0.020961829 0.03526027 -0.04363993 -0.08324831 -0.04082988 0.07088459 0.014102503
0.06485478 0.04551619 -0.0628547 -0.0032023457 0.017204115 -0.011251958 -0.09920026 -0.03532718
-0.0024219814 -0.05747847 0.052832946 -0.04817638 0.040981047 -0.036161575 -0.09459985 0.04805377
0.07873091 -0.012539363 -0.023342203 0.07537824 0.0954665 0.02977589 -0.042931534 -0.058051
0.0497963 -0.059055347 -0.013314928 0.047928087 0.07508379 0.0134729585 0.057216212 -0.00050726236
0.033347588 0.09097523 -0.053052943 0.06563945 0.022067279 0.023052828 0.0247748 0.0112420395
0.05352055 0.050747097 0.081184626 0.08719371 0.027901404 -0.012661044 0.065935954 0.051930416
-0.03179622 -0.01627449 -0.018460637 -0.03925726 -0.05883037 0.05887726 0.063630655 -0.06424151
-0.05244826 -0.048851803 0.022651514 -0.07469799 0.024654027 -0.0023176477 0.051732756 0.02003849
0.040468093 -0.06286458 0.019136474 -0.04558222 -0.05880928 0.020528622 0.028057134 0.04987565
-0.026526876 0.036605857 0.08525344 0.06595286 0.019794952 0.03907562 -0.021428494 -0.020455929
0.0220994 0.024166575 -0.025567215 -0.028114155 0.027727928 -0.0040005683 0.028534297 0.0019841935
0.005227495 -0.077012375 -0.019212473 -0.028128816 0.0157636 -0.07187799 -0.012183774 -0.1244423
00000000: 8f95 e5bc d658 8a3d b921 913c 84c1 ef3b
00000010: dc59 033d 85a6 ce3b d858 703c af0b eb3c
00000020: eb5b d0bc eaf9 bbbc c950 8e3c ebf4 4b3a
00000030: fe9a 893d 0eb2 1c3d cfc3 433d f38d b63d
00000040: b76b 92bc 2fb5 68bd 15aa b33d 88fb 563d
00000050: 5490 77bc 8a75 3a3c 2562 77ba b511 63bd
00000060: b091 343d 4f3c ee3c cb34 843d 5c54 953c
00000070: 6bd5 4d3d 64ac 59bd 8792 29bc 9e0e e93c
00000080: 77f7 afbc b8f7 aa3c 09ab 83bd 9e32 51ba
00000090: ec72 edbd 4ec6 a93d e156 dd3c 5aff ab3b
000000a0: 0703 06bc f5b8 c4bd 5346 8e3c 4a7e ecbb
000000b0: 9fe4 e0bc 0ef1 d5bd 4601 4a3b c854 bfbd
000000c0: 116d b1bd 6b36 913c 2c6a 82bd e604 ff3b
000000d0: 5dff 413d 89e1 cf3c 93f6 30bd 79d2 6dbc
000000e0: 4f0b 363d f351 a5bb 7b49 3ebd f5f9 75bd
000000f0: 033b 61bc ecee 2abc ae12 80bd fab9 053d
00000100: b445 8ebd 1021 0f3d 29f7 e0bc 8949 adbd
00000110: 4468 9c3c 66c5 dbbd 7088 bdbb ba97 95bc
00000120: c2b7 033d 4524 05bd ae8b 38bb 68e2 7dbd
00000130: 6218 89bd 2604 d4bc 8d7e b9bd bd3d 57bd
00000140: f604 71bd a468 f43c 4ee3 243b e6d0 723b
00000150: dc89 9cbd c51c 1fbd 3148 153d 0de8 12bc
00000160: d052 25bd 0fdc 04be 9a73 573d 430e ec3c
00000170: 1cc5 b6bc 0e71 5cbd 8090 033d aa8c a53d
00000180: d8c4 95bd c8f4 dd3c 45a2 8b3c 3909 3ebd
00000190: 0932 b63d 59c8 cf3c 5bf9 14bd 851a e6bd
000001a0: 9055 86bc b9a6 693d 94ee ee3c 0f4b 39bd
000001b0: e962 5ebc 0fb2 41bc c0cb 033c d3c4 333d
000001c0: 369e 923c 4d72 a03d d2ac d8bc 6e5f 023c
000001d0: a818 283d 4fb4 903d 851e 9d3d b1d8 53bb
000001e0: 513d 773d 0b11 51bc 8d4f ecbc 3ffb c3bc
000001f0: 9191 453a f746 9bbb 42d9 a1bd 2ef9 09bd
00000200: 24cd a0bd 535a 173d 1573 77bd d9bb a0bc
00000210: ba3c 22bd c54f a33c cfbb af3c b5a1 8e3c
00000220: b641 623c 2b13 f5bc a062 99bd d6d8 1f3d
00000230: 53fc 9c3c 3581 2c3c 1bf6 233b 1c66 703d
00000240: 8032 9dbd 2062 643c 2cd5 913c 8256 913c
00000250: ad39 223d 8d05 0d3e 70c3 b0bc f24c 01be
00000260: b1e4 b4bd 24b8 abbc 136d 103d c9bf 32bd
00000270: 177e aabd 3b3d 27bd f12b 913d 2f0e 673c
00000280: 95d2 843d 2f6f 3a3d f7b9 80bd 72de 51bb
00000290: a5ef 8c3c 225a 38bc 8229 cbbd 3cb3 10bd
000002a0: 1bba 1ebb 8b6e 6bbd 5c67 583d 9954 45bd
000002b0: bedb 273d 291e 14bd 91bd c1bd 08d4 443d
000002c0: ac3d a13d e671 4dbc 2638 bfbc e85f 9a3d
000002d0: f183 c33d 91ec f33c fad8 2fbd e3c6 6dbd
000002e0: 34f7 4b3d 05e4 71bd db26 5abc 3e50 443d
000002f0: 88c5 993d afbd 5c3c 8c5b 6a3d cdf9 04ba
00000300: 7b97 083d 3951 ba3d 0b4e 59bd fa6d 863d
00000310: 70c6 b43c 49d9 bc3c 85f4 ca3c 8830 383c
00000320: 5d38 5b3d 30dc 4f3d 2044 a63d 9e92 b23d
00000330: 7c91 e43c 4470 4fbc 6e09 873d fdb4 543d
00000340: c13c 02bd 1452 85bc c33a 97bc 38cc 20bd
00000350: 1df8 70bd 4829 713d ca50 823d 0e91 83bd
00000360: fdd3 56bd d418 48bd ab8f b93c 43fb 98bd
00000370: 3ef7 c93c ade3 17bb bae5 533d c227 a43c
00000380: dfc1 253d 25bf 80bd 18c4 9c3c 6cb4 3abd
00000390: 00e2 70bd a42b a83c 13d8 e53c 694a 4c3d
000003a0: e44e d9bc 06f0 153d 5b99 ae3d 4b12 873d
000003b0: 0629 a23c c20d 203d cf8a afbc 3193 a7bc
000003c0: cd09 b53c fbf8 c53c 5672 d1bc a84f e6bc
000003d0: ae25 e33c 3317 83bb c2c0 e93c 3e09 023b
000003e0: 684b ab3b aab8 9dbd 7a63 9dbc 676e e6bc
000003f0: aa22 813c c534 93bd 749e 47bc 9bdb febd

action_model._continuous_distribution.mu.bias f4 [2]
0.034971535 -0.014487646
00000000: 503e 0f3d 975d 6dbc
