RollerBall/results/RollerBall_v4/RollerBall/RollerBall-70008.pt (torch, 447900 bytes, 36 tensors)

network_body._body_endoder.seq_layers.0.weight f4 [128, 8]
0.09666965 -0.38811356 0.120947756 0.67044777 0.03635677 0.49113354 0.7271919 0.048346333
-0.6677307 -0.015487386 -0.048800573 0.35426128 0.015309279 0.3254795 0.3346318 -0.1825932
-0.59078246 0.5716363 -0.09787382 0.17894384 -0.2878544 0.1313527 -0.25219706 0.24137999
0.36570746 -0.07026599 0.17861302 0.20270523 0.031710092 0.48375025 -0.47437766 -0.9207649
-1.2254297 0.21428965 0.6304372 -0.28442478 -0.7174272 0.42709196 -0.09789623 0.36452872
-0.22892086 -0.446578 0.42292127 -0.25730237 -0.23460305 0.029191427 -0.3925975 0.07974534
-0.08831604 -0.22318748 -0.100496165 -0.10244078 -0.020771645 -0.3206337 -0.40305126 0.013395909
-0.20637742 0.39776307 -0.28929833 0.11264716 -0.07666981 0.19533768 -0.14488564 -0.5663016
-0.3690052 -0.46755466 -0.53650826 -0.21466492 -0.15430874 -0.04702945 -0.4791169 -0.2953127
0.36970115 0.37129942 -0.11905219 -0.017143967 -0.66440916 -0.41059706 0.031985953 0.031557214
-0.100649364 -0.2635502 -0.3886954 -0.9608342 0.027110523 -0.20412023 -0.113902465 0.11956883
0.08956439 0.89330643 0.016492747 -0.079200804 -0.47835883 0.09024185 -0.06349675 0.04028127
0.34862942 -0.104056686 -0.6650918 -0.11801087 0.115919106 -1.2150269 -0.8055856 -0.03777389
-0.32572132 -0.07818217 -0.42212245 -0.15729955 0.12608176 0.20942023 -0.63616395 0.37421557
-0.28258348 -0.06284216 0.52290964 0.3205479 -0.36446044 0.62847024 -0.38186672 0.36619937
0.39431685 -0.41672626 -0.044373896 0.41292518 -0.38900733 0.013002563 -0.021116478 0.58860505
0.019228745 0.4442771 -0.17198823 0.04322003 0.039272744 0.009757611 0.06823476 0.7514694
0.09437585 -0.023185452 -0.0003394708 -0.6433849 -0.21426809 0.3412145 0.08202408 0.40830725
-0.61392087 -0.7749746 0.07264247 0.22400118 0.69986063 -0.004189663 -0.8352725 0.3007345
0.2904751 -0.26373786 -0.15426703 -0.034066882 0.08393357 -0.06520968 0.054493118 0.19058438
-0.7141075 0.19090575 -0.7433273 -0.8695638 0.1690935 -0.54334533 0.76726955 0.03452734
-0.0025506455 0.3497964 0.30434972 0.12243229 0.5238606 -0.093770325 0.6814593 -0.53960603
-0.16146387 -0.42088082 -0.055019572 0.17788129 -0.053854816 0.20415564 -0.09849602 0.15202104
0.21453367 0.60659355 0.44833037 -0.20784037 -0.21203756 0.08021025 -0.3506329 -0.166533
-0.37739608 -0.38543293 -0.29305136 0.1490194 -0.32570088 0.16701627 0.30246693 -0.1919174
0.25744504 0.11236234 0.86199754 -0.2116527 0.10840155 0.23115894 -0.028481824 -0.0036106869
0.544027 -0.02595225 -0.18338652 -0.057743624 0.081405886 -0.27895415 0.18510266 0.067282215
0.095150724 -0.050626617 0.091119565 -0.060785104 -0.010631116 -0.31430548 0.27658644 0.12836835
-0.11860296 -0.08720319 -0.27939922 -0.122286394 0.38388193 0.01986513 0.031943187 -0.49771154
0.24836516 0.00789701 -0.23806395 -0.0949329 -0.23443672 0.30416974 -0.23316543 -0.36572164
-0.051188406 -0.80943865 -0.6351899 0.036361434 0.06979531 0.53397816 -0.42922184 -0.44832987
0.88586664 -0.041532807 -0.022907233 1.0469776 0.24022855 0.75731796 0.047210287 -0.21937951
00000000: bdfa c53d d2b6 c6be 75b3 f73d 77a2 2b3f
00000010: d6ea 143d db75 fb3e 4029 3a3f ce06 463d
00000020: 66f0 2abf cebe 7dbc 1ce3 47bd bc61 b53e
00000030: c5d3 7a3c 40a5 a63e dc54 ab3e b6f9 3abe
00000040: 853d 17bf c256 123f 1272 c8bd 0e3d 373e
00000050: a761 93be 5281 063e f91f 81be 512c 773e
00000060: 023e bb3e 9ee7 8fbd 55e6 363e f691 4f3e
00000070: 71e2 013d 1dae f73e a1e1 f2be 40b7 6bbf
00000080: e1da 9cbf bf6e 5b3e 5564 213f 20a0 91be
00000090: 4fa9 37bf ccab da3e d27d c8bd 82a3 ba3e
000000a0: 3b6a 6abe dfa5 e4be 2389 d83e 23bd 83be
000000b0: c83b 70be dc22 ef3c 8a02 c9be 8651 a33d
000000c0: 0adf b4bd 428b 64be efd0 cdbd 79cc d1bd
000000d0: 4c29 aabc 1a2a a4be bc5c cebe 847a 5b3c
000000e0: 9a54 53be 9aa7 cb3e e91e 94be 8eb3 e63d
000000f0: 1005 9dbd 9a06 483e e75c 14be 24f9 10bf
00000100: 40ee bcbe 5363 efbe 9b58 09bf 1fd1 5bbe
00000110: 1c03 1ebe f4a1 40bd cf4e f5be 3a33 97be
00000120: 7849 bd3e f51a be3e a2d1 f3bd 8171 8cbc
00000130: b816 2abf c739 d2be b403 033d 2342 013d
00000140: 4121 cebd 0df0 86be 1503 c7be 3bf9 75bf
00000150: e316 de3c e504 51be b245 e9bd 81e0 f43d
00000160: 896d b73d bbaf 643f cc1b 873c 0834 a2bd
00000170: 73eb f4be b8d0 b83d 960a 82bd f9fd 243d
00000180: 8e7f b23e ac1b d5bd 7543 2abf afaf f1bd
00000190: ff66 ed3d 0086 9bbf dc3a 4ebf cbb8 1abd
000001a0: f2c4 a6be f91d a0bd 6f20 d8be 2213 21be
000001b0: 941b 013e 4272 563e a4db 22bf 2f99 bf3e
000001c0: c8ae 90be 64b3 80bd 68dd 053f db1e a43e
000001d0: 8f9a babe 6de3 203f 0984 c3be 7c7e bb3e
000001e0: e6e3 c93e 255d d5be 67c1 35bd ee6a d33e
000001f0: f82b c7be b408 553c 77fc acbc d2ae 163f
00000200: 9a85 9d3c 4a78 e33e af1d 30be 7c07 313d
00000210: 75dc 203d 63de 1f3c aabe 8b3d 4c60 403f
00000220: 2048 c13d 6bef bdbc 00fb b1b9 dfb4 24bf
00000230: 1869 5bbe abb3 ae3e 3efc a73d a60d d13e
00000240: eb29 1dbf bc64 46bf 93c5 943d 9160 653e
00000250: 112a 333f 7149 89bb 6bd4 55bf dff9 993e
00000260: 27b9 943e a608 87be 2df8 1dbe b789 0bbd
00000270: 5de5 ab3d a78c 85bd 2d34 5f3d 8d28 433e
00000280: c0cf 36bf cc7c 433e b34a 3ebf bc9b 5ebf
00000290: d926 2d3e ae18 0bbf c76b 443f 8a6c 0d3d
000002a0: bb28 27bb 8418 b33e bad3 9b3e c8bd fa3d
000002b0: ba1b 063f a80a c0bd 1e74 2e3f 9f23 0abf
000002c0: c956 25be b17d d7be 345c 61bd 8326 363e
000002d0: de96 5cbd 2d0e 513e 48b8 c9bd 67ab 1b3e
000002e0: b7ae 5b3e b749 1b3f 8f8b e53e 1bd4 54be
000002f0: 6020 59be 4645 a43d 2886 b3be a087 2abe
00000300: 0f3a c1be 7757 c5be d40a 96be 8b98 183e
00000310: 44c2 a6be 5006 2b3e f2dc 9a3e ff85 44be
00000320: d6cf 833e 3a1e e63d dfab 5c3f 7cbb 58be
00000330: a201 de3d eeb4 6c3e b752 e9bc 46a1 6cbb
00000340: 5a45 0b3f d099 d4bc adc9 3bbe 9484 6cbd
00000350: 21b8 a63d 14d3 8ebe 8d8b 3d3e 42cb 893d
00000360: 62de c23d db5d 4fbd e59c ba3d cdf9 78bd
00000370: 222e 2ebc a6ec a0be bd9c 8d3e fe72 033e
00000380: 1ce6 f2bd 9697 b2bd 6a0d 8fbe 4a71 fabd
00000390: 2c8c c43e 32bc a23c dcd6 023d 0cd4 febe
000003a0: 7053 7e3e 7662 013c 09c7 73be 2e6c c2bd
000003b0: 2e10 70be 23bc 9b3e ebc2 6ebe de3f bbbe
000003c0: efaa 51bd 5f37 4fbf ce9b 22bf baef 143d
000003d0: d8f0 8e3d cbb2 083f f7c2 dbbe 7e8b e5be
000003e0: 28c8 623f 4e1e 2abd f3a7 bbbc 5d03 863f
000003f0: 79fe 753e 97df 413f 935f 413d 06a5 60be

network_body._body_endoder.seq_layers.0.bias f4 [128]
0.016570529 -0.013381375 0.038604897 0.012297802 0.016219622 0.039158627 -0.005433439 -0.0017491613
0.013255713 0.03990946 0.025571784 -0.0022635397 0.008878884 -0.020173559 0.019660586 0.0073836176
0.01496003 0.03593558 0.012813513 0.01616795 -0.006362103 0.035107996 -0.009837932 0.0016003944
0.030073285 -0.0073370617 -0.0040088138 0.046271335 0.019141447 0.030682636 0.011333989 0.06377383
-0.00054965366 0.037765834 -0.029453216 -0.042211052 -0.0024521046 0.062273312 0.008072168 0.021924809
0.02608004 0.011451163 0.013258458 -0.017098607 0.00413926 -0.00653131 -0.01678893 -0.009752529
0.040283382 -0.059874535 0.0234564 0.05636093 0.0029835722 -0.028178087 0.035152666 0.03037297
0.031086622 0.014155584 -0.018458107 0.053323574 0.047398265 0.042280756 -0.02576175 0.025091693
0.027551472 0.048473775 -0.030392574 0.06702303 0.003359242 -0.03853644 0.042473644 1.9190808e-05
-0.010775581 -0.039597675 -0.03498455 -0.023112541 0.05498015 0.054081522 -0.006533691 0.039504945
-0.016337015 0.07004169 0.04208475 0.0031253812 0.03858841 0.038987458 -0.0024536455 -0.010125999
0.010641904 0.019727677 0.015848529 -0.015795395 0.054144524 0.01200963 0.051285744 0.07601729
-0.013662798 0.005816366 -0.0102205 -0.009970468 0.027763022 0.0009744617 0.047355432 0.04699579
-0.049459655 0.03722492 0.036968853 0.008368061 0.020898977 -0.020745903 0.04201396 0.031226639
0.06463087 0.053411048 0.026269697 0.013307753 0.032075986 0.025330508 0.02119371 0.0030391465
0.011627827 0.00811816 -0.025546899 -0.010947936 0.032651056 0.0043490776 0.021141857 0.023419138
00000000: ebbe 873c 8e3d 5bbc 2b20 1e3d b87c 493c
00000010: 03df 843c cc64 203d fd0a b2bb 1d44 e5ba
00000020: 7d2e 593c 1a78 233d eb7b d13c e557 14bb
00000030: bd78 113c 0543 a5bc 3d0f a13c 46f2 f13b
00000040: ea1a 753c 3031 133d c5ef 513c a672 843c
00000050: 3079 d0bb 67cd 0f3d 472f 21bc 53c4 d13a
00000060: 405c f63c bc6b f0bb 5e5c 83bb 0387 3d3d
00000070: 86ce 9c3c 275a fb3c 32b2 393c db9b 823d
00000080: a216 10ba 59b0 1a3d df47 f1bc 7fe5 2cbd
00000090: 7db3 20bb 4d12 7f3d 2041 043c a89b b33c
000000a0: cfa5 d53c a99d 3b3c 013a 593c 6112 8cbc
000000b0: a1a2 873b 9904 d6bb f088 89bc 12c9 1fbc
000000c0: 3000 253d 003f 75bd a327 c03c b8da 663d
000000d0: 0988 433b bbd5 e6bc 3efc 0f3d bcd0 f83c
000000e0: 5fa9 fe3c d3ec 673c 7535 97bc d269 5a3d
000000f0: af24 423d 962e 2d3d 4e0a d3bc 188d cd3c
00000100: a0b3 e13c 708c 463d d9f9 f8bc 5f43 893d
00000110: bb26 5c3b 63d8 1dbd d8f8 2d3d f2fb a037
00000120: 108c 30bc 2c31 22bd f64b 0fbd 8356 bdbc
00000130: de32 613d 9684 5d3d 9318 d6bb f0cf 213d
00000140: 34d5 85bc 0472 8f3d 0f61 2c3d 32d3 4c3b
00000150: e10e 1e3d 50b1 1f3d 57cd 20bb 85e7 25bc
00000160: 615b 2e3c f09b a13c c6d4 813c 5865 81bc
00000170: a6c6 5d3d 0ac4 443c 0011 523d f4ae 9b3d
00000180: eed9 5fbc 3797 be3b e273 27bc 2c5b 23bc
00000190: 476f e33c 0573 7f3a c5f7 413d a87e 403d
000001a0: 3596 4abd 2879 183d a76c 173d 311a 093c
000001b0: 5534 ab3c 50f3 a9bc d516 2c3d 02cf ff3c
000001c0: 315d 843d 8bc5 5a3d 8c33 d73c c308 5a3c
000001d0: 1c62 033d ed81 cf3c 6e9e ad3c 6b2c 473b
000001e0: a482 3e3c 0802 053c bb47 d1bc f95e 33bc
000001f0: 1dbd 053d b582 8e3b b031 ad3c 7ed9 bf3c

network_body._body_endoder.seq_layers.2.weight f4 [128, 128]
0.051764134 -0.15741056 0.15037999 -0.06001721 0.12834437 0.18740137 0.12598261 0.065014526
0.10467425 0.11718117 0.0039351084 0.030118598 0.08492118 -0.027539529 -0.13100252 -0.014552083
-0.12557831 0.037361465 -0.073060915 -0.014243181 -0.21552908 -0.033710618 -0.120256804 -0.0047079856
0.012791866 -0.10020142 -0.04126521 0.15177037 0.066778794 0.03404611 -0.14402412 0.04530623
-0.07643467 0.08866628 -0.09422738 0.011806757 0.019537449 -0.24690576 0.0045372965 0.0104275495
-0.04435901 -0.124060474 0.057674337 -0.010194663 -0.047786 0.17938986 0.2097772 -0.14482197
-0.028758762 -0.08468667 0.018941812 -0.048912276 0.042805962 -0.00059464737 0.013814252 0.13313687
0.2880343 0.02618627 -0.061651148 0.008328079 -0.03662342 -0.006931302 -0.0387601 -0.0078732
-0.072491534 0.12947156 0.14064014 -0.085789494 0.118015625 -0.06326655 -0.05002037 0.013579139
0.022731112 -0.1233817 0.03580009 -0.09233958 0.006438055 -0.021754215 0.085648775 0.027612148
-0.02825875 -0.078827806 -0.074788965 0.03435743 0.07307935 -0.07486078 -0.20378965 -0.094251305
-0.07593168 0.050874017 -0.07709278 0.045991078 -0.03279985 -0.036195535 -0.08700926 0.06885247
0.113062225 0.06314965 0.027961046 -0.1762367 0.028372895 -0.090793304 0.028658176 0.11321718
0.04750321 0.09985632 -0.029895352 -0.29871115 0.051868916 -0.06593527 0.13488375 -0.016551122
-0.08191982 0.10988519 -0.10810745 0.057190586 -0.063486256 0.08538976 0.24782339 0.06113591
-0.06252399 0.10134303 -0.06625789 -0.041119266 -0.046358887 -0.09039912 0.072682396 0.09870618
0.11076619 0.09247252 0.09212995 -0.031063905 0.035423208 0.06692645 -0.093094386 0.049768984
-0.022161512 -0.2456289 -0.19957419 -0.054059528 -0.0018594414 0.11091114 0.099964 -0.2476437
-0.0041031456 -0.10513202 0.021174844 0.15760148 0.099118225 0.013885646 0.19103734 0.019414566
0.047748618 -0.013222812 -0.035530053 -0.043138623 2.7515214e-05 0.0012521376 0.1586396 0.028548902
0.0932699 -0.040824577 0.08399005 -0.07260034 -0.0020693827 -0.068840265 0.18858074 0.075006284
0.117674455 -0.026692284 -0.01446244 -0.059878323 0.10109309 -0.047109608 -0.017257934 0.072095245
-0.050618917 -0.07003037 0.08655676 0.06004813 0.09881104 0.016420798 -0.13458124 -0.11830158
-0.04903457 0.037515122 -0.030838586 -0.0637224 -0.18441372 -0.063734055 -0.11441591 -0.031828925
0.030188212 0.029866945 0.009971547 0.024442164 0.0041101687 -0.022257103 0.018730227 0.08651367
-0.015402827 -0.005974099 0.10914942 0.14908046 0.005972132 0.042992387 -0.010493002 -0.07082559
-0.12171583 0.1029478 0.06789159 0.066878326 0.07955075 0.14972757 0.08281691 -0.15205272
-0.13431796 -0.06877473 -0.16232468 0.054147806 0.024782162 -0.16917473 -0.023123123 0.03447302
0.00041725082 -0.0022728469 -0.06623057 -0.12307832 0.02369854 -0.09823533 -0.02837394 -0.08704071
-0.11248367 -0.06672399 -0.07258695 0.047129706 -0.11857055 -0.1921827 -0.06916523 0.19472581
-0.17977859 0.14038822 0.16393705 -0.03173045 -0.10948721 0.07884562 -0.070202425 -0.041618884
0.13484883 -0.025796773 -0.04168476 0.052387677 -0.058641966 -0.24208611 -0.13216852 -0.0020030064
00000000: a106 543d 3c30 21be 36fd 193e 9bd4 75bd
00000010: b56c 033e 25e6 3f3e 9601 013e 5626 853d
00000020: 745f d63d aefc ef3d 15f2 803b 47bb f63c
00000030: 28eb ad3d 949a e1bc 8625 06be dc6b 6ebc
00000040: 9a97 00be 5608 193d f6a0 95bd 3b5c 69bc
00000050: a8b3 5cbe 2514 0abd 3349 f6bd 7245 9abb
00000060: fa94 513c 6736 cdbd b505 29bd b169 1b3e
00000070: 52c3 883d ef73 0b3d 0f7b 13be 0793 393d
00000080: c889 9cbd ab96 b53d 49fa c0bd 2171 413c
00000090: 000d a03c ddd4 7cbe 9aad 943b 50d8 2a3c
000000a0: cbb1 35bd 6b13 febd ed3b 6c3d 8407 27bc
000000b0: 41bb 43bd fab1 373e d6cf 563e 364c 14be
000000c0: 7f97 ebbc 3470 adbd dc2b 9b3c 3d58 48bd
000000d0: 4e55 2f3d 1ce2 1bba 2c55 623c 0855 083e
000000e0: 3b79 933e 9784 d63c ea85 7cbd 7f72 083c
000000f0: 7002 16bd fa1f e3bb e9c2 1ebd 98fe 00bc
00000100: 7176 94bd 3194 043e f803 103e 67b2 afbd
00000110: 2db2 f13d e591 81bd 29e2 4cbd 097b 5e3c
00000120: 9936 ba3c 8baf fcbd 1da3 123d 891c bdbd
00000130: 52f6 d23b e535 b2bc a068 af3d df32 e23c
00000140: e57e e7bc 7970 a1bd f52a 99bd 60ba 0c3d
00000150: a0aa 953d 9c50 99bd 3cae 50be d406 c1bd
00000160: 1282 9bbd 4661 503d d2e2 9dbd 2461 3c3d
00000170: 2359 06bd c541 14bd e931 b2bd 8602 8d3d
00000180: 2b8d e73d 9b54 813d 900e e53c 6577 34be
00000190: 466e e83c d7f1 b9bd 8dc4 ea3c 69de e73d
000001a0: ba92 423d 7881 cc3d 19e7 f4bc abf0 98be
000001b0: 8074 543d 1209 87bd f71e 0a3e 3896 87bc
000001c0: 94c5 a7bd 7d0b e13d 7067 ddbd ad40 6a3d
000001d0: 1505 82bd d4e0 ae3d 6ac5 7d3e a669 7a3d
000001e0: 940c 80bd ef8c cf3d 37b2 87bd ad6c 28bd
000001f0: d1e2 3dbd 2c23 b9bd 82da 943d 7726 ca3d
00000200: 62d9 e23d 3c62 bd3d a1ae bc3d bb79 febc
00000210: ed17 113d bc10 893d 45a8 bebd 90da 4b3d
00000220: 0f8c b5bc 2486 7bbe 2d5d 4cbe 866d 5dbd
00000230: 80b8 f3ba 6125 e33d edb9 cc3d 4f96 7dbe
00000240: ae73 86bb 754f d7bd de76 ad3c 4862 213e
00000250: 7ffe ca3d 9f80 633c 4b9f 433e 4c0b 9f3c
00000260: 0e94 433d 7ea4 58bc f687 11bd 20b2 30bd
00000270: 79d0 e637 c41e a43a 6b72 223e 63df e93c
00000280: 4a04 bf3d ac37 27bd fa02 ac3d 7daf 94bd
00000290: 7b9e 07bb 20fc 8cbd 4f1b 413e e59c 993d
000002a0: 4eff f03d c7a9 dabc dff3 6cbc f942 75bd
000002b0: e509 cf3d 01f6 40bd 8360 8dbc aca6 933d
000002c0: c855 4fbd 156c 8fbd ac44 b13d 07f5 753d
000002d0: 715d ca3d e984 863c aacf 09be 1948 f2bd
000002e0: 79d8 48bd 75a9 193d 34a1 fcbc e480 82bd
000002f0: f3d6 3cbe 0087 82bd e352 eabd 0c5f 02bd
00000300: 454d f73c 86ab f43c b35f 233c ef3a c83c
00000310: 98ae 863b 8754 b6bc 2270 993c 142e b13d
00000320: 245c 7cbc 60c2 c3bb bb89 df3d 8ca8 183e
00000330: e0b1 c33b c918 303d d7ea 2bbc 020d 91bd
00000340: 2646 f9bd 4cd6 d23d bf0a 8b3d 81f7 883d
00000350: 81eb a23d 2f52 193e ea9b a93d b5b3 1bbe
00000360: a68a 09be c4d9 8cbd 7138 26be 17ca 5d3d
00000370: f603 cb3c 243c 2dbe b46c bdbc 9533 0d3d
00000380: 75c2 da39 0bf4 14bb e5a3 87bd 7c10 fcbd
00000390: 7123 c23c 9b2f c9bd 7770 e8bc 6642 b2bd
000003a0: d75d e6bd 96a6 88bd 78a8 94bd 140b 413d
000003b0: 1ed5 f2bd 8bcb 44be 80a6 8dbd 3466 473e
000003c0: e117 38be eec1 0f3e 1ddf 273e caf7 01bd
000003d0: d53a e0bd d079 a13d 4ac6 8fbd 9078 2abd
000003e0: d015 0a3e c153 d3bc a4bd 2abd 7694 563d
000003f0: 8f32 70bd 6ce5 77be 2f57 07be df44 03bb

network_body._body_endoder.seq_layers.2.bias f4 [128]
0.07518112 0.02772877 0.048254956 -0.0014055669 -0.0008059939 -0.0015457507 -0.0058862832 0.07107183
0.00922382 0.048832465 0.012641372 0.020686306 0.0045343596 0.037598234 0.006680673 0.0033959863
0.033381015 0.033782195 0.003120398 0.047662273 0.024250126 0.0497279 -0.013060464 -0.0011582285
0.02422179 0.020690518 0.046817362 -0.0020518752 -0.009086792 0.015788859 0.031892672 0.017056465
0.027585667 0.023757936 0.06269608 0.022555184 0.016134152 0.006914232 0.00608336 0.0066597937
0.015480455 0.020878699 0.018200321 -0.0016022931 -0.006613789 0.025004083 0.051712256 0.015163952
0.05676703 0.05643014 0.0068170573 0.0077236765 -0.0025210786 0.04755183 0.006493531 -0.033520084
0.0027207243 0.011095272 0.026671775 0.018090976 -0.0010253419 0.027493177 0.046194024 0.0046056714
0.029937299 0.0053054285 0.016781002 0.015576044 0.054605655 0.04155974 0.019118464 0.0025070277
0.009413554 0.018940069 0.0025701171 0.023536917 0.010721321 0.020531999 0.011717348 0.012639506
0.07245671 -0.010615496 -0.010589724 0.005938773 -0.004779866 0.0018021027 0.031607278 -0.017308217
0.031015296 0.020791512 0.021036683 0.0024732568 0.0143306255 0.01926962 0.008054803 0.016619997
0.016866157 0.011860132 -0.010061064 0.0365652 -0.015598849 0.0067704343 0.01344348 0.054440282
-0.0067196335 0.07183925 0.038236745 0.05728923 0.013981026 0.027789308 -0.005556083 0.04383587
0.048838526 0.0030151098 -0.00658676 0.010396996 0.014268726 0.008101182 -0.003226724 0.044723187
0.0096676275 0.018798387 0.03668363 0.020522814 0.026796577 0.025077637 0.034541883 0.0110496795
00000000: 8ff8 993d 7227 e33c fda6 453d 003b b8ba
00000010: 5649 53ba c99a caba b9e1 c0bb 1c8e 913d
00000020: 811f 173c 8d04 483d c21d 4f3c 5476 a93c
00000030: f794 943b 9b00 1a3d 8ce9 da3b 328f 5e3b
00000040: 88ba 083d 335f 0a3d 977f 4c3b 8439 433d
00000050: 33a8 c63c 7caf 4b3d 8efb 55bc b3cf 97ba
00000060: c66c c63c 297f a93c 90c3 3f3d c178 06bb
00000070: c5e0 14bc a357 813c e4a1 023d 00ba 8b3c
00000080: 56fb e13c 01a0 c23c cd66 803d a6c5 b83c
00000090: c52b 843c c890 e23b ec56 c73b 663a da3b
000000a0: bca1 7d3c ce09 ab3c d718 953c 0904 d2ba
000000b0: 7cb8 d8bb 5dd5 cc3c 3bd0 533d 3972 783c
000000c0: 8c84 683d 4a23 673d 9f61 df3b e516 fd3b
000000d0: ae38 25bb b5c5 423d b0c7 d43b 5b4c 09bd
000000e0: 2e4e 323b f2c8 353c c47e da3c 8733 943c
000000f0: c464 86ba 5f39 e13c f235 3d3d 2ceb 963b
00000100: 113f f53c 29d9 ad3b 5078 893c aa32 7f3c
00000110: 2eaa 5f3d 8c3a 2a3d 539e 9c3c f24c 243b
00000120: 4f3b 1a3c 3428 9b3c 696f 283b 7ed0 c03c
00000130: 7ba8 2f3c b932 a83c 1ffa 3f3c ee15 4f3c
00000140: 2f64 943d 9eec 2dbc 8680 2dbc 0a9a c23b
00000150: 6ca0 9cbb 8834 ec3a a276 013d f6c9 8dbc
00000160: ca13 fe3c f652 aa3c 1f55 ac3c 5d16 223b
00000170: 00cb 6a3c 52db 9d3c 4bf8 033c a926 883c
00000180: e52a 8a3c 0051 423c 29d7 24bc 64c5 153d
00000190: 5192 7fbc 85da dd3b 0b42 5c3c c6fc 5e3d
000001a0: 5f30 dcbb 7520 933d 229e 1c3d 1da8 6a3d
000001b0: ac10 653c 67a6 e33c cd0f b6bb 3e8d 333d
000001c0: e80a 483d 2699 453b bfd5 d7bb 2958 2a3c
000001d0: 60c7 693c d2ba 043c 7277 53bb a92f 373d
000001e0: f864 1e3c 13ff 993c 9341 163d 761f a83c
000001f0: 7f84 db3c 9e6f cd3c ca7b 0d3d b709 353c

action_model._continuous_distribution.log_sigma f4 [1, 2]
-0.019464301 -0.017184377
00000000: 9973 9fbc 40c6 8cbc

action_model._continuous_distribution.mu.weight f4 [2, 128]
0.07835637 -0.035835147 0.03129206 -0.02040587 -0.018392457 0.018966904 0.0147048365 -0.07863133
0.0035698444 0.016872434 -0.028955292 0.04863162 0.025297992 -0.04177156 -0.017462038 -0.014270753
-0.04945726 0.035563517 -0.01936162 -0.07128944 0.03665903 -0.07494313 0.0018431006 -0.0023929053
0.009459506 -0.017593645 -0.02429124 0.008496805 0.003688106 0.01779028 -0.04406331 -0.049055904
-0.007873682 0.04565207 -0.056739457 0.072102 -0.031713575 0.03876987 0.021530908 -0.012949661
0.024607489 0.051980432 0.0030885483 -0.03486428 0.007696608 -0.024906717 -0.010766282 0.0180307
0.047596827 -0.051003262 0.018564317 0.014697633 -0.027366992 -0.05151629 -0.023751013 -0.0031236159
-0.0442747 0.040436972 -0.011353725 0.02712055 0.00820934 0.021538261 0.031336706 0.025936225
-0.030009996 -0.04147065 -0.0334429 -0.049009345 -0.018220043 -0.055184636 0.0453832 0.009837747
0.014967549 0.054343313 0.003316905 0.010536887 0.00039300896 -0.017320802 -0.0007151498 0.052444085
-0.08215287 -0.008811537 -0.0143182175 0.019533137 0.007636494 -0.029459832 0.04437796 0.008018138
0.02836678 0.016142473 0.02789977 0.0108663915 0.036657996 -0.012989303 -0.028448934 -0.020422503
-0.054364692 0.040481325 0.010734851 -0.024345053 0.0017292161 -0.032643456 0.05629113 0.08564476
-0.029413933 -0.044347346 0.03002469 -0.030313471 -0.0023642422 -0.07943361 -0.008249919 -0.074562296
-0.052056253 0.02194151 0.018262124 -0.013912835 0.022453522 -0.013166457 0.012891799 -0.00509263
0.03292861 -0.039302144 -0.024501381 -0.0018851239 -0.03227459 -0.024049113 -0.055382013 -0.050238315
0.06467702 -0.0127831595 -0.059485763 -0.023581743 0.026136715 0.0039612153 0.004465186 0.049571197
0.018263672 0.046289787 3.9463474e-05 0.0055940314 0.027262349 -0.018044444 0.0006044415 0.0039238944
0.0029446944 -0.051657256 -0.026832914 -0.04986523 0.023682939 0.013296731 -0.03058358 -0.0055416236
0.0362535 -0.019219691 0.07325143 -0.022647886 0.00010528274 -0.04684244 -0.011532509 -0.02711037
-0.061506536 0.011702476 0.0070383386 -0.00016435675 0.03774124 0.005458582 -0.010312924 -0.031984705
-0.010981831 0.013237714 0.052046824 -0.010618597 -0.008309971 0.017809825 0.061009068 0.040025685
0.045535307 0.060961623 -0.01710561 0.008169068 -0.023389392 0.011493022 0.008469099 -0.0071017044
0.022023765 0.024310634 -0.05367283 0.062393937 0.023402907 0.049346693 0.049938854 0.050194632
-0.04389958 -0.00056811614 0.026234971 -0.0242456 0.07199053 -0.024346335 0.0142131355 0.0279279
0.018387202 0.0047171493 -0.028458852 -0.058024257 -0.06360173 -0.012762684 -0.028156644 0.011932985
0.0076070763 -0.0116609875 -0.017970316 -0.0044253594 0.02257851 -0.026396867 -0.04298375 0.0007272171
-0.025086092 -0.002512449 0.008591661 -0.0225637 0.020671865 0.038017735 -0.011647323 -0.031327974
0.012735925 0.035642665 0.024633937 0.030403856 0.009739141 0.050055698 0.020933976 -0.0039633904
0.012947059 0.043705948 -0.05583252 0.034711134 -0.03583539 -0.018215152 0.011217301 -0.040838916
-0.038440574 -0.047462344 -0.03566392 -0.037243664 -0.027555382 -0.041987576 0.0074271513 0.029337823
-0.028036438 0.0010613415 -0.042232778 -0.06247448 -0.029216176 0.045593586 0.044329487 -0.01943135
00000000: 4e79 a03d e0c7 12bd 1a2c 003d 362a a7bc
00000010: c7ab 96bc 7b60 9b3c 8eec 703c 7609 a1bd
00000020: 0df4 693b 0f38 8a3c a633 edbc f331 473d
00000030: bc3d cf3c a818 2bbd 8c0c 8fbc e0cf 69bc
00000040: b293 4abd 0dab 113d 439c 9ebc 3300 92bd
00000050: c727 163d c97b 99bd 3294 f13a 4ad2 1cbb
00000060: 0bfc 1a3c 8c20 90bc 6cfe c6bc 2f36 0b3c
00000070: 27b4 713b ecbc 913c bb7b 34bd d8ee 48bd
00000080: 9e00 01bc aafd 3a3d a267 68bd 37aa 933d
00000090: 18e6 01bd 28cd 1e3d 9661 b03c d12a 54bc
000000a0: a595 c93c 6fe9 543d 3e69 4a3b d9cd 0ebd
000000b0: d433 fc3b 2c09 ccbc 0f65 30bc 1eb5 933c
000000c0: e4f4 423d cce8 50bd 3214 983c 57ce 703c
000000d0: be30 e0bc bf02 53bd 7c91 c2bc 94b5 4cbb
000000e0: 6359 35bd 3da1 253d f904 3abc ea2b de3c
000000f0: 7880 063c 0271 b03c eb5a 003d 3578 d43c
00000100: 86d7 f5bc 21dd 29bd 6cfb 08bd 06be 48bd
00000110: 3342 95bc 4909 62bd bce3 393d 802e 213c
00000120: 733a 753c 1897 5e3d 6e60 593b e8a2 2c3c
00000130: c50c ce39 5be4 8dbc e478 3bba 9ccf 563d
00000140: c43f a8bd 445e 10bc f596 6abc f503 a03c
00000150: 8e3b fa3b bf55 f1bc aac5 353d 825e 033c
00000160: 7361 e83c 383d 843c 0f8e e43c f308 323c
00000170: b226 163d 16d1 54bc bd0d e9bc 184d a7bc
00000180: 83ad 5ebd bfcf 253d 3ae1 2f3c 476f c7bc
00000190: dda6 e23a 25b5 05bd 8791 663d 8566 af3d
000001a0: 7df5 f0bc 90a5 35bd 57f6 f53c f553 f8bc
000001b0: 67f1 1abb 17ae a2bd ab2a 07bc 1eb4 98bd
000001c0: f038 55bd aebe b33c 739a 953c a9f2 63bc
000001d0: 73f0 b73c 20b8 57bc 2038 533c 14e0 a6bb
000001e0: 26e0 063d 49fb 20bd 1fb7 c8bc 4316 f7ba
000001f0: 5c32 04bd a502 c5bc 40d8 62bd b1c6 4dbd
00000200: 6375 843d 7570 51bc 58a7 73bd 802e c1bc
00000210: aa1c d63c 15cd 813b b250 923b 2b0b 4b3d
00000220: b29d 953c 5c9a 3d3d 9585 2538 234e b73b
00000230: 4a55 df3c f1d1 93bc 6273 1e3a 0394 803b
00000240: c6fb 403b 8f96 53bd b3d0 dbbc 7c3f 4cbd
00000250: b902 c23c 88da 593c 6a8a fabc 8296 b5bb
00000260: 8d7e 143d 9d72 9dbc d904 963d 0f88 b9bc
00000270: 3ecb dc38 dcdd 3fbd d9f2 3cbc 9116 debc
00000280: 47ee 7bbd bebb 3f3c dda1 e63b 2e57 2cb9
00000290: 8f96 1a3d e8dd b23b 8af7 28bc 6502 03bd
000002a0: 23ed 33bc ffe2 583c 0d2f 553d a0f9 2dbc
000002b0: 8b26 08bc e9e5 913c a5e4 793d f9f1 233d
000002c0: 3b83 3a3d e5b2 793d 1021 8cbc 8ed7 053c
000002d0: 1c9b bfbc 3a4d 3c3c fac1 0a3c 6ab5 e8bb
000002e0: 2f6b b43c 1827 c73c 0bd8 5bbd c990 7f3d
000002f0: 74b7 bf3c c21f 4a3d af8c 4c3d e398 4d3d
00000300: 0cd0 33bd a1ed 14ba b9ea d63c b59e c6bc
00000310: c56f 933d f771 c7bc 36de 683c 0dc9 e43c
00000320: c2a0 963c 5192 9a3b 8a22 e9bc d8aa 6dbd
00000330: a041 82bd 941a 51bc c3a8 e6bc 9182 433c
00000340: c844 f93b ba0d 3fbc 7c36 93bc 9b02 91bb
00000350: 91f6 b83c 3e3e d8bc bb0f 30bd b7a2 3e3a
00000360: 5981 cdbc e6a7 24bb 0ac4 0c3c 82d7 b8bc
00000370: 0b58 a93c 7cb8 1b3d 6ad4 3ebc c351 00bd
00000380: 57aa 503c 0bfe 113d 1ccd c93c 8211 f93c
00000390: eb90 1f3c 3407 4d3d bb7d ab3c 54df 81bb
000003a0: e71f 543c 0205 333d a4b0 64bd 432d 0e3d
000003b0: 21c8 12bd f137 95bc c5c8 373c b546 27bd
000003c0: dd73 1dbd e067 42bd 5514 12bd d08c 18bd
000003d0: d3bb e1bc 2afb 2bbd 765f f33b e055 f03c
000003e0: acac e5bc b61c 8b3a 47fc 2cbd 3ee5 7fbd
000003f0: c356 efbc 57c0 3a3d d692 353d 7f2e 9fbc

action_model._continuous_distribution.mu.bias f4 [2]
-0.0025712939 0.0014411409
00000000: 2783 28bb aae4 bc3a

exp_avg f4 [128, 8]
0.0024358009 0.00043046722 0.0028628623 -0.0017814869 0.00043014096 0.0030504458 -0.0005255208 0.0020558916
0.0013962513 -2.4171286e-05 0.0033696748 -0.00043245222 -2.5015883e-05 0.00401484 -0.003272805 0.002577363
-0.0004647351 -6.2297724e-05 -0.0020738505 0.0003745215 -6.21065e-05 -0.0015238422 -0.0025140431 -0.0006282491
0.0009375088 -0.00026491686 0.0024825796 -0.0018107598 -0.00026513173 0.0012704524 -0.0016129508 0.002798035
0.0010944245 8.547547e-05 0.00290748 0.0017899135 8.531815e-05 0.0028239647 -0.0009670195 0.0011089608
0.0033285841 -0.000573841 0.0006590557 -0.003943799 -0.0005741522 -0.0013925595 0.005505343 -0.0014808078
-0.0019777361 0.00020520829 -0.000535545 -0.0017777384 0.00020608712 -0.0030833634 0.00043740732 -0.0014702019
0.0005135265 -4.153494e-05 -0.00033552942 -0.00017413008 -4.200207e-05 -0.00016097483 0.0012967957 7.798093e-05
-0.0009312744 4.13489e-05 -0.00018192764 -0.001557128 4.1531464e-05 -0.0015228763 2.5071098e-05 0.0013796921
-0.00032309603 -0.00062220654 0.0030541464 0.0013486744 -0.0006213863 0.0032926064 0.000111046174 0.00030890506
-0.0048751896 -6.0687307e-05 -0.0016080164 0.0005408449 -5.829521e-05 -0.002941682 -0.0015059817 0.00041573253
-0.0005828795 -2.6523076e-06 -0.0020315005 0.000835743 -2.0338496e-06 -0.0028877738 -0.0002091768 -0.0013444603
-0.000885625 -1.11819245e-05 0.001204701 -0.0005699031 -1.1393589e-05 2.6723414e-05 -0.00029785105 6.935296e-05
-0.0016840538 0.00010092646 -0.0026118085 -0.001408649 0.0001018181 -0.0044723437 -0.0005966022 -0.00074110023
2.2434044e-05 0.00050687336 0.0017768865 0.0003716911 0.0005070119 0.0019272596 -0.0019965593 0.0025368715
0.0011265288 8.72811e-05 3.3858767e-05 -0.00044645896 8.6972286e-05 -0.0007062192 -0.00012076342 0.0006882595
0.0040631266 0.0007854362 -0.0042743483 -0.0027088122 0.00078595156 -0.005203622 0.0012104562 0.001984574
-0.00048809728 -0.0005389628 -0.0047464035 -3.2103286e-05 -0.0005383406 -0.0046733585 0.0031203988 0.0012597383
-0.0007032985 3.8314593e-05 -0.001728577 -0.00082490145 3.8463466e-05 -0.0020540962 -9.30739e-05 0.00049938913
2.1013557e-05 7.41695e-05 -0.00059050776 0.00019039949 7.440617e-05 -0.001731283 -0.00067244394 0.00033358962
0.0016030603 -0.00038517156 0.0026657283 0.00040209794 -0.00038607258 0.002109853 0.0013058451 0.0017966606
-0.0003326308 -0.0006173124 0.0030846666 -0.0047262004 -0.0006197311 0.0024182575 -0.0021769141 0.0029369358
5.2009902e-05 0.00042997062 -0.00067014573 0.0009605249 0.00043023404 -0.0012714027 -0.0022896193 -0.00092022854
0.00074454077 -0.0010354702 -0.0034889928 -0.0010027663 -0.0010355882 -0.00406646 6.3909793e-06 -0.0048158173
0.0015533994 -5.494544e-05 -0.0010366088 -6.1819366e-05 -5.553207e-05 -2.0719372e-05 -0.002761165 -0.0015727696
4.2726355e-05 2.3216424e-05 0.00016929844 -0.0006700727 2.3158776e-05 -0.0015902619 0.0004986556 -0.0009288839
-0.0022652277 -0.0004961882 0.0019734665 0.001426933 -0.0004950252 0.0019812037 -0.0018679743 0.0007211247
-0.004076926 -0.0008674522 0.0027096837 -0.0008307955 -0.0008676523 0.0021412324 -0.0023049153 -0.0015938708
0.0019070435 -0.00039643561 0.00078252313 -0.0016609704 -0.0003979942 0.00040889322 0.00044006546 0.0030071149
-0.0017096857 -4.856713e-05 -0.0010256877 0.0024762193 -4.7729158e-05 -0.0023106022 0.00011720682 -0.0022374922
-0.0026709188 0.00067383 -0.0040164227 0.0007389209 0.0006744864 -0.0048955875 -0.0007901532 -0.003760978
-0.0007526068 9.7175885e-05 0.0007662033 -0.0004049558 9.695532e-05 -0.00070499344 -0.0013045857 0.00059848226
00000000: f5a1 1f3b 55b0 e139 dc9e 3b3b c880 e9ba
00000010: 8b84 e139 fde9 473b 1bc3 09ba 23bc 063b
00000020: 6b02 b73a 71c3 cab7 c3d5 5c3b c1ba e2b9
00000030: 33d9 d1b7 eb8e 833b 8e7c 56bb fae8 283b
00000040: b0a7 f3b9 d6a5 82b8 70e9 07bb 6d5b c439
00000050: 2c3f 82b8 a9bb c7ba a5c2 24bb 15b1 24ba
00000060: 27c3 753a 8ae4 8ab9 c6b2 223b 0457 edba
00000070: 6101 8bb9 4f85 a63a a669 d3ba 3d5f 373b
00000080: cb72 8f3a 4b41 b338 6c8b 3e3b 889b ea3a
00000090: d5ec b238 4412 393b 957f 7dba 8d5a 913a
000000a0: 6024 5a3b d16d 16ba 7bc4 2c3a fc3a 81bb
000000b0: b482 16ba 8b86 b6ba 2a66 b43b aa17 c2ba
000000c0: e89c 01bb 2e2d 5739 d163 0cba 0103 e9ba
000000d0: 1719 5839 4112 4abb d153 e539 cab3 c0ba
000000e0: 2e9e 063a cd35 2eb8 ffe9 afb9 b096 36b9
000000f0: 612b 30b8 5acb 28b9 3ef9 a93a b189 a338
00000100: c420 74ba 0b6e 2d38 d4c3 3eb9 8c18 ccba
00000110: 1232 2e38 409b c7ba c64f d237 c9d6 b43a
00000120: 3765 a9b9 931b 23ba 1328 483b 01c6 b03a
00000130: 87e4 22ba c5c8 573b 76e1 e838 89f4 a139
00000140: 0ec0 9fbb 808a 7eb8 14c4 d2ba 7dc7 0d3a
00000150: 0182 74b8 3cc9 40bb 5c64 c5ba adf6 d939
00000160: 62cc 18ba 4cfe 31b6 ec22 05bb c315 5b3a
00000170: 457d 08b6 ce40 3dbb 7856 5bb9 9a38 b0ba
00000180: 4a29 68ba 009a 3bb7 0fe7 9d3a 8d65 15ba
00000190: 1827 3fb7 182c e037 e428 9cb9 9671 9138
000001a0: 78bb dcba 7ba8 d338 e02a 2bbb 6ba2 b8ba
000001b0: 2d87 d538 bd8c 92bb 4c65 1cba 6546 42ba
000001c0: be30 bc37 b2df 043a 6be6 e83a 89df c239
000001d0: fee8 043a 1a9c fc3a b5d8 02bb a441 263b
000001e0: 09a8 933a af0a b738 9303 0e38 b512 eab9
000001f0: e464 b638 9121 39ba 5e42 fdb8 506c 343a
00000200: fa23 853b bbe5 4d3a d50f 8cbb 5486 31bb
00000210: 5108 4e3a 2583 aabb 2ca8 9e3a a00f 023b
00000220: 4fe7 ffb9 2e49 0dba b887 9bbb a4a6 06b8
00000230: 6d1f 0dba f922 99bb 9b7f 4c3b ce1d a53a
00000240: 905d 38ba fbb3 2038 6b91 e2ba 333e 58ba
00000250: d553 2138 049e 06bb ab30 c3b8 70e9 023a
00000260: 4546 b037 728b 9b38 4ecc 1aba f9a5 4739
00000270: 820a 9c38 38ec e2ba f346 30ba a4e5 ae39
00000280: c71d d23a daf0 c9b9 80b3 2e3b acd0 d239
00000290: c969 cab9 7645 0a3b e428 ab3a ed7d eb3a
000002a0: f364 aeb9 22d3 21ba 1e28 4a3b 3ede 9abb
000002b0: 7375 22ba a17b 1e3b 8faa 0ebb 9b79 403b
000002c0: 3525 5a38 ae6d e139 b8ac 2fba bccb 7b3a
000002d0: 0991 e139 32a5 a6ba 700d 16bb 7e3b 71ba
000002e0: 492d 433a 9db8 87ba 96a7 64bb 416f 83ba
000002f0: 93bc 87ba f03f 85bb 1872 d636 01ce 9dbb
00000300: 6f9b cb3a 3875 66b8 d2de 87ba 05a5 81b8
00000310: 1beb 68b8 83ce adb7 a9f4 34bb 6425 ceba
00000320: 1335 3338 e4c0 c237 b485 3139 d1a7 2fba
00000330: 1845 c237 5670 d0ba 36b8 023a 5880 73ba
00000340: 3774 14bb a012 02ba 4655 013b ed07 bb3a
00000350: 94c4 01ba 15d7 013b d1d6 f4ba dc09 3d3a
00000360: bc97 85bb bb65 63ba f394 313b bec9 59ba
00000370: 2973 63ba eb53 0c3b 100e 17bb 6ee9 d0ba
00000380: c3f5 f93a b0d8 cfb9 3d22 4d3a ebb4 d9ba
00000390: e1a9 d0b9 b860 d639 96b8 e639 0413 453b
000003a0: 8817 e0ba 8fb4 4bb8 5e70 86ba 1148 223b
000003b0: cb30 48b8 796d 17bb efcc f538 e4a2 12bb
000003c0: 950a 2fbb f7a3 303a 329c 83bb 24b4 413a
000003d0: 04d0 303a 2a6b a0bb 4922 4fba be7a 76bb
000003e0: 964a 45ba e8ca cb38 08db 483a 3f50 d4b9
000003f0: 7e54 cb38 4fcf 38ba a2fe aaba 77e3 1c3a

exp_avg_sq f4 [128, 8]
4.1811534e-05 1.6596842e-06 3.9842333e-05 5.291361e-05 1.7002626e-06 4.011607e-05 4.234458e-05 4.9171595e-05
3.1830157e-05 1.2687501e-06 3.0370822e-05 3.5266447e-05 1.2749639e-06 3.2142972e-05 3.1181517e-05 3.262223e-05
1.8640023e-05 6.093353e-07 1.5122251e-05 1.6695443e-05 6.0938356e-07 1.5703725e-05 1.4614311e-05 1.34869715e-05
2.0025886e-05 8.5390803e-07 2.0804735e-05 2.1607566e-05 8.568192e-07 2.7044578e-05 2.2152273e-05 2.5580264e-05
1.095219e-05 3.5498732e-07 8.805357e-06 9.627295e-06 3.5559412e-07 8.431147e-06 8.6530345e-06 1.1611286e-05
7.527433e-05 2.8077957e-06 6.812677e-05 9.006359e-05 2.8360828e-06 0.00010998795 9.260727e-05 6.202548e-05
2.8304015e-05 9.747337e-07 2.7380911e-05 2.7887096e-05 9.874209e-07 3.692353e-05 3.420915e-05 2.152051e-05
8.451379e-06 3.3874142e-07 1.0704889e-05 9.613907e-06 3.407005e-07 1.18676435e-05 8.954737e-06 1.2533871e-05
1.425314e-05 5.4225285e-07 1.6791195e-05 1.55688e-05 5.4232396e-07 1.748892e-05 1.576713e-05 1.4567335e-05
1.7749657e-05 7.0027875e-07 1.9729281e-05 2.3171378e-05 7.075055e-07 2.8142946e-05 2.00063e-05 2.0395562e-05
4.4885717e-05 1.6787795e-06 4.6437006e-05 3.6975795e-05 1.7262236e-06 4.615219e-05 3.9647453e-05 4.547016e-05
1.3551206e-05 5.027007e-07 1.3738077e-05 1.4201898e-05 5.035184e-07 1.4201669e-05 1.2893084e-05 1.405342e-05
5.8657683e-06 2.1391543e-07 5.93079e-06 7.88679e-06 2.1411668e-07 8.365031e-06 6.2421295e-06 5.0852477e-06
1.7220947e-05 6.3982924e-07 1.9302435e-05 1.909627e-05 6.4203823e-07 2.1162346e-05 1.7831102e-05 1.6135169e-05
3.632771e-05 1.4444138e-06 3.773141e-05 4.577425e-05 1.4458799e-06 4.349977e-05 4.067455e-05 3.5298715e-05
1.164172e-05 4.251434e-07 1.1126379e-05 1.888746e-05 4.25808e-07 1.3413222e-05 1.4040367e-05 1.2916876e-05
9.414058e-05 3.4477812e-06 8.702833e-05 0.00011555966 3.4783052e-06 0.00010237588 0.00012433651 9.822889e-05
3.2416978e-05 1.1907007e-06 3.0274841e-05 2.8284232e-05 1.1944547e-06 3.4263576e-05 3.3595083e-05 4.013656e-05
1.0187387e-05 4.460076e-07 1.1499551e-05 1.650868e-05 4.4584158e-07 1.5041699e-05 1.0806947e-05 1.18551625e-05
1.7120936e-05 5.8042735e-07 1.4738818e-05 1.4021569e-05 5.821828e-07 1.7795212e-05 2.3707236e-05 1.4190936e-05
1.7790648e-05 6.065691e-07 1.6503687e-05 1.3942988e-05 6.0717406e-07 1.7911538e-05 2.288346e-05 1.5821952e-05
0.00010559975 4.237026e-06 9.896005e-05 0.00011244911 4.2486186e-06 0.00011000159 0.00012507419 0.00011997405
2.3209539e-05 8.072577e-07 2.3375895e-05 2.6658898e-05 8.08719e-07 2.2137956e-05 2.6056525e-05 2.1697046e-05
6.175729e-05 2.2893996e-06 6.661559e-05 5.6133817e-05 2.3242942e-06 7.976733e-05 6.0806466e-05 4.5638822e-05
5.039407e-05 1.7331782e-06 5.2749605e-05 4.852959e-05 1.7361082e-06 3.8318813e-05 5.511824e-05 6.1577324e-05
8.6188375e-06 3.250767e-07 8.603918e-06 1.0796975e-05 3.2570614e-07 1.3783903e-05 9.9566905e-06 7.538346e-06
2.5637923e-05 1.0954542e-06 3.490501e-05 3.9965213e-05 1.1141078e-06 4.1123185e-05 3.7734655e-05 3.7223115e-05
4.3847405e-05 1.6789892e-06 4.3149306e-05 5.770338e-05 1.7303339e-06 6.080856e-05 5.6604484e-05 6.026373e-05
3.2658743e-05 1.2065905e-06 3.7899816e-05 3.2497792e-05 1.2109632e-06 3.589984e-05 2.7500682e-05 4.8387483e-05
4.1867934e-05 1.6328645e-06 4.9144637e-05 4.2917578e-05 1.6313171e-06 4.5590412e-05 4.3201944e-05 5.594504e-05
3.133941e-05 1.0877384e-06 3.5452256e-05 3.347137e-05 1.0861203e-06 2.901478e-05 2.869192e-05 4.1856747e-05
3.321589e-05 1.4593123e-06 3.4818928e-05 4.991573e-05 1.4650502e-06 4.171768e-05 4.3309064e-05 4.052031e-05
00000000: cb5e 2f38 51c2 de35 611c 2738 8eef 5d38
00000010: 9434 e435 4d42 2838 269b 3138 993d 4e38
00000020: 5f81 0538 ec49 aa35 d8c4 fe37 0feb 1338
00000030: 6d1f ab35 41d1 0638 e6c8 0238 dad3 0838
00000040: 255d 9c37 3491 2335 93b5 7d37 310d 8c37
00000050: 8594 2335 7ebb 8337 fd2f 7537 1a46 6237
00000060: 43fd a737 1d38 6535 d485 ae37 e541 b537
00000070: 2b00 6635 cadd e237 a5d3 b937 3395 d637
00000080: 4cbf 3737 1695 be34 b8ba 1337 eb84 2137
00000090: 7ce8 be34 8073 0d37 802c 1137 18ce 4237
000000a0: 99dc 9d38 906d 3c36 48df 8e38 86e0 bc38
000000b0: 8853 3e36 55a9 e638 2636 c238 ad13 8238
000000c0: 696e ed37 98d3 8235 0fb0 e537 15ef e937
000000d0: 8687 8435 57de 1a38 cc7b 0f38 f186 b437
000000e0: 65ca 0d37 44dc b534 2699 3337 6b4b 2137
000000f0: 85e9 b634 241b 4737 4d3c 1637 9148 5237
00000100: c520 6f37 558f 1135 d1da 8c37 be99 8237
00000110: 3894 1135 2bb5 9237 a743 8437 3a66 7437
00000120: 19e5 9437 cafa 3b35 4f80 a537 2860 c237
00000130: 68eb 3d35 8414 ec37 34d3 a737 2317 ab37
00000140: ac43 3c38 6d52 e135 5bc5 4238 7516 1b38
00000150: 97b0 e735 8993 4138 214b 2638 36b7 3e38
00000160: fd59 6337 54f1 0635 977c 6637 b044 6e37
00000170: 8529 0735 b443 6e37 604f 5837 fbc6 6b37
00000180: 91d2 c436 a0b0 6534 1901 c736 8151 0437
00000190: f2e7 6534 8957 0c37 7c73 d136 f2a1 aa36
000001a0: b475 9037 bbc0 2b35 aaeb a137 ed30 a037
000001b0: 8858 2c35 cb85 b137 0094 9537 035a 8737
000001c0: 955e 1838 aedd c135 cb41 1e38 bafd 3f38
000001d0: 0e10 c235 8673 3638 f799 2a38 b50d 1438
000001e0: cf50 4337 443f e434 6fab 3a37 8370 9e37
000001f0: 9b9a e434 5a09 6137 eb8e 6b37 8fb5 5837
00000200: 576d c538 6e60 6736 fb82 b638 9f58 f238
00000210: d46c 6936 a2b2 d638 5460 0239 3c00 ce38
00000220: 77f7 0738 2ad0 9f35 baf6 fd37 ed43 ed37
00000230: 2751 a035 3cb6 0f38 72e8 0c38 4e58 2838
00000240: 7eea 2a37 d172 ef34 32ee 4037 1f7c 8a37
00000250: 005c ef34 9b5b 7c37 7c4f 3537 89e5 4637
00000260: ee9e 8f37 aace 1b35 be46 7737 2e3e 6b37
00000270: 4c47 1c35 ed46 9537 e7de c637 9b15 6e37
00000280: 203d 9537 1cd3 2235 6671 8a37 adec 6937
00000290: affc 2235 bc40 9637 dbf5 bf37 62b9 8437
000002a0: 6f75 dd38 c72b 8e36 c688 cf38 a8d2 eb38
000002b0: 5b8f 8e36 a7b0 e638 5926 0339 949a fb38
000002c0: 1bb2 c237 54b2 5835 5a17 c437 8ca1 df37
000002d0: bf16 5935 e6b4 b937 f693 da37 0d02 b637
000002e0: b183 8138 96a3 1936 f9b3 8b38 3a71 6b38
000002f0: 12fb 1b36 c248 a738 720a 7f38 506c 3f38
00000300: 385e 5338 8d9f e835 753f 5d38 408c 4b38
00000310: 3904 e935 83b8 2038 c22e 6738 1323 8138
00000320: a099 1037 3486 ae34 8c59 1037 a824 3537
00000330: b6dc ae34 6a41 6737 a90b 2737 e6f1 fc36
00000340: 0511 d737 8507 9335 f866 1238 52a0 2738
00000350: 7488 9535 af7b 2c38 4745 1e38 0420 1c38
00000360: cbe8 3738 a159 e135 37fb 3438 8806 7238
00000370: d23d e835 b20c 7f38 9a6a 6d38 b0c3 7c38
00000380: 0ffb 0838 22f2 a135 9ef6 1e38 3d4e 0838
00000390: 6188 a235 2993 1638 44b1 e637 aaf3 4a38
000003a0: 5a9b 2f38 cc28 db35 a720 4e38 6602 3438
000003b0: a1f3 da35 5538 3f38 bc33 3538 87a6 6a38
000003c0: 6f72 0338 68fe 9135 92b2 1438 9c63 0c38
000003d0: cfc6 9135 c464 f337 6eaf f037 578f 2f38
000003e0: 4a51 0b38 97dd c335 8a0a 1238 9b5c 5138
000003f0: bea2 c435 05fa 2e38 c1a6 3538 5af4 2938

exp_avg f4 [128]
0.0008609343 -4.834252e-05 -0.00012459546 -0.00052983366 0.00017095088 -0.0011476821 0.00041041666 -8.3069965e-05
8.2697785e-05 -0.001244413 -0.00012137461 -5.304648e-06 -2.236382e-05 0.00020185292 0.0010137467 0.00017456229
0.0015708726 -0.0010779257 7.662922e-05 0.00014833904 -0.00077034306 -0.0012346251 0.00085994136 -0.0020709406
-0.00010989092 4.6432866e-05 -0.0009923765 -0.0017349042 -0.00079287123 -9.713439e-05 0.00134766 0.00019435158
0.00097004574 -0.00096617616 0.0002450952 0.0006870738 -0.00024890195 0.00013506293 -0.00043646313 -0.0015268376
-0.00051456055 5.253333e-05 0.0005746441 -0.00026304985 -0.00065615156 0.0003080054 -0.00064653513 -0.00011877442
0.0007271355 -5.5391985e-05 -0.001505845 -0.0006272263 -0.0008612114 -0.000434841 -0.003281474 -0.00095302786
0.00043144464 0.0009547167 0.00019820724 -0.00049793307 -0.0010857272 -0.00064322184 -4.1738334e-05 -0.00040153763
-0.00022313921 -0.0029985013 -0.00050519814 -0.0020362209 -0.00018942717 6.818537e-05 -0.00087528274 -0.0007963164
-0.000943266 -0.0018362321 -8.7936685e-05 -2.8418432e-05 0.0014951417 -0.0037494907 -0.0006076674 -0.00017222663
-0.00085170363 -8.0272235e-05 -0.0015100113 -0.00038874437 -0.00057584903 -6.079044e-05 0.0009331358 0.00019921255
0.00036647738 -6.380463e-05 -1.2167313e-05 0.0013735715 -0.0005974889 4.3980046e-05 0.0017405675 -0.0012376421
0.0009429733 0.00011655381 0.0001907706 0.0007859944 -0.00176089 0.0020681024 0.0005992899 -0.00316317
0.0003590517 0.00020616026 -0.0004419391 0.0011744194 -0.0012616478 0.0003943707 0.0006450052 -0.0010288869
-0.0028643752 -0.0005917869 -2.9463368e-05 -0.00037138237 0.0019339526 0.0010882255 -0.00075914606 -0.00018556615
-0.00052236544 -0.0006976231 -0.0012657378 -0.000751955 0.00021523311 -0.0009556769 0.00022280678 0.00054317707
00000000: 53b0 613a 63c3 4ab8 d7a5 02b9 89e4 0aba
00000010: 4741 3339 d26d 96ba 312d d739 d935 aeb8
00000020: 096e ad38 921b a3ba 7f8a feb8 94fe b1b6
00000030: f099 bbb7 7ba8 5339 b2df 843a b50a 3739
00000040: bde5 cd3a 2f49 8dba 00b4 a038 758b 1b39
00000050: d9f0 49ba 25d3 a1ba b06d 613a 9eb8 07bb
00000060: 3d75 e6b8 e9c0 4238 a112 82ba ba65 e3ba
00000070: b0d8 4fba a1b4 cbb8 f7a3 b03a dbca 4b39
00000080: ab4a 7e3a fc46 7dba 1f80 8039 be1c 343a
00000090: 0e7f 82b9 ae9f 0d39 17d5 e4b9 2b20 c8ba
000000a0: 93e3 06ba 3c57 5c38 b6a3 163a f4e9 89b9
000000b0: 9601 2cba c97b a139 3d7c 29ba 8816 f9b8
000000c0: 3d9d 3e3a b154 68b8 c65f c5ba 726c 24ba
000000d0: ebc2 61ba 5ffb e3b9 000e 57bb 9ed4 79ba
000000e0: 8533 e239 f445 7a3a dad5 4f39 b987 02ba
000000f0: f64e 8eba e39d 28ba 3210 2fb8 7885 d2b9
00000100: 7afa 69b9 8182 44bb 466f 04ba 1e72 05bb
00000110: f8a0 46b9 befe 8e38 3b73 65ba e4bf 50ba
00000120: 8245 77ba baad f0ba a66a b8b8 1e64 eeb7
00000130: a1f8 c33a 04ba 75bb de4b 1fba bc97 34b9
00000140: dd44 5fba d457 a8b8 92eb c5ba 63d0 cbb9
00000150: 93f4 16ba 3df9 7eb8 af9d 743a b6e3 5039
00000160: c323 c039 dace 85b8 3622 4cb7 6909 b43a
00000170: cda0 1cba 3777 3838 c123 e43a 6138 a2ba
00000180: de31 773a 5a6e f438 9809 4839 310b 4e3a
00000190: aacd e6ba 0089 073b aa19 1d3a 304d 4fbb
000001a0: 1a3f bc39 b92c 5839 10b4 e7b9 faee 993a
000001b0: e05d a5ba 8ac3 ce39 9115 293a b7db 86ba
000001c0: 3eb8 3bbb 2622 1bba 1a28 f7b7 19b6 c2b9
000001d0: ae7c fd3a caa2 8e3a 6e01 47ba 8994 42b9
000001e0: 5aef 08ba b2e0 36ba 1de7 a5ba d91e 45ba
000001f0: 33b0 6139 6486 7aba 3da1 6939 ff63 0e3a

exp_avg_sq f4 [128]
6.6387356e-06 5.075001e-06 2.4373412e-06 3.415632e-06 1.4199493e-06 1.1231181e-05 3.8989347e-06 1.3549655e-06
2.1690116e-06 2.8011145e-06 6.7151177e-06 2.0108027e-06 8.5566177e-07 2.559317e-06 5.777655e-06 1.7005738e-06
1.3791124e-05 4.7628027e-06 1.7840301e-06 2.3217096e-06 2.426276e-06 1.6948105e-05 3.2290307e-06 9.1575985e-06
6.932713e-06 1.3003066e-06 4.3818172e-06 6.7159567e-06 4.8263623e-06 6.5314584e-06 4.3509535e-06 5.8372493e-06
9.568576e-06 3.416206e-06 2.0271782e-06 2.8275488e-06 9.2050715e-07 8.391384e-06 1.0504442e-06 6.855353e-06
5.7819875e-06 1.5390784e-06 4.2077677e-06 3.4701168e-06 5.0375274e-06 2.717071e-06 2.7946373e-06 1.5606174e-06
1.25253455e-05 1.8818755e-06 4.6029913e-06 1.4285125e-06 3.3874926e-06 1.2385061e-06 3.2010747e-05 5.7725692e-06
2.133507e-06 5.3702092e-06 5.693692e-07 1.7268216e-05 5.4662546e-06 1.0892067e-05 3.1951774e-06 2.314246e-06
9.128778e-06 1.7155706e-05 3.856153e-06 1.7033937e-05 1.2014725e-06 5.3938984e-06 1.39426265e-05 2.7286922e-06
4.121186e-06 5.4162333e-06 1.093358e-06 1.99291e-06 2.1929076e-05 2.6497797e-05 1.4277593e-06 1.3749665e-05
2.3945763e-06 1.759821e-05 1.4468637e-05 1.1917759e-06 6.575754e-06 1.1782769e-05 4.5025313e-06 4.694467e-06
4.8305824e-06 4.881845e-06 2.4026936e-06 1.870765e-06 1.1380789e-05 2.0000334e-06 2.0775293e-05 5.8469127e-06
4.7952353e-06 2.0778446e-06 3.8244207e-06 3.5668936e-06 1.0928471e-05 1.0510556e-05 1.2658445e-05 2.1339132e-05
9.3316896e-07 8.81199e-06 1.1789615e-06 1.2073041e-05 9.8576475e-06 7.9405413e-07 1.9892495e-06 6.8644645e-06
1.1111915e-05 1.3697164e-05 1.4962238e-05 5.8074447e-06 7.66657e-06 6.335287e-06 5.540125e-06 3.4772615e-06
4.9352234e-06 4.788346e-06 2.9830824e-06 2.2675736e-06 1.1641456e-06 2.2613262e-06 7.772954e-06 1.7287275e-06
00000000: 4ec2 de36 ed49 aa36 3491 2336 1c38 6536
00000010: 1695 be35 8e6d 3c37 98d3 8236 43dc b535
00000020: 568f 1136 c8fa 3b36 6c52 e136 54f1 0636
00000030: a1b0 6535 bbc0 2b36 aedd c136 453f e435
00000040: 6d60 6737 2ad0 9f36 cf72 ef35 abce 1b36
00000050: 1bd3 2236 c72b 8e37 53b2 5836 96a3 1937
00000060: 8d9f e836 3286 ae35 8607 9336 a159 e136
00000070: 23f2 a136 cd28 db36 68fe 9136 97dd c336
00000080: b988 2037 f941 6536 a80a 0836 ebc0 3d36
00000090: c518 7735 b8c8 0c37 fdfc 8c35 0907 e636
000000a0: e502 c236 5592 ce35 7330 8d36 27e0 6836
000000b0: 0808 a936 ed56 3636 818b 3b36 6876 d135
000000c0: f323 5237 c094 fc35 6573 9a36 51bb bf35
000000d0: ae54 6336 bf3a a635 4743 0638 feb1 c136
000000e0: 5f2d 0f36 bf31 b436 c1d6 1835 36db 9037
000000f0: c56a b736 12bd 3637 bb6c 5636 724e 1b36
00000100: ce27 1937 99e9 8f37 1a64 8136 1ae4 8e37
00000110: 4842 a135 3cfd b436 20eb 6937 931e 3736
00000120: b848 8a36 17bd b536 7fbf 9235 efbd 0536
00000130: 55f4 b737 9647 de37 70a1 bf35 5dae 6637
00000140: 82b2 2036 de9f 9337 53be 7237 1cf5 9f35
00000150: 4ca5 dc36 9cae 4537 7314 9736 2a85 9d36
00000160: 6316 a236 bbce a336 f63d 2136 ff16 fb35
00000170: 1ef0 3e37 5038 0636 9a46 ae37 9930 c436
00000180: c2e6 a036 1971 0b36 8653 8036 c45e 6f36
00000190: 6d59 3737 7f56 3037 9b5f 5437 7001 b337
000001a0: e27e 7a35 35d7 1337 cf3c 9e35 518d 4a37
000001b0: 4662 2537 fc26 5535 0c7f 0536 4d55 e636
000001c0: 506d 3a37 dfcc 6537 5306 7b37 92dd c236
000001d0: ab9f 0037 b393 d436 50e5 b936 e65a 6936
000001e0: 3f99 a536 94ab a036 f730 4836 9e2c 1836
000001f0: bd3f 9c35 4ac1 1736 9568 0237 a006 e835
