RollerBall/results/RollerBall_v4/RollerBall/RollerBall-70008.onnx (onnx, 76122 bytes, 7 tensors)

network_body._body_endoder.seq_layers.0.weight f4 [128, 8]
000000 bd fa c5 3d d2 b6 c6 be 75 b3 f7 3d 77 a2 2b 3f
       0.09666965 -0.38811356 0.120947756 0.67044777
000010 d6 ea 14 3d db 75 fb 3e 40 29 3a 3f ce 06 46 3d
       0.03635677 0.49113354 0.7271919 0.048346333
000020 66 f0 2a bf ce be 7d bc 1c e3 47 bd bc 61 b5 3e
       -0.6677307 -0.015487386 -0.048800573 0.35426128
000030 c5 d3 7a 3c 40 a5 a6 3e dc 54 ab 3e b6 f9 3a be
       0.015309279 0.3254795 0.3346318 -0.1825932
000040 85 3d 17 bf c2 56 12 3f 12 72 c8 bd 0e 3d 37 3e
       -0.59078246 0.5716363 -0.09787382 0.17894384
000050 a7 61 93 be 52 81 06 3e f9 1f 81 be 51 2c 77 3e
       -0.2878544 0.1313527 -0.25219706 0.24137999
000060 02 3e bb 3e 9e e7 8f bd 55 e6 36 3e f6 91 4f 3e
       0.36570746 -0.07026599 0.17861302 0.20270523
000070 71 e2 01 3d 1d ae f7 3e a1 e1 f2 be 40 b7 6b bf
       0.031710092 0.48375025 -0.47437766 -0.9207649
000080 e1 da 9c bf bf 6e 5b 3e 55 64 21 3f 20 a0 91 be
       -1.2254297 0.21428965 0.6304372 -0.28442478
000090 4f a9 37 bf cc ab da 3e d2 7d c8 bd 82 a3 ba 3e
       -0.7174272 0.42709196 -0.09789623 0.36452872
0000a0 3b 6a 6a be df a5 e4 be 23 89 d8 3e 23 bd 83 be
       -0.22892086 -0.446578 0.42292127 -0.25730237
0000b0 c8 3b 70 be dc 22 ef 3c 8a 02 c9 be 86 51 a3 3d
       -0.23460305 0.029191427 -0.3925975 0.07974534
0000c0 0a df b4 bd 42 8b 64 be ef d0 cd bd 79 cc d1 bd
       -0.08831604 -0.22318748 -0.100496165 -0.10244078
0000d0 4c 29 aa bc 1a 2a a4 be bc 5c ce be 84 7a 5b 3c
       -0.020771645 -0.3206337 -0.40305126 0.013395909
0000e0 9a 54 53 be 9a a7 cb 3e e9 1e 94 be 8e b3 e6 3d
       -0.20637742 0.39776307 -0.28929833 0.11264716
0000f0 10 05 9d bd 9a 06 48 3e e7 5c 14 be 24 f9 10 bf
       -0.07666981 0.19533768 -0.14488564 -0.5663016
000100 40 ee bc be 53 63 ef be 9b 58 09 bf 1f d1 5b be
       -0.3690052 -0.46755466 -0.53650826 -0.21466492
000110 1c 03 1e be f4 a1 40 bd cf 4e f5 be 3a 33 97 be
       -0.15430874 -0.04702945 -0.4791169 -0.2953127
000120 78 49 bd 3e f5 1a be 3e a2 d1 f3 bd 81 71 8c bc
       0.36970115 0.37129942 -0.11905219 -0.017143967
000130 b8 16 2a bf c7 39 d2 be b4 03 03 3d 23 42 01 3d
       -0.66440916 -0.41059706 0.031985953 0.031557214
000140 41 21 ce bd 0d f0 86 be 15 03 c7 be 3b f9 75 bf
       -0.100649364 -0.2635502 -0.3886954 -0.9608342
000150 e3 16 de 3c e5 04 51 be b2 45 e9 bd 81 e0 f4 3d
       0.027110523 -0.20412023 -0.113902465 0.11956883
000160 89 6d b7 3d bb af 64 3f cc 1b 87 3c 08 34 a2 bd
       0.08956439 0.89330643 0.016492747 -0.079200804
000170 73 eb f4 be b8 d0 b8 3d 96 0a 82 bd f9 fd 24 3d
       -0.47835883 0.09024185 -0.06349675 0.04028127
000180 8e 7f b2 3e ac 1b d5 bd 75 43 2a bf af af f1 bd
       0.34862942 -0.104056686 -0.6650918 -0.11801087
000190 ff 66 ed 3d 00 86 9b bf dc 3a 4e bf cb b8 1a bd
       0.115919106 -1.2150269 -0.8055856 -0.03777389
0001a0 f2 c4 a6 be f9 1d a0 bd 6f 20 d8 be 22 13 21 be
       -0.32572132 -0.07818217 -0.42212245 -0.15729955
0001b0 94 1b 01 3e 42 72 56 3e a4 db 22 bf 2f 99 bf 3e
       0.12608176 0.20942023 -0.63616395 0.37421557
0001c0 c8 ae 90 be 64 b3 80 bd 68 dd 05 3f db 1e a4 3e
       -0.28258348 -0.06284216 0.52290964 0.3205479
0001d0 8f 9a ba be 6d e3 20 3f 09 84 c3 be 7c 7e bb 3e
       -0.36446044 0.62847024 -0.38186672 0.36619937
0001e0 e6 e3 c9 3e 25 5d d5 be 67 c1 35 bd ee 6a d3 3e
       0.39431685 -0.41672626 -0.044373896 0.41292518
0001f0 f8 2b c7 be b4 08 55 3c 77 fc ac bc d2 ae 16 3f
       -0.38900733 0.013002563 -0.021116478 0.58860505
000200 9a 85 9d 3c 4a 78 e3 3e af 1d 30 be 7c 07 31 3d
       0.019228745 0.4442771 -0.17198823 0.04322003
000210 75 dc 20 3d 63 de 1f 3c aa be 8b 3d 4c 60 40 3f
       0.039272744 0.009757611 0.06823476 0.7514694
000220 20 48 c1 3d 6b ef bd bc 00 fb b1 b9 df b4 24 bf
       0.09437585 -0.023185452 -0.0003394708 -0.6433849
000230 18 69 5b be ab b3 ae 3e 3e fc a7 3d a6 0d d1 3e
       -0.21426809 0.3412145 0.08202408 0.40830725
000240 eb 29 1d bf bc 64 46 bf 93 c5 94 3d 91 60 65 3e
       -0.61392087 -0.7749746 0.07264247 0.22400118
000250 11 2a 33 3f 71 49 89 bb 6b d4 55 bf df f9 99 3e
       0.69986063 -0.004189663 -0.8352725 0.3007345
000260 27 b9 94 3e a6 08 87 be 2d f8 1d be b7 89 0b bd
       0.2904751 -0.26373786 -0.15426703 -0.034066882
000270 5d e5 ab 3d a7 8c 85 bd 2d 34 5f 3d 8d 28 43 3e
       0.08393357 -0.06520968 0.054493118 0.19058438
000280 c0 cf 36 bf cc 7c 43 3e b3 4a 3e bf bc 9b 5e bf
       -0.7141075 0.19090575 -0.7433273 -0.8695638
000290 d9 26 2d 3e ae 18 0b bf c7 6b 44 3f 8a 6c 0d 3d
       0.1690935 -0.54334533 0.76726955 0.03452734
0002a0 bb 28 27 bb 84 18 b3 3e ba d3 9b 3e c8 bd fa 3d
       -0.0025506455 0.3497964 0.30434972 0.12243229
0002b0 ba 1b 06 3f a8 0a c0 bd 1e 74 2e 3f 9f 23 0a bf
       0.5238606 -0.093770325 0.6814593 -0.53960603
0002c0 c9 56 25 be b1 7d d7 be 34 5c 61 bd 83 26 36 3e
       -0.16146387 -0.42088082 -0.055019572 0.17788129
0002d0 de 96 5c bd 2d 0e 51 3e 48 b8 c9 bd 67 ab 1b 3e
       -0.053854816 0.20415564 -0.09849602 0.15202104
0002e0 b7 ae 5b 3e b7 49 1b 3f 8f 8b e5 3e 1b d4 54 be
       0.21453367 0.60659355 0.44833037 -0.20784037
0002f0 60 20 59 be 46 45 a4 3d 28 86 b3 be a0 87 2a be
       -0.21203756 0.08021025 -0.3506329 -0.166533
000300 0f 3a c1 be 77 57 c5 be d4 0a 96 be 8b 98 18 3e
       -0.37739608 -0.38543293 -0.29305136 0.1490194
000310 44 c2 a6 be 50 06 2b 3e f2 dc 9a 3e ff 85 44 be
       -0.32570088 0.16701627 0.30246693 -0.1919174
000320 d6 cf 83 3e 3a 1e e6 3d df ab 5c 3f 7c bb 58 be
       0.25744504 0.11236234 0.86199754 -0.2116527
000330 a2 01 de 3d ee b4 6c 3e b7 52 e9 bc 46 a1 6c bb
       0.10840155 0.23115894 -0.028481824 -0.0036106869
000340 5a 45 0b 3f d0 99 d4 bc ad c9 3b be 94 84 6c bd
       0.544027 -0.02595225 -0.18338652 -0.057743624
000350 21 b8 a6 3d 14 d3 8e be 8d 8b 3d 3e 42 cb 89 3d
       0.081405886 -0.27895415 0.18510266 0.067282215
000360 62 de c2 3d db 5d 4f bd e5 9c ba 3d cd f9 78 bd
       0.095150724 -0.050626617 0.091119565 -0.060785104
000370 22 2e 2e bc a6 ec a0 be bd 9c 8d 3e fe 72 03 3e
       -0.010631116 -0.31430548 0.27658644 0.12836835
000380 1c e6 f2 bd 96 97 b2 bd 6a 0d 8f be 4a 71 fa bd
       -0.11860296 -0.08720319 -0.27939922 -0.122286394
000390 2c 8c c4 3e 32 bc a2 3c dc d6 02 3d 0c d4 fe be
       0.38388193 0.01986513 0.031943187 -0.49771154
0003a0 70 53 7e 3e 76 62 01 3c 09 c7 73 be 2e 6c c2 bd
       0.24836516 0.00789701 -0.23806395 -0.0949329
0003b0 2e 10 70 be 23 bc 9b 3e eb c2 6e be de 3f bb be
       -0.23443672 0.30416974 -0.23316543 -0.36572164
0003c0 ef aa 51 bd 5f 37 4f bf ce 9b 22 bf ba ef 14 3d
       -0.051188406 -0.80943865 -0.6351899 0.036361434
0003d0 d8 f0 8e 3d cb b2 08 3f f7 c2 db be 7e 8b e5 be
       0.06979531 0.53397816 -0.42922184 -0.44832987
0003e0 28 c8 62 3f 4e 1e 2a bd f3 a7 bb bc 5d 03 86 3f
       0.88586664 -0.041532807 -0.022907233 1.0469776
0003f0 79 fe 75 3e 97 df 41 3f 93 5f 41 3d 06 a5 60 be
       0.24022855 0.75731796 0.047210287 -0.21937951

network_body._body_endoder.seq_layers.0.bias f4 [128]
000000 eb be 87 3c 8e 3d 5b bc 2b 20 1e 3d b8 7c 49 3c
       0.016570529 -0.013381375 0.038604897 0.012297802
000010 03 df 84 3c cc 64 20 3d fd 0a b2 bb 1d 44 e5 ba
       0.016219622 0.039158627 -0.005433439 -0.0017491613
000020 7d 2e 59 3c 1a 78 23 3d eb 7b d1 3c e5 57 14 bb
       0.013255713 0.03990946 0.025571784 -0.0022635397
000030 bd 78 11 3c 05 43 a5 bc 3d 0f a1 3c 46 f2 f1 3b
       0.008878884 -0.020173559 0.019660586 0.0073836176
000040 ea 1a 75 3c 30 31 13 3d c5 ef 51 3c a6 72 84 3c
       0.01496003 0.03593558 0.012813513 0.01616795
000050 30 79 d0 bb 67 cd 0f 3d 47 2f 21 bc 53 c4 d1 3a
       -0.006362103 0.035107996 -0.009837932 0.0016003944
000060 40 5c f6 3c bc 6b f0 bb 5e 5c 83 bb 03 87 3d 3d
       0.030073285 -0.0073370617 -0.0040088138 0.046271335
000070 86 ce 9c 3c 27 5a fb 3c 32 b2 39 3c db 9b 82 3d
       0.019141447 0.030682636 0.011333989 0.06377383
000080 a2 16 10 ba 59 b0 1a 3d df 47 f1 bc 7f e5 2c bd
       -0.00054965366 0.037765834 -0.029453216 -0.042211052
000090 7d b3 20 bb 4d 12 7f 3d 20 41 04 3c a8 9b b3 3c
       -0.0024521046 0.062273312 0.008072168 0.021924809
0000a0 cf a5 d5 3c a9 9d 3b 3c 01 3a 59 3c 61 12 8c bc
       0.02608004 0.011451163 0.013258458 -0.017098607
0000b0 a1 a2 87 3b 99 04 d6 bb f0 88 89 bc 12 c9 1f bc
       0.00413926 -0.00653131 -0.01678893 -0.009752529
0000c0 30 00 25 3d 00 3f 75 bd a3 27 c0 3c b8 da 66 3d
       0.040283382 -0.059874535 0.0234564 0.05636093
0000d0 09 88 43 3b bb d5 e6 bc 3e fc 0f 3d bc d0 f8 3c
       0.0029835722 -0.028178087 0.035152666 0.03037297
0000e0 5f a9 fe 3c d3 ec 67 3c 75 35 97 bc d2 69 5a 3d
       0.031086622 0.014155584 -0.018458107 0.053323574
0000f0 af 24 42 3d 96 2e 2d 3d 4e 0a d3 bc 18 8d cd 3c
       0.047398265 0.042280756 -0.02576175 0.025091693
000100 a0 b3 e1 3c 70 8c 46 3d d9 f9 f8 bc 5f 43 89 3d
       0.027551472 0.048473775 -0.030392574 0.06702303
000110 bb 26 5c 3b 63 d8 1d bd d8 f8 2d 3d f2 fb a0 37
       0.003359242 -0.03853644 0.042473644 1.9190808e-05
000120 10 8c 30 bc 2c 31 22 bd f6 4b 0f bd 83 56 bd bc
       -0.010775581 -0.039597675 -0.03498455 -0.023112541
000130 de 32 61 3d 96 84 5d 3d 93 18 d6 bb f0 cf 21 3d
       0.05498015 0.054081522 -0.006533691 0.039504945
000140 34 d5 85 bc 04 72 8f 3d 0f 61 2c 3d 32 d3 4c 3b
       -0.016337015 0.07004169 0.04208475 0.0031253812
000150 e1 0e 1e 3d 50 b1 1f 3d 57 cd 20 bb 85 e7 25 bc
       0.03858841 0.038987458 -0.0024536455 -0.010125999
000160 61 5b 2e 3c f0 9b a1 3c c6 d4 81 3c 58 65 81 bc
       0.010641904 0.019727677 0.015848529 -0.015795395
000170 a6 c6 5d 3d 0a c4 44 3c 00 11 52 3d f4 ae 9b 3d
       0.054144524 0.01200963 0.051285744 0.07601729
000180 ee d9 5f bc 37 97 be 3b e2 73 27 bc 2c 5b 23 bc
       -0.013662798 0.005816366 -0.0102205 -0.009970468
000190 47 6f e3 3c 05 73 7f 3a c5 f7 41 3d a8 7e 40 3d
       0.027763022 0.0009744617 0.047355432 0.04699579
0001a0 35 96 4a bd 28 79 18 3d a7 6c 17 3d 31 1a 09 3c
       -0.049459655 0.03722492 0.036968853 0.008368061
0001b0 55 34 ab 3c 50 f3 a9 bc d5 16 2c 3d 02 cf ff 3c
       0.020898977 -0.020745903 0.04201396 0.031226639
0001c0 31 5d 84 3d 8b c5 5a 3d 8c 33 d7 3c c3 08 5a 3c
       0.06463087 0.053411048 0.026269697 0.013307753
0001d0 1c 62 03 3d ed 81 cf 3c 6e 9e ad 3c 6b 2c 47 3b
       0.032075986 0.025330508 0.02119371 0.0030391465
0001e0 a4 82 3e 3c 08 02 05 3c bb 47 d1 bc f9 5e 33 bc
       0.011627827 0.00811816 -0.025546899 -0.010947936
0001f0 1d bd 05 3d b5 82 8e 3b b0 31 ad 3c 7e d9 bf 3c
       0.032651056 0.0043490776 0.021141857 0.023419138

network_body._body_endoder.seq_layers.2.weight f4 [128, 128]
000000 a1 06 54 3d 3c 30 21 be 36 fd 19 3e 9b d4 75 bd
       0.051764134 -0.15741056 0.15037999 -0.06001721
000010 b5 6c 03 3e 25 e6 3f 3e 96 01 01 3e 56 26 85 3d
       0.12834437 0.18740137 0.12598261 0.065014526
000020 74 5f d6 3d ae fc ef 3d 15 f2 80 3b 47 bb f6 3c
       0.10467425 0.11718117 0.0039351084 0.030118598
000030 28 eb ad 3d 94 9a e1 bc 86 25 06 be dc 6b 6e bc
       0.08492118 -0.027539529 -0.13100252 -0.014552083
000040 9a 97 00 be 56 08 19 3d f6 a0 95 bd 3b 5c 69 bc
       -0.12557831 0.037361465 -0.073060915 -0.014243181
000050 a8 b3 5c be 25 14 0a bd 33 49 f6 bd 72 45 9a bb
       -0.21552908 -0.033710618 -0.120256804 -0.0047079856
000060 fa 94 51 3c 67 36 cd bd b5 05 29 bd b1 69 1b 3e
       0.012791866 -0.10020142 -0.04126521 0.15177037
000070 52 c3 88 3d ef 73 0b 3d 0f 7b 13 be 07 93 39 3d
       0.066778794 0.03404611 -0.14402412 0.04530623
000080 c8 89 9c bd ab 96 b5 3d 49 fa c0 bd 21 71 41 3c
       -0.07643467 0.08866628 -0.09422738 0.011806757
000090 00 0d a0 3c dd d4 7c be 9a ad 94 3b 50 d8 2a 3c
       0.019537449 -0.24690576 0.0045372965 0.0104275495
0000a0 cb b1 35 bd 6b 13 fe bd ed 3b 6c 3d 84 07 27 bc
       -0.04435901 -0.124060474 0.057674337 -0.010194663
0000b0 41 bb 43 bd fa b1 37 3e d6 cf 56 3e 36 4c 14 be
       -0.047786 0.17938986 0.2097772 -0.14482197
0000c0 7f 97 eb bc 34 70 ad bd dc 2b 9b 3c 3d 58 48 bd
       -0.028758762 -0.08468667 0.018941812 -0.048912276
0000d0 4e 55 2f 3d 1c e2 1b ba 2c 55 62 3c 08 55 08 3e
       0.042805962 -0.00059464737 0.013814252 0.13313687
0000e0 3b 79 93 3e 97 84 d6 3c ea 85 7c bd 7f 72 08 3c
       0.2880343 0.02618627 -0.061651148 0.008328079
0000f0 70 02 16 bd fa 1f e3 bb e9 c2 1e bd 98 fe 00 bc
       -0.03662342 -0.006931302 -0.0387601 -0.0078732
000100 71 76 94 bd 31 94 04 3e f8 03 10 3e 67 b2 af bd
       -0.072491534 0.12947156 0.14064014 -0.085789494
000110 2d b2 f1 3d e5 91 81 bd 29 e2 4c bd 09 7b 5e 3c
       0.118015625 -0.06326655 -0.05002037 0.013579139
000120 99 36 ba 3c 8b af fc bd 1d a3 12 3d 89 1c bd bd
       0.022731112 -0.1233817 0.03580009 -0.09233958
000130 52 f6 d2 3b e5 35 b2 bc a0 68 af 3d df 32 e2 3c
       0.006438055 -0.021754215 0.085648775 0.027612148
000140 e5 7e e7 bc 79 70 a1 bd f5 2a 99 bd 60 ba 0c 3d
       -0.02825875 -0.078827806 -0.074788965 0.03435743
000150 a0 aa 95 3d 9c 50 99 bd 3c ae 50 be d4 06 c1 bd
       0.07307935 -0.07486078 -0.20378965 -0.094251305
000160 12 82 9b bd 46 61 50 3d d2 e2 9d bd 24 61 3c 3d
       -0.07593168 0.050874017 -0.07709278 0.045991078
000170 23 59 06 bd c5 41 14 bd e9 31 b2 bd 86 02 8d 3d
       -0.03279985 -0.036195535 -0.08700926 0.06885247
000180 2b 8d e7 3d 9b 54 81 3d 90 0e e5 3c 65 77 34 be
       0.113062225 0.06314965 0.027961046 -0.1762367
000190 46 6e e8 3c d7 f1 b9 bd 8d c4 ea 3c 69 de e7 3d
       0.028372895 -0.090793304 0.028658176 0.11321718
0001a0 ba 92 42 3d 78 81 cc 3d 19 e7 f4 bc ab f0 98 be
       0.04750321 0.09985632 -0.029895352 -0.29871115
0001b0 80 74 54 3d 12 09 87 bd f7 1e 0a 3e 38 96 87 bc
       0.051868916 -0.06593527 0.13488375 -0.016551122
0001c0 94 c5 a7 bd 7d 0b e1 3d 70 67 dd bd ad 40 6a 3d
       -0.08191982 0.10988519 -0.10810745 0.057190586
0001d0 15 05 82 bd d4 e0 ae 3d 6a c5 7d 3e a6 69 7a 3d
       -0.063486256 0.08538976 0.24782339 0.06113591
0001e0 94 0c 80 bd ef 8c cf 3d 37 b2 87 bd ad 6c 28 bd
       -0.06252399 0.10134303 -0.06625789 -0.041119266
0001f0 d1 e2 3d bd 2c 23 b9 bd 82 da 94 3d 77 26 ca 3d
       -0.046358887 -0.09039912 0.072682396 0.09870618
000200 62 d9 e2 3d 3c 62 bd 3d a1 ae bc 3d bb 79 fe bc
       0.11076619 0.09247252 0.09212995 -0.031063905
000210 ed 17 11 3d bc 10 89 3d 45 a8 be bd 90 da 4b 3d
       0.035423208 0.06692645 -0.093094386 0.049768984
000220 0f 8c b5 bc 24 86 7b be 2d 5d 4c be 86 6d 5d bd
       -0.022161512 -0.2456289 -0.19957419 -0.054059528
000230 80 b8 f3 ba 61 25 e3 3d ed b9 cc 3d 4f 96 7d be
       -0.0018594414 0.11091114 0.099964 -0.2476437
000240 ae 73 86 bb 75 4f d7 bd de 76 ad 3c 48 62 21 3e
       -0.0041031456 -0.10513202 0.021174844 0.15760148
000250 7f fe ca 3d 9f 80 63 3c 4b 9f 43 3e 4c 0b 9f 3c
       0.099118225 0.013885646 0.19103734 0.019414566
000260 0e 94 43 3d 7e a4 58 bc f6 87 11 bd 20 b2 30 bd
       0.047748618 -0.013222812 -0.035530053 -0.043138623
000270 79 d0 e6 37 c4 1e a4 3a 6b 72 22 3e 63 df e9 3c
       2.7515214e-05 0.0012521376 0.1586396 0.028548902
000280 4a 04 bf 3d ac 37 27 bd fa 02 ac 3d 7d af 94 bd
       0.0932699 -0.040824577 0.08399005 -0.07260034
000290 7b 9e 07 bb 20 fc 8c bd 4f 1b 41 3e e5 9c 99 3d
       -0.0020693827 -0.068840265 0.18858074 0.075006284
0002a0 4e ff f0 3d c7 a9 da bc df f3 6c bc f9 42 75 bd
       0.117674455 -0.026692284 -0.01446244 -0.059878323
0002b0 e5 09 cf 3d 01 f6 40 bd 83 60 8d bc ac a6 93 3d
       0.10109309 -0.047109608 -0.017257934 0.072095245
0002c0 c8 55 4f bd 15 6c 8f bd ac 44 b1 3d 07 f5 75 3d
       -0.050618917 -0.07003037 0.08655676 0.06004813
0002d0 71 5d ca 3d e9 84 86 3c aa cf 09 be 19 48 f2 bd
       0.09881104 0.016420798 -0.13458124 -0.11830158
0002e0 79 d8 48 bd 75 a9 19 3d 34 a1 fc bc e4 80 82 bd
       -0.04903457 0.037515122 -0.030838586 -0.0637224
0002f0 f3 d6 3c be 00 87 82 bd e3 52 ea bd 0c 5f 02 bd
       -0.18441372 -0.063734055 -0.11441591 -0.031828925
000300 45 4d f7 3c 86 ab f4 3c b3 5f 23 3c ef 3a c8 3c
       0.030188212 0.029866945 0.009971547 0.024442164
000310 98 ae 86 3b 87 54 b6 bc 22 70 99 3c 14 2e b1 3d
       0.0041101687 -0.022257103 0.018730227 0.08651367
000320 24 5c 7c bc 60 c2 c3 bb bb 89 df 3d 8c a8 18 3e
       -0.015402827 -0.005974099 0.10914942 0.14908046
000330 e0 b1 c3 3b c9 18 30 3d d7 ea 2b bc 02 0d 91 bd
       0.005972132 0.042992387 -0.010493002 -0.07082559
000340 26 46 f9 bd 4c d6 d2 3d bf 0a 8b 3d 81 f7 88 3d
       -0.12171583 0.1029478 0.06789159 0.066878326
000350 81 eb a2 3d 2f 52 19 3e ea 9b a9 3d b5 b3 1b be
       0.07955075 0.14972757 0.08281691 -0.15205272
000360 a6 8a 09 be c4 d9 8c bd 71 38 26 be 17 ca 5d 3d
       -0.13431796 -0.06877473 -0.16232468 0.054147806
000370 f6 03 cb 3c 24 3c 2d be b4 6c bd bc 95 33 0d 3d
       0.024782162 -0.16917473 -0.023123123 0.03447302
000380 75 c2 da 39 0b f4 14 bb e5 a3 87 bd 7c 10 fc bd
       0.00041725082 -0.0022728469 -0.06623057 -0.12307832
000390 71 23 c2 3c 9b 2f c9 bd 77 70 e8 bc 66 42 b2 bd
       0.02369854 -0.09823533 -0.02837394 -0.08704071
0003a0 d7 5d e6 bd 96 a6 88 bd 78 a8 94 bd 14 0b 41 3d
       -0.11248367 -0.06672399 -0.07258695 0.047129706
0003b0 1e d5 f2 bd 8b cb 44 be 80 a6 8d bd 34 66 47 3e
       -0.11857055 -0.1921827 -0.06916523 0.19472581
0003c0 e1 17 38 be ee c1 0f 3e 1d df 27 3e ca f7 01 bd
       -0.17977859 0.14038822 0.16393705 -0.03173045
0003d0 d5 3a e0 bd d0 79 a1 3d 4a c6 8f bd 90 78 2a bd
       -0.10948721 0.07884562 -0.070202425 -0.041618884
0003e0 d0 15 0a 3e c1 53 d3 bc a4 bd 2a bd 76 94 56 3d
       0.13484883 -0.025796773 -0.04168476 0.052387677
0003f0 8f 32 70 bd 6c e5 77 be 2f 57 07 be df 44 03 bb
       -0.058641966 -0.24208611 -0.13216852 -0.0020030064

network_body._body_endoder.seq_layers.2.bias f4 [128]
000000 8f f8 99 3d 72 27 e3 3c fd a6 45 3d 00 3b b8 ba
       0.07518112 0.02772877 0.048254956 -0.0014055669
000010 56 49 53 ba c9 9a ca ba b9 e1 c0 bb 1c 8e 91 3d
       -0.0008059939 -0.0015457507 -0.0058862832 0.07107183
000020 81 1f 17 3c 8d 04 48 3d c2 1d 4f 3c 54 76 a9 3c
       0.00922382 0.048832465 0.012641372 0.020686306
000030 f7 94 94 3b 9b 00 1a 3d 8c e9 da 3b 32 8f 5e 3b
       0.0045343596 0.037598234 0.006680673 0.0033959863
000040 88 ba 08 3d 33 5f 0a 3d 97 7f 4c 3b 84 39 43 3d
       0.033381015 0.033782195 0.003120398 0.047662273
000050 33 a8 c6 3c 7c af 4b 3d 8e fb 55 bc b3 cf 97 ba
       0.024250126 0.0497279 -0.013060464 -0.0011582285
000060 c6 6c c6 3c 29 7f a9 3c 90 c3 3f 3d c1 78 06 bb
       0.02422179 0.020690518 0.046817362 -0.0020518752
000070 c5 e0 14 bc a3 57 81 3c e4 a1 02 3d 00 ba 8b 3c
       -0.009086792 0.015788859 0.031892672 0.017056465
000080 56 fb e1 3c 01 a0 c2 3c cd 66 80 3d a6 c5 b8 3c
       0.027585667 0.023757936 0.06269608 0.022555184
000090 c5 2b 84 3c c8 90 e2 3b ec 56 c7 3b 66 3a da 3b
       0.016134152 0.006914232 0.00608336 0.0066597937
0000a0 bc a1 7d 3c ce 09 ab 3c d7 18 95 3c 09 04 d2 ba
       0.015480455 0.020878699 0.018200321 -0.0016022931
0000b0 7c b8 d8 bb 5d d5 cc 3c 3b d0 53 3d 39 72 78 3c
       -0.006613789 0.025004083 0.051712256 0.015163952
0000c0 8c 84 68 3d 4a 23 67 3d 9f 61 df 3b e5 16 fd 3b
       0.05676703 0.05643014 0.0068170573 0.0077236765
0000d0 ae 38 25 bb b5 c5 42 3d b0 c7 d4 3b 5b 4c 09 bd
       -0.0025210786 0.04755183 0.006493531 -0.033520084
0000e0 2e 4e 32 3b f2 c8 35 3c c4 7e da 3c 87 33 94 3c
       0.0027207243 0.011095272 0.026671775 0.018090976
0000f0 c4 64 86 ba 5f 39 e1 3c f2 35 3d 3d 2c eb 96 3b
       -0.0010253419 0.027493177 0.046194024 0.0046056714
000100 11 3f f5 3c 29 d9 ad 3b 50 78 89 3c aa 32 7f 3c
       0.029937299 0.0053054285 0.016781002 0.015576044
000110 2e aa 5f 3d 8c 3a 2a 3d 53 9e 9c 3c f2 4c 24 3b
       0.054605655 0.04155974 0.019118464 0.0025070277
000120 4f 3b 1a 3c 34 28 9b 3c 69 6f 28 3b 7e d0 c0 3c
       0.009413554 0.018940069 0.0025701171 0.023536917
000130 7b a8 2f 3c b9 32 a8 3c 1f fa 3f 3c ee 15 4f 3c
       0.010721321 0.020531999 0.011717348 0.012639506
000140 2f 64 94 3d 9e ec 2d bc 86 80 2d bc 0a 9a c2 3b
       0.07245671 -0.010615496 -0.010589724 0.005938773
000150 6c a0 9c bb 88 34 ec 3a a2 76 01 3d f6 c9 8d bc
       -0.004779866 0.0018021027 0.031607278 -0.017308217
000160 ca 13 fe 3c f6 52 aa 3c 1f 55 ac 3c 5d 16 22 3b
       0.031015296 0.020791512 0.021036683 0.0024732568
000170 00 cb 6a 3c 52 db 9d 3c 4b f8 03 3c a9 26 88 3c
       0.0143306255 0.01926962 0.008054803 0.016619997
000180 e5 2a 8a 3c 00 51 42 3c 29 d7 24 bc 64 c5 15 3d
       0.016866157 0.011860132 -0.010061064 0.0365652
000190 51 92 7f bc 85 da dd 3b 0b 42 5c 3c c6 fc 5e 3d
       -0.015598849 0.0067704343 0.01344348 0.054440282
0001a0 5f 30 dc bb 75 20 93 3d 22 9e 1c 3d 1d a8 6a 3d
       -0.0067196335 0.07183925 0.038236745 0.05728923
0001b0 ac 10 65 3c 67 a6 e3 3c cd 0f b6 bb 3e 8d 33 3d
       0.013981026 0.027789308 -0.005556083 0.04383587
0001c0 e8 0a 48 3d 26 99 45 3b bf d5 d7 bb 29 58 2a 3c
       0.048838526 0.0030151098 -0.00658676 0.010396996
0001d0 60 c7 69 3c d2 ba 04 3c 72 77 53 bb a9 2f 37 3d
       0.014268726 0.008101182 -0.003226724 0.044723187
0001e0 f8 64 1e 3c 13 ff 99 3c 93 41 16 3d 76 1f a8 3c
       0.0096676275 0.018798387 0.03668363 0.020522814
0001f0 7f 84 db 3c 9e 6f cd 3c ca 7b 0d 3d b7 09 35 3c
       0.026796577 0.025077637 0.034541883 0.0110496795

action_model._continuous_distribution.log_sigma f4 [1, 2]
000000 99 73 9f bc 40 c6 8c bc
       -0.019464301 -0.017184377

action_model._continuous_distribution.mu.weight f4 [2, 128]
000000 4e 79 a0 3d e0 c7 12 bd 1a 2c 00 3d 36 2a a7 bc
       0.07835637 -0.035835147 0.03129206 -0.02040587
000010 c7 ab 96 bc 7b 60 9b 3c 8e ec 70 3c 76 09 a1 bd
       -0.018392457 0.018966904 0.0147048365 -0.07863133
000020 0d f4 69 3b 0f 38 8a 3c a6 33 ed bc f3 31 47 3d
       0.0035698444 0.016872434 -0.028955292 0.04863162
000030 bc 3d cf 3c a8 18 2b bd 8c 0c 8f bc e0 cf 69 bc
       0.025297992 -0.04177156 -0.017462038 -0.014270753
000040 b2 93 4a bd 0d ab 11 3d 43 9c 9e bc 33 00 92 bd
       -0.04945726 0.035563517 -0.01936162 -0.07128944
000050 c7 27 16 3d c9 7b 99 bd 32 94 f1 3a 4a d2 1c bb
       0.03665903 -0.07494313 0.0018431006 -0.0023929053
000060 0b fc 1a 3c 8c 20 90 bc 6c fe c6 bc 2f 36 0b 3c
       0.009459506 -0.017593645 -0.02429124 0.008496805
000070 27 b4 71 3b ec bc 91 3c bb 7b 34 bd d8 ee 48 bd
       0.003688106 0.01779028 -0.04406331 -0.049055904
000080 9e 00 01 bc aa fd 3a 3d a2 67 68 bd 37 aa 93 3d
       -0.007873682 0.04565207 -0.056739457 0.072102
000090 18 e6 01 bd 28 cd 1e 3d 96 61 b0 3c d1 2a 54 bc
       -0.031713575 0.03876987 0.021530908 -0.012949661
0000a0 a5 95 c9 3c 6f e9 54 3d 3e 69 4a 3b d9 cd 0e bd
       0.024607489 0.051980432 0.0030885483 -0.03486428
0000b0 d4 33 fc 3b 2c 09 cc bc 0f 65 30 bc 1e b5 93 3c
       0.007696608 -0.024906717 -0.010766282 0.0180307
0000c0 e4 f4 42 3d cc e8 50 bd 32 14 98 3c 57 ce 70 3c
       0.047596827 -0.051003262 0.018564317 0.014697633
0000d0 be 30 e0 bc bf 02 53 bd 7c 91 c2 bc 94 b5 4c bb
       -0.027366992 -0.05151629 -0.023751013 -0.0031236159
0000e0 63 59 35 bd 3d a1 25 3d f9 04 3a bc ea 2b de 3c
       -0.0442747 0.040436972 -0.011353725 0.02712055
0000f0 78 80 06 3c 02 71 b0 3c eb 5a 00 3d 35 78 d4 3c
       0.00820934 0.021538261 0.031336706 0.025936225
000100 86 d7 f5 bc 21 dd 29 bd 6c fb 08 bd 06 be 48 bd
       -0.030009996 -0.04147065 -0.0334429 -0.049009345
000110 33 42 95 bc 49 09 62 bd bc e3 39 3d 80 2e 21 3c
       -0.018220043 -0.055184636 0.0453832 0.009837747
000120 73 3a 75 3c 18 97 5e 3d 6e 60 59 3b e8 a2 2c 3c
       0.014967549 0.054343313 0.003316905 0.010536887
000130 c5 0c ce 39 5b e4 8d bc e4 78 3b ba 9c cf 56 3d
       0.00039300896 -0.017320802 -0.0007151498 0.052444085
000140 c4 3f a8 bd 44 5e 10 bc f5 96 6a bc f5 03 a0 3c
       -0.08215287 -0.008811537 -0.0143182175 0.019533137
000150 8e 3b fa 3b bf 55 f1 bc aa c5 35 3d 82 5e 03 3c
       0.007636494 -0.029459832 0.04437796 0.008018138
000160 73 61 e8 3c 38 3d 84 3c 0f 8e e4 3c f3 08 32 3c
       0.02836678 0.016142473 0.02789977 0.0108663915
000170 b2 26 16 3d 16 d1 54 bc bd 0d e9 bc 18 4d a7 bc
       0.036657996 -0.012989303 -0.028448934 -0.020422503
000180 83 ad 5e bd bf cf 25 3d 3a e1 2f 3c 47 6f c7 bc
       -0.054364692 0.040481325 0.010734851 -0.024345053
000190 dd a6 e2 3a 25 b5 05 bd 87 91 66 3d 85 66 af 3d
       0.0017292161 -0.032643456 0.05629113 0.08564476
0001a0 7d f5 f0 bc 90 a5 35 bd 57 f6 f5 3c f5 53 f8 bc
       -0.029413933 -0.044347346 0.03002469 -0.030313471
0001b0 67 f1 1a bb 17 ae a2 bd ab 2a 07 bc 1e b4 98 bd
       -0.0023642422 -0.07943361 -0.008249919 -0.074562296
0001c0 f0 38 55 bd ae be b3 3c 73 9a 95 3c a9 f2 63 bc
       -0.052056253 0.02194151 0.018262124 -0.013912835
0001d0 73 f0 b7 3c 20 b8 57 bc 20 38 53 3c 14 e0 a6 bb
       0.022453522 -0.013166457 0.012891799 -0.00509263
0001e0 26 e0 06 3d 49 fb 20 bd 1f b7 c8 bc 43 16 f7 ba
       0.03292861 -0.039302144 -0.024501381 -0.0018851239
0001f0 5c 32 04 bd a5 02 c5 bc 40 d8 62 bd b1 c6 4d bd
       -0.03227459 -0.024049113 -0.055382013 -0.050238315
000200 63 75 84 3d 75 70 51 bc 58 a7 73 bd 80 2e c1 bc
       0.06467702 -0.0127831595 -0.059485763 -0.023581743
000210 aa 1c d6 3c 15 cd 81 3b b2 50 92 3b 2b 0b 4b 3d
       0.026136715 0.0039612153 0.004465186 0.049571197
000220 b2 9d 95 3c 5c 9a 3d 3d 95 85 25 38 23 4e b7 3b
       0.018263672 0.046289787 3.9463474e-05 0.0055940314
000230 4a 55 df 3c f1 d1 93 bc 62 73 1e 3a 03 94 80 3b
       0.027262349 -0.018044444 0.0006044415 0.0039238944
000240 c6 fb 40 3b 8f 96 53 bd b3 d0 db bc 7c 3f 4c bd
       0.0029446944 -0.051657256 -0.026832914 -0.04986523
000250 b9 02 c2 3c 88 da 59 3c 6a 8a fa bc 82 96 b5 bb
       0.023682939 0.013296731 -0.03058358 -0.0055416236
000260 8d 7e 14 3d 9d 72 9d bc d9 04 96 3d 0f 88 b9 bc
       0.0362535 -0.019219691 0.07325143 -0.022647886
000270 3e cb dc 38 dc dd 3f bd d9 f2 3c bc 91 16 de bc
       0.00010528274 -0.04684244 -0.011532509 -0.02711037
000280 47 ee 7b bd be bb 3f 3c dd a1 e6 3b 2e 57 2c b9
       -0.061506536 0.011702476 0.0070383386 -0.00016435675
000290 8f 96 1a 3d e8 dd b2 3b 8a f7 28 bc 65 02 03 bd
       0.03774124 0.005458582 -0.010312924 -0.031984705
0002a0 23 ed 33 bc ff e2 58 3c 0d 2f 55 3d a0 f9 2d bc
       -0.010981831 0.013237714 0.052046824 -0.010618597
0002b0 8b 26 08 bc e9 e5 91 3c a5 e4 79 3d f9 f1 23 3d
       -0.008309971 0.017809825 0.061009068 0.040025685
0002c0 3b 83 3a 3d e5 b2 79 3d 10 21 8c bc 8e d7 05 3c
       0.045535307 0.060961623 -0.01710561 0.008169068
0002d0 1c 9b bf bc 3a 4d 3c 3c fa c1 0a 3c 6a b5 e8 bb
       -0.023389392 0.011493022 0.008469099 -0.0071017044
0002e0 2f 6b b4 3c 18 27 c7 3c 0b d8 5b bd c9 90 7f 3d
       0.022023765 0.024310634 -0.05367283 0.062393937
0002f0 74 b7 bf 3c c2 1f 4a 3d af 8c 4c 3d e3 98 4d 3d
       0.023402907 0.049346693 0.049938854 0.050194632
000300 0c d0 33 bd a1 ed 14 ba b9 ea d6 3c b5 9e c6 bc
       -0.04389958 -0.00056811614 0.026234971 -0.0242456
000310 c5 6f 93 3d f7 71 c7 bc 36 de 68 3c 0d c9 e4 3c
       0.07199053 -0.024346335 0.0142131355 0.0279279
000320 c2 a0 96 3c 51 92 9a 3b 8a 22 e9 bc d8 aa 6d bd
       0.018387202 0.0047171493 -0.028458852 -0.058024257
000330 a0 41 82 bd 94 1a 51 bc c3 a8 e6 bc 91 82 43 3c
       -0.06360173 -0.012762684 -0.028156644 0.011932985
000340 c8 44 f9 3b ba 0d 3f bc 7c 36 93 bc 9b 02 91 bb
       0.0076070763 -0.0116609875 -0.017970316 -0.0044253594
000350 91 f6 b8 3c 3e 3e d8 bc bb 0f 30 bd b7 a2 3e 3a
       0.02257851 -0.026396867 -0.04298375 0.0007272171
000360 59 81 cd bc e6 a7 24 bb 0a c4 0c 3c 82 d7 b8 bc
       -0.025086092 -0.002512449 0.008591661 -0.0225637
000370 0b 58 a9 3c 7c b8 1b 3d 6a d4 3e bc c3 51 00 bd
       0.020671865 0.038017735 -0.011647323 -0.031327974
000380 57 aa 50 3c 0b fe 11 3d 1c cd c9 3c 82 11 f9 3c
       0.012735925 0.035642665 0.024633937 0.030403856
000390 eb 90 1f 3c 34 07 4d 3d bb 7d ab 3c 54 df 81 bb
       0.009739141 0.050055698 0.020933976 -0.0039633904
0003a0 e7 1f 54 3c 02 05 33 3d a4 b0 64 bd 43 2d 0e 3d
       0.012947059 0.043705948 -0.05583252 0.034711134
0003b0 21 c8 12 bd f1 37 95 bc c5 c8 37 3c b5 46 27 bd
       -0.03583539 -0.018215152 0.011217301 -0.040838916
0003c0 dd 73 1d bd e0 67 42 bd 55 14 12 bd d0 8c 18 bd
       -0.038440574 -0.047462344 -0.03566392 -0.037243664
0003d0 d3 bb e1 bc 2a fb 2b bd 76 5f f3 3b e0 55 f0 3c
       -0.027555382 -0.041987576 0.0074271513 0.029337823
0003e0 ac ac e5 bc b6 1c 8b 3a 47 fc 2c bd 3e e5 7f bd
       -0.028036438 0.0010613415 -0.042232778 -0.06247448
0003f0 c3 56 ef bc 57 c0 3a 3d d6 92 35 3d 7f 2e 9f bc
       -0.029216176 0.045593586 0.044329487 -0.01943135

action_model._continuous_distribution.mu.bias f4 [2]
000000 27 83 28 bb aa e4 bc 3a
       -0.0025712939 0.0014411409
