RollerBall/results/RollerBall_v3/RollerBall/checkpoint.pt (torch, 453666 bytes, 36 tensors)

network_body._body_endoder.seq_layers.0.weight f4 [128, 10]
00000000: d10d 3ebe 6ff7 d53c 3c9c d8be 1d32 06bf
00000010: aedb 82be 96d0 f93d 66cf b4bc 83ea ee3d
00000020: 3009 84be 5228 0bbd ddea ffbe 5174 c13d
00000030: bda3 5abe eea0 8e3d 1276 c93e 4c7a f5bd
00000040: b3b9 4b3e 142a a939 910f dcbd 095f 5bbe
00000050: 7672 923e 2d3c a03d 5ad5 ddbe 55f8 05bf
00000060: 95ec 30be 2af8 87be 42d6 16bf c777 f33e
00000070: c45a 843b b9f5 383e acb1 873e b221 b83e
00000080: 1f2c 22bd d5c4 79be cf52 a93e 1da8 d0be
00000090: 0308 dc3e 8db9 613d ba65 593d f172 aebd
000000a0: da7a b4be 67ac 57be 2457 c33e 67c6 cbbe
000000b0: b13e 0d3d 6f64 04bd e499 3abf 9bb3 df3e
000000c0: 3fee ad3e ba65 093f f2a6 313e c074 2d3f
000000d0: ded6 393e 0244 143e bea0 b43d 1ed4 35bf
000000e0: 7ad1 913d a52a 50be 27d8 d33e 2a50 6a3e
000000f0: 6255 ac3e e3fc 1abe 9e62 9b3d be26 953e
00000100: f9de 2c3e a563 b9be 565f 1d3f 2431 8c3e
00000110: 32f3 923d eb3d cf3e c4d1 34bd 4ccc 6dba
00000120: ae09 0c3e a4ad 713e b36c 54bc eae3 bbbd
00000130: aef7 09bf 28a6 a63e f4fc 83bc 15fa c9be
00000140: 0e5b 68be ae59 eabe 3abd 493f 9bb5 75be
00000150: f2df 963d d8fe 94be 3f6a 823e e60f 093e
00000160: b9e2 a33e 81ad 9fbe ab42 bfbd 540f d53e
00000170: 1bc3 13bf 4b18 0bbe 242e 86be ceac 4dbe
00000180: a12f 0f3f 71ac af3e 511f 94be b883 453b
00000190: 52bc 893e d5c3 663d 157f 48be a462 16be
000001a0: 36e8 25be 0e51 fbbe a92c 213f f10f 993d
000001b0: e34b ab3e 080c 60be 8943 4abd f2ce ccbd
000001c0: bebd 133d 1663 15be be32 69be be73 ca3e
000001d0: 991a dc3e 0258 d93d 9c55 90be 6862 e83e
000001e0: 709f b8bd 57e5 9abe fd58 e83c e438 d33e
000001f0: 126d 2fbe 4826 803e 246e 8d3e e054 943d
00000200: ab99 353f edb6 383e 0b31 55bd 9ae7 4b3e
00000210: 2e71 463f 5513 b43e aeb3 cb3d a04c 7b3e
00000220: 01a6 953e 1cbb 2e3f 65b0 cc3d ec9e 063e
00000230: f732 24be c70e 16bf 329d 5fbe 71a7 b13e
00000240: d189 cbbd a102 b73e 1e11 493e 426e 8c3e
00000250: 777a 4a3e c201 1d3f 15bd 59be c664 983d
00000260: 3afc 6fbe ae8c 093f b930 783c 5a59 d3bc
00000270: abf0 cfbe ff16 ccbd fbda 963d 4fd4 94be
00000280: 370f f83e e6a7 47be c707 98be 8651 f9be
00000290: 5487 623f 0b23 55be c43c 37be fb4a 9cbe
000002a0: baaa 77bc b64c 053e 87ca 25bf f01a 04bf
000002b0: f9b5 90bd 5e93 af3e 60f3 0fbe 69e6 a63e
000002c0: 5d8e a93d 3145 fbbe b2a6 15bd 9256 9ebd
000002d0: c577 223f f193 253e 2991 46be dfbc 07bb
000002e0: a022 ee3e 39ff 033d 9604 6a3e 71c7 213e
000002f0: 987d 273f cc9c 01bc 394f fabe 5f8b a73b
00000300: d5cc 253e ae76 403e 7507 12bd d779 dd3e
00000310: 4ebf 093f e054 fc3d 40b4 cfbc ad54 fb3d
00000320: 5cbf 133f 908c dbbe c3cd b13e 04f6 ff3d
00000330: 99dc a6be 146e 1dbe 03f0 14bf 5752 7dbe
00000340: e2be 9bbe 534b 413e 81f2 b7be 04e7 d23e
00000350: 67e8 8bbe d6ef 28be d499 c53d a036 313f
00000360: 1fb3 8c3c 6f74 363c 980a 143f 9009 3ebc
00000370: 145f a1be 5428 54bd 71ee 7f3e 5107 bf3c
00000380: ba0b 3e3f e9e2 ab3e 99a2 243f 0bbc 843d
00000390: 92e5 abbe 16ac d2bd 2735 f23e 588c 403e
000003a0: 50cd fabc 48b6 263f 5a35 9f3e 7b57 9c3d
000003b0: d623 6c3d 064b c9bd ab59 873d ec19 e1be
000003c0: b026 753d 5e19 093f 6173 e2bd 0d80 35bd
000003d0: 11fc 67be 162b d43e af05 31bd ee57 b4be
000003e0: 153d 223f b053 7f3e 7947 523e 6880 d5bd
000003f0: 28ba 74bd 8288 223f a0c4 043f 2328 e83e
-0.18559958 0.026118962 -0.42306697 -0.52420217 -0.25558227 0.12197988 -0.022071552 0.11665823
-0.2578826 -0.033974 -0.49983874 0.09446014 -0.21351524 0.06964289 0.39347893 -0.11986217
0.19895057 0.00032265543 -0.107451566 -0.21422972 0.28602952 0.078239776 -0.43326837 -0.5233205
-0.17277749 -0.26556522 -0.5892068 0.4755232 0.0040391404 0.18062486 0.2650274 0.35963207
-0.03959286 -0.24391492 0.3307099 -0.4075326 0.42974862 0.055108596 0.05307553 -0.08518017
-0.35249978 -0.2106186 0.3815242 -0.39799806 0.034483615 -0.032322343 -0.7289107 0.43691716
0.3397083 0.5367085 0.17348841 0.6775627 0.18148372 0.14479068 0.08819722 -0.7102679
0.071200326 -0.20328768 0.4137585 0.22882143 0.33658892 -0.15135531 0.07587169 0.2913112
0.16881932 -0.36208835 0.61473596 0.2738124 0.07175292 0.40476927 -0.04414536 -0.0009071275
0.13675568 0.23601395 -0.012965369 -0.091743305 -0.53893554 0.32548642 -0.016111828 -0.3944861
-0.22690985 -0.45771545 0.7880436 -0.23995058 0.07366933 -0.2910068 0.25471684 0.13384971
0.32008913 -0.3118706 -0.09338888 0.41613257 -0.5771958 -0.13583486 -0.26207078 -0.20085451
0.5593205 0.3431125 -0.28930143 0.0030138325 0.2690149 0.056339104 -0.19579728 -0.14686066
-0.16201863 -0.49085277 0.6295877 0.07473744 0.33456334 -0.2187959 -0.049380813 -0.10000409
0.036069624 -0.1458858 -0.22773263 0.3954143 0.42989042 0.10612489 -0.28190315 0.45387578
-0.09014785 -0.30253097 0.028362745 0.41254342 -0.17131451 0.25029206 0.27623093 0.07242751
0.70937604 0.1803853 -0.052048724 0.19912568 0.7751645 0.35171 0.099463806 0.24540949
0.29228213 0.68254256 0.09994582 0.13146561 -0.16035067 -0.586163 -0.21837309 0.3469806
-0.09938396 0.35744193 0.19635436 0.2742787 0.19773279 0.6133081 -0.21263535 0.07441096
-0.2343606 0.53730285 0.015148335 -0.025799442 -0.40613303 -0.09965324 0.07365986 -0.2906823
0.48449108 -0.19497642 -0.29693434 -0.4869501 0.88487744 -0.20814149 -0.17894274 -0.30525956
-0.015116388 0.13017544 -0.6476216 -0.51603603 -0.070659585 0.3429212 -0.14057684 0.32597664
0.08279107 -0.49076226 -0.036535926 -0.07731356 0.63464004 0.16169716 -0.19391312 -0.0020711941
0.46510792 0.03222582 0.22853312 0.15798737 0.65426016 -0.007910918 -0.48888567 0.00511305
0.16191418 0.18795273 -0.035651643 0.4325702 0.5380753 0.12320876 -0.025354505 0.1227201
0.57713866 -0.42880678 0.34727296 0.12498096 -0.32590178 -0.15374023 -0.5817873 -0.24738441
-0.3041907 0.1887639 -0.35927203 0.41191876 -0.27325746 -0.1649774 0.09648481 0.69223976
0.017175255 0.011136158 0.57828665 -0.01159896 -0.3151785 -0.051796272 0.24993302 0.023318918
0.74236643 0.33571556 0.64310604 0.06481179 -0.33573586 -0.10286729 0.47306177 0.18803537
-0.030615479 0.6512189 0.31095392 0.07633873 0.057651363 -0.09828763 0.066089 -0.4396509
0.05985135 0.5355433 -0.11057163 -0.044311572 -0.2265475 0.41439122 -0.04321831 -0.35223335
0.63374454 0.24934268 0.20535077 -0.10424882 -0.059747845 0.63489544 0.51862526 0.45343122

network_body._body_endoder.seq_layers.0.bias f4 [128]
00000000: 2e12 1f3d 1ba3 3a3c 8128 593d e9a2 2e3d
00000010: 26ec 93bc f485 513d fb43 11bd 7bb6 623b
00000020: 02f2 003d d5fe 0b3c 6edf c7bb 69d1 253d
00000030: 3a63 303d 595d 343c 3b3e 993d 2e26 203d
00000040: 6610 343d 8b78 153d cda8 253c 443f 373d
00000050: 13ab 3a3d cdb7 6e3d ea7e 94bb 374e 8f3b
00000060: 69cf 083d 08a4 1f3c 3c51 6cba a8fa 71bc
00000070: 8b41 233d 2626 68bb 0fd9 b23c 3bfa eb3c
00000080: 30aa f9ba b415 08bc 0199 943c 1933 143d
00000090: e034 62bc 562c bc3b e839 2d3c 97fa b73c
000000a0: 321a 643d 6a20 403d 5869 08bc 1620 273d
000000b0: 87fd 0d3d 705b 693c c142 2e3d 55a8 393d
000000c0: f827 163d 5d6d 723d 5a72 c83c 2c72 283b
000000d0: ef42 7cbb b7e4 d63c f4cc da3c b017 b03c
000000e0: 01c6 4abc 764b 1c3d 9b68 053d 44b8 053d
000000f0: 6f8d 013d d825 193d b7b0 f0bc a9f4 fc3c
00000100: 525b 813c 24c2 453c ab2d 6f3d ce87 0f3d
00000110: 9a26 a23b 6eba eabc 6386 083d da30 d2bc
00000120: 2e25 28bc bbd0 c33c e27c e4bb 77e0 c9bb
00000130: bd89 0d3d 7b85 913b be7e 333d bfd0 163d
00000140: 1499 4f3d b6c1 2d3c 89d9 983d 786a a8bb
00000150: 4d7c 9bbc f161 3e3d 6d74 ddbc b6ad 0d3c
00000160: ecce 283d 60c9 763d d96e 423d 57a7 a13c
00000170: ab4e e53b ec1a 083d 803d 893a 23eb 773d
00000180: 7ba7 ec3c 0bdf 043d f3ec 5f3d 0702 dd3c
00000190: 8cc3 1b3d 429f 9a3c 50b5 e2bb 80d7 2f3d
000001a0: 7d80 3d3d 127f d83c 8def 8dbc 255f b03a
000001b0: 9334 a23c 0c26 e5bb c7e3 7c3c 6e97 deba
000001c0: 48ae e33c c8a7 503d cc81 693c 556a 38bb
000001d0: 5ccf 353b 9cc4 003d b523 373d 0a0a fa3b
000001e0: 6169 933d dfac 143d e32e 5b3c 7a96 843c
000001f0: e979 a33c 29ec 683c e10b 623d 133e c53b
0.038835697 0.011391426 0.053017143 0.042635832 -0.01805694 0.05115314 -0.03546522 0.003459363
0.031480797 0.008544643 -0.006099633 0.040482912 0.04306338 0.011008584 0.07482573 0.03909891
0.04396095 0.03649191 0.010111046 0.04473807 0.045573305 0.058280755 -0.004531731 0.0043733376
0.033400927 0.009743698 -0.00090147904 -0.014769234 0.03985743 -0.003542313 0.021832017 0.028805843
-0.0019047912 -0.008305956 0.018139364 0.036181543 -0.013806552 0.00574259 0.010572888 0.022458358
0.055689044 0.046905912 -0.008325897 0.040802084 0.03466561 0.014242992 0.04254413 0.04532655
0.03665921 0.05918633 0.02446859 0.0025702817 -0.0038492044 0.026232107 0.026709057 0.02149567
-0.012376309 0.038157903 0.032570463 0.032646433 0.031629022 0.037389606 -0.02938114 0.030878382
0.015790615 0.0120702125 0.05839316 0.035041623 0.0049484493 -0.02865335 0.033331286 -0.02565806
-0.010262771 0.023903241 -0.006972895 -0.0061607915 0.034555186 0.004440961 0.043822043 0.03682017
0.050683096 0.010605266 0.074633665 -0.005139645 -0.01898017 0.046480123 -0.027033055 0.008647373
0.04121296 0.06025064 0.047468994 0.019733114 0.0069979033 0.0332288 0.0010470599 0.06052698
0.028888455 0.032439273 0.05466933 0.026978506 0.038028285 0.018874768 -0.006918587 0.042930126
0.046265114 0.02642778 -0.01732614 0.001345609 0.01980046 -0.006993061 0.015435166 -0.0016982385
0.027793065 0.05094126 0.014252137 -0.002813955 0.0027742004 0.0314375 0.044711787 0.0076305913
0.07197834 0.036297675 0.013377878 0.016185034 0.019955592 0.014216461 0.05518711 0.0060193627

network_body._body_endoder.seq_layers.2.weight f4 [128, 128]
00000000: b927 10bd f248 29bd 9623 863d 8e77 7d3d
00000010: 3818 9e3d da0e 3d3d cdb8 a7bd e864 083e
00000020: d921 623c 64a1 eabd 3ab8 91bd 17fb 8e3d
00000030: 69f0 f1bd 406f 32be 8027 87bd 7ad5 0b3e
00000040: 18ea 2c3e 8601 21be 187c 413d 665b b6bb
00000050: 6174 2f3c 5edd 7bbc d8d5 14be 9d71 a6bd
00000060: 101b 04bc a2e7 923c 2476 0ebd 3316 73bc
00000070: b9b4 1e3d 4e63 f53d e196 6c3d 81ec 233e
00000080: ae54 f8bd 8910 81bc 4299 ccbd 5acf c43c
00000090: 7876 f8bc ed46 0b3e 35b6 1f3e b379 643e
000000a0: 13e8 3a3e d342 eb3c 6db3 3dbd a6cd b0bc
000000b0: 6ef2 ad3c 08b3 01bd 3378 c03d 5cde e0bd
000000c0: 8489 0a3e e99a 703d c4bb f73d 2420 103b
000000d0: f8bb b23d 542c 4b3e a4ca 573d bef8 c3bd
000000e0: 7ae9 1c3e 9022 87bc 3f8c 813d 0a23 183d
000000f0: 273d 7d3e 174f bdbc 74c7 20bd e123 e43d
00000100: 07ca c73d 0d31 7c3d 20d5 b1bc c43a 653d
00000110: 1824 f73d 4bc5 da3d 491b cbbd 8635 a9bd
00000120: 58e3 7cbd f519 883d b0d6 b83d 0b00 673d
00000130: a2f9 edbd 1a60 56bc 69a5 a93d 2f78 f03d
00000140: ea78 8d3d 77ef ac3d ebcc 423e 4ef5 fa3c
00000150: bb0e 683b 7ee2 3a3e d18d 36bd 5e57 1fbe
00000160: cb22 8b3d ba1f b4bd 43e5 d3bd 8127 26bd
00000170: 7432 573d 01f5 8cbd 4a3e 89bc 1892 fdbc
00000180: 1f26 6f3d 60b3 7d3d 576a 1c3d f664 febd
00000190: 28d9 27bc 7c39 b33c 009f 0c3e 4211 243e
000001a0: 466b 3fbe 3e52 fdbc 6272 3e3d 32d5 bfbc
000001b0: 2063 0bbd f0c9 f9bd 3771 72bb 4a0d 9bbc
000001c0: 82e7 fe3c 7572 813d 3d1c f43c f0c5 383e
000001d0: 377c 1dbe f3c9 1f3d fc08 91bd d1cf 3b3c
000001e0: a5a8 6c3d c470 ad3d 44da 893d 8c87 ea3c
000001f0: 00f3 c0bc 9032 82bd 6cf4 fe3d f296 2c3d
00000200: 299c a63d 5b15 c43c eff1 e6bd cc88 4cbe
00000210: 73da 5d3d 4a83 ed3d 3468 cc3d 72b8 a43d
00000220: 310b 07bd 412d 1d3c 575f 0d3e e853 e0bd
00000230: 05a3 24be 9a87 84bd c827 8fbc bf5d 5ebd
00000240: aafc 213d 5749 cc3d 2193 fb3d 827f bcbd
00000250: 086a eabc 44dc 323d 1496 4a3e 6eea 433e
00000260: c4a5 92bd 3462 483e 67a8 2c3d ccaf c0bd
00000270: 5cbe 55be eee7 cc3d 0d6e 823d 0a00 fdbc
00000280: c11b fcbd 194a 96bc 15c3 c83c 2909 673d
00000290: c75b f7bc f087 933b 1204 8a3d f4b8 33bd
000002a0: 66ba 0bbd 24fb 2f3e e1b1 a0bd 0dfb 00be
000002b0: 9e4e 753d 331d bebd 7d5e 8d3d 0352 693b
000002c0: 9654 00be 8d0d f4bd 272a 083e 735c 26bd
000002d0: 986d e0bc b8ef 8a3d 570a 3abd f820 1d3c
000002e0: 6fe6 91bc cf13 d43d 0787 eb3d 5ec1 db3d
000002f0: 5585 0e3e 46bd 06be c3e9 a0bd e430 3d3d
00000300: 2b9c 3e3d ae53 893d f8de 1dbe 46ee b8bd
00000310: 795d 0a3e f30d 0abc 53cf 873c ba9c aabd
00000320: 4dbf 3ebd 4e6f 92bd 1eee 883c 7333 863d
00000330: 78d0 5dbe 2f01 42ba a3e2 583e 1d71 bdbc
00000340: 5397 93bd 16be 293d eac3 5b3d e7a6 043e
00000350: 367c c8bc c0a1 8b3c b239 08be 22b1 353e
00000360: 2ecf d7bd 58e1 5ebd 85f1 b1bb 7fc7 1ebd
00000370: c0a4 ce3c 8423 b4ba 2813 6d3a 9d1f 77be
00000380: dde9 733d 0f99 573d 846b b43c b376 cfbd
00000390: 0a76 e4bc 19e9 82bd 8ffa 7fbe 8208 5f3d
000003a0: b823 47be f097 643b fcb6 86bc 3314 c63d
000003b0: 1a6f dfbd d0db e5bb 95a8 933d d51e d2bd
000003c0: 73b8 453d 2447 06bd 6de7 a93d 692b 2dbd
000003d0: 9792 a53d e2f9 fa3b 5e43 253e 4aa2 33be
000003e0: 796b c73d 5f83 3c3e cff0 9c3d 446f 35bd
000003f0: 3d93 a8bc fde4 d43b 2e85 dbbd b01b fc3d
-0.035194132 -0.04132933 0.06549756 0.061881594 0.07719463 0.04615674 -0.08189545 0.13319743
0.013802015 -0.11456564 -0.071152166 0.06981485 -0.11813433 -0.17425251 -0.06599331 0.13655654
0.16886175 -0.15723237 0.047237486 -0.0055650948 0.010708899 -0.015372602 -0.145347 -0.08127139
-0.008063093 0.017932717 -0.034780636 -0.014836836 0.03874657 0.119818315 0.057761077 0.16008188
-0.12125526 -0.015754955 -0.09990169 0.024024654 -0.030329928 0.13601275 0.1559685 0.2231205
0.18252592 0.028718388 -0.046313692 -0.021582436 0.021233764 -0.031664878 0.09397926 -0.10979912
0.1352902 0.058741484 0.1209636 0.0021991814 0.087272584 0.19841129 0.052683488 -0.09568928
0.15323439 -0.016495973 0.06325578 0.03714279 0.24730359 -0.023109002 -0.039252713 0.11139656
0.097553305 0.061570216 -0.021708071 0.055964246 0.12067431 0.10682162 -0.099173136 -0.08262162
-0.06174025 0.06645576 0.090253234 0.056396525 -0.11619879 -0.013084436 0.082835026 0.11741673
0.06907828 0.08444112 0.19023483 0.030634549 0.003540917 0.18250462 -0.04456884 -0.15560672
0.067937456 -0.08795114 -0.103464626 -0.040565018 0.05253835 -0.06882668 -0.016753335 -0.030953452
0.058385964 0.061938643 0.03818735 -0.124216005 -0.010244645 0.021877997 0.13732529 0.16022208
-0.18693265 -0.030923005 0.046495803 -0.02341709 -0.03403008 -0.1219672 -0.003699375 -0.018927235
0.03111625 0.06320659 0.029798621 0.18044257 -0.15379415 0.039010953 -0.07081792 0.0114631215
0.05777802 0.08468774 0.06731084 0.028629087 -0.023553371 -0.063573 0.124489635 0.04213614
0.08135254 0.023935964 -0.11276614 -0.19974059 0.054163408 0.11597307 0.09980813 0.08042993
-0.032969657 0.009593309 0.138059 -0.10953504 -0.16077812 -0.064711764 -0.017475024 -0.054288622
0.0395476 0.09974926 0.12283922 -0.09204008 -0.028615013 0.043667093 0.19783813 0.19132397
-0.071605235 0.19568712 0.04215279 -0.094085306 -0.20873398 0.100051746 0.06368647 -0.030883808
-0.12309981 -0.01834588 0.024507085 0.05640522 -0.03019513 0.004502289 0.067390576 -0.043877557
-0.03411331 0.17185646 -0.07846428 -0.12595768 0.05988943 -0.09282913 0.06902788 0.0035601861
-0.12532267 -0.11916647 0.1329733 -0.04061551 -0.027396008 0.06784004 -0.045420017 0.00959038
-0.017810075 0.10355341 0.11500364 0.10730241 0.1391805 -0.1315814 -0.078570865 0.046189204
0.046535652 0.06705414 -0.15417087 -0.09029822 0.1351222 -0.008426177 0.016578352 -0.083306745
-0.046569157 -0.07150136 0.016715106 0.06552782 -0.21661556 -0.0007400689 0.21180205 -0.023125226
-0.07206597 0.041441046 0.053653635 0.12954293 -0.02447329 0.017044902 -0.13303259 0.17743352
-0.10537563 -0.054414123 -0.0054304027 -0.038764473 0.025225043 -0.0013743495 0.0009043687 -0.24133153
0.0595492 0.052636202 0.022023924 -0.10130062 -0.027888317 -0.06392116 -0.24997924 0.054451473
-0.1944722 0.00348806 -0.016444676 0.096718214 -0.10909863 -0.007014729 0.07209889 -0.10259787
0.048271608 -0.03278269 0.08296094 -0.042277727 0.080846004 0.007659183 0.1613898 -0.17542377
0.09737296 0.18409489 0.07663118 -0.044295564 -0.020578021 0.006497024 -0.107187614 0.123099685

network_body._body_endoder.seq_layers.2.bias f4 [128]
00000000: 1a31 223d a3fb 573c a916 973d e6dc e23c
00000010: 54f3 1e3c 94c9 ee3c e5cc b23c cbeb 89bc
00000020: 9040 813d 508c 5bbc b75a a7bb 05d8 3f3d
00000030: 2aab 473d e68b 4e3c 7303 873c 8f23 ad3c
00000040: 9ac9 b53c 77cb 0b3d e222 143d 3d57 0fbc
00000050: a034 d33c 8697 273c 225f 653b 714d 573c
00000060: 4cec 053d f75b c13c b22b 913c 236d 203d
00000070: a4ef 8d3c 5fa0 843c b2bd 043d e39d 673d
00000080: cc67 003d cc79 943c db3b 803b a5d9 6cbb
00000090: 0b36 f6bb 4858 9d3c a3d6 ce3c ce42 b53c
000000a0: aba6 683b 2610 b53c 0fc2 393c a70b bcbb
000000b0: 44dd 383d 065b 3dbc ac68 cf3c 78c1 e63c
000000c0: b77b d23c 88cc 903c 0773 ff3c 2086 ae3a
000000d0: c691 8b3c a84d 293c 3643 063c 61c7 233d
000000e0: 6f72 083d 7987 1e3d 2a2b a93c 0351 5d3d
000000f0: 7baf 173d 9c2a b53c 10cf 283b b10d f33c
00000100: ddc0 ce3c 3c7c 123d 1488 0abc d822 273d
00000110: 1c7d e73c 0722 6b3c 039d 123c f939 6abc
00000120: 6355 f33c 96a8 273d 24b8 063d f80b ef3c
00000130: 4ec8 aebb 31a2 3c3d b7f8 da3b c808 e53c
00000140: 0fcf 473c 3f28 0f3d 7056 033d 6e88 3a3b
00000150: 8089 97bc 0273 6b3b adb3 c93c 7148 e837
00000160: 62c8 363d cd1e 7fbc ef69 6d3d 6747 2f3c
00000170: 0852 723c b2c4 e03c eb7d 083c 0571 363b
00000180: 5d26 0a3d a4e7 6dbb adcc 523d e7fc 0a3c
00000190: aefe 803b 0a2f 513d d3a4 2d3d c3d4 dd3c
000001a0: b407 b6ba e8b4 d03c bbc8 0b3b 9bd8 6d3c
000001b0: 934b 843c a42d f03c 39e8 bb3c b660 003d
000001c0: 7205 503c 2067 2e3c 759b 363d f557 993c
000001d0: d0b4 a63b 180d 243c 7346 ad3c 2855 fa3b
000001e0: 29e8 f33c 8ace 383d e733 553c 032d 853c
000001f0: f7cc ea3c 5b46 873c ab30 f53c 0812 ab3c
0.03959761 0.013182553 0.07377369 0.027693223 0.009701569 0.029148854 0.021826217 -0.016836068
0.063111424 -0.013400152 -0.0051072496 0.04683687 0.04874722 0.012606597 0.016481137 0.02113512
0.022190858 0.034129586 0.03616608 -0.008748827 0.02578193 0.010228997 0.003499933 0.013141022
0.032696053 0.023603423 0.01772103 0.03916658 0.017326184 0.016189752 0.03240747 0.056547057
0.03134899 0.018124484 0.0039133853 -0.0036140468 -0.0075137666 0.019207135 0.025248831 0.022126582
0.0035499732 0.022102427 0.011337771 -0.0057386938 0.04513289 -0.011557346 0.025318466 0.028168425
0.025693757 0.017675653 0.031182779 0.0013315119 0.017037284 0.010333456 0.008194735 0.039985064
0.033312257 0.038703416 0.020650465 0.054032337 0.037032586 0.022115044 0.0025758184 0.029669615
0.025238449 0.03576301 -0.008455295 0.040804714 0.028257899 0.0143513745 0.008948567 -0.014296048
0.029703801 0.04093226 0.032890454 0.029180512 -0.005333937 0.046053115 0.006682481 0.027958289
0.012195363 0.03495049 0.032064855 0.0028462666 -0.018498182 0.0035926704 0.024621809 2.7690288e-05
0.044624694 -0.015571308 0.057962354 0.010698176 0.014790066 0.027437542 0.008330802 0.002783836
0.033727992 -0.0036301399 0.051464725 0.008483148 0.00393661 0.05107025 0.042393517 0.027078992
-0.0013887794 0.025476888 0.0021329361 0.014516975 0.016149318 0.029318638 0.02293788 0.03134223
0.012696611 0.010644704 0.04458185 0.018718699 0.0050874725 0.010012887 0.021151757 0.007639546
0.029773789 0.045118846 0.013012863 0.016256815 0.028662188 0.01651304 0.029930433 0.020882621

action_model._continuous_distribution.log_sigma f4 [1, 2]
00000000: 84dc 37bc 2c1d fabc
-0.011222009 -0.030531488

action_model._continuous_distribution.mu.weight f4 [2, 128]
00000000: 9595 053d bd48 33bd 87e5 fd3c 9f83 52bd
00000010: 801a 4d3c ff92 2d3d c03a 32bc 2dc5 783a
00000020: dafe 0d3d 1050 04bd cc6f a3bc fe7c 713d
00000030: abd5 8fbd d4d7 0dbd d322 febc ddde fbbc
00000040: a0e1 d43c 120e 0cbd 68da 2b3d 93cb a43c
00000050: 73e2 18bd 75d6 17bc c849 74bc 3fe7 4ebd
00000060: 49c4 533c 7f37 2cbd abae 84bb 976c 8f3d
00000070: d586 0cbd e5bc fbbc 51eb d53c 3f81 123c
00000080: 5a31 9dbc ae6c 4a3c c702 a8bc b1e3 39bd
00000090: 09e9 f3ba 4ce5 13bd 7cda 2b3d 7831 51bd
000000a0: fd72 b0bc 6f60 253d a0eb 11bc 99dd f03b
000000b0: e494 393d d88a 85bc 8553 9a3c df75 203c
000000c0: bcb8 a9bc f9ae 3ebd c8c1 17bd 7355 1fbb
000000d0: d4c5 133d 3548 ff3c b8bb 8abc aa4c 46bd
000000e0: 8148 61bc b983 06bd 5591 23bd f0a3 473d
000000f0: f2d2 973d f5ec 8ebc 8992 833c 7e1b f4bc
00000100: 724e 253d 2859 9e3c 9438 f7bc 5b28 28b9
00000110: 6b5c 773d d6f4 04bd 9357 69bc ce15 e2bc
00000120: 98bc 993d 35e4 763d 4e42 1bbd 9fbf ab3d
00000130: 842c f33c 4d42 2c3d 246d e0bc f6d7 e4bc
00000140: a7af c73c 24c7 a73c cfc5 91bd 4cf4 0bbd
00000150: 5b7f 2dbc 2387 b43c bc18 37bd 8867 74bc
00000160: 76c5 693d 5184 083c 9941 a43d 534d a7bc
00000170: c206 ed3c 3140 45bb 0ef8 303d 23e3 0a3d
00000180: 41ae a2bd 78a2 1fbd f311 90bb ceba b9bb
00000190: 64f6 1abd adcd 97bb e8fd 353a 320d f33c
000001a0: 554b 143c 573f 2cbd b88a 4f3c 03c2 173d
000001b0: fe45 283d 179b ab3b 4ec2 55bd 48ef c13c
000001c0: 6fa5 263d c51a ffbb 2a85 e83c 9fd3 e8bc
000001d0: b4c4 b3bc 6a6b 1dbd 8f96 41bd 5561 933b
000001e0: c666 2e3d 4193 743d 2d74 49bd 1799 34bc
000001f0: 5c40 71bd 80d5 c7bc 4616 ccbc 1c15 90bc
00000200: cc12 413d 7ff8 ed3c 266f a1bd 560f 8fbc
00000210: d1c1 8dbc 42b7 523d cac6 a9bc 4a8c 5c3b
00000220: e803 1cbd 235b cb3c 1452 423d 7ef0 453d
00000230: 1af5 97bb d532 0fbd 7e23 143d 0fc2 2b3c
00000240: 7412 4a3d aa1e aabc 2e37 84bb de11 59bc
00000250: 3f08 6dbc fa00 87bc 12e1 20bd b3a6 0bbc
00000260: 73ff 34bd 7179 dd3c 13b6 4cbd 1035 b23c
00000270: bdf9 523c 3a8b 813d bcbe 963d b92b 7ebd
00000280: 0b2e 61bd 7181 213d 566c 2abd 059c d33c
00000290: 28d8 3cba 513f d43a f169 32bd 586a 64ba
000002a0: b0db 033d d0a1 efbc 2792 193d 682b e53c
000002b0: b734 1f3d 7371 6e3c 8f0b 32bd b49e 74bd
000002c0: 9f9d f3bc a328 5e3d 3190 0ebd f634 ed3c
000002d0: e070 0e3d f7cf 033d 25fc e5bc fb19 7ebd
000002e0: 829f 42bd 9b2d 93bd 349f 04bd 41e5 93bc
000002f0: f968 44bd d201 fd3c a3ca cd3c a895 abbb
00000300: 1d5c f2bc 23ce a9bd f3e0 873c dcfd 4abd
00000310: 6c17 eb3c 6668 0d3d 78f8 b83c ca28 713c
00000320: 2b26 2b3c 9b40 4a3c dea2 19bd a279 103d
00000330: f261 e43b 00bb 0b3a da13 2fbb fa88 473d
00000340: ef6d 4dbc 56c1 7e3d 2a45 2dbd 9e55 233d
00000350: 7c92 54bb 3c20 a43b 503d 513d 1843 263d
00000360: 35b1 4e3d 0a87 d1bb fe5e 10bc c7af e73c
00000370: 7d51 e0bc d3f0 6c3d 2dc2 65bc 480e ad3c
00000380: 26c5 033c dbde b0bb a613 893d b9ef 9c3c
00000390: 2b14 833c e0b1 7fbd ef9c 4dbd 73a1 20bd
000003a0: ce64 e73c 1340 57bc 7693 113a bec9 30bc
000003b0: 8e2a e9bb e955 7c3d ba55 c2bc bcc8 51bd
000003c0: 938e 833c f502 b7bc 9cd4 2cbd 3b60 4c3d
000003d0: 97eb ca3c 66ae 6ebc 84ab 673c 1666 a8bc
000003e0: aa0c cf3b c478 44bd 13cc 803c 8312 203d
000003f0: 5660 ebbc 848a 3ebb bcf9 a0bd 39e6 cdbc
0.032613356 -0.04377054 0.030993236 -0.051395055 0.012518525 0.042376515 -0.010878265 0.00094898307
0.034666874 -0.032302916 -0.01995077 0.058957092 -0.07023176 -0.034629658 -0.031022465 -0.030745918
0.025986493 -0.034193106 0.041956335 0.020116603 -0.037325334 -0.009267439 -0.014910169 -0.050513502
0.012925216 -0.042045113 -0.0040491424 0.07003134 -0.034308273 -0.03072972 0.026113184 0.0089419475
-0.019188572 0.012355013 -0.020509137 -0.04538316 -0.0018608879 -0.036107346 0.04195641 -0.051072568
-0.021539206 0.04037517 -0.008906275 0.0073506352 0.04530801 -0.016301557 0.018838653 0.009793728
-0.020717971 -0.046553586 -0.03705004 -0.0024312406 0.036077335 0.03116236 -0.016935214 -0.048412956
-0.013750196 -0.032840464 -0.03993352 0.048740327 0.074132815 -0.017446974 0.016061084 -0.029798266
0.040358014 0.019329622 -0.030178346 -0.00016036762 0.06039087 -0.032460056 -0.014242071 -0.027598288
0.075066745 0.06027623 -0.03790503 0.08386158 0.029684313 0.042055417 -0.027395792 -0.02793501
0.02437575 0.0204807 -0.07117807 -0.034168527 -0.010589446 0.022037094 -0.044701323 -0.014917262
0.05707308 0.008332328 0.08020324 -0.020422613 0.028933886 -0.0030098076 0.043205313 0.03390802
-0.079433925 -0.0389733 -0.004396671 -0.005668021 -0.037832633 -0.0046326728 0.0006942437 0.029669378
0.009051164 -0.042052593 0.0126673505 0.03705026 0.041082375 0.005236994 -0.052187257 0.023673669
0.040685114 -0.0077851736 0.02838381 -0.028421221 -0.021944381 -0.038432516 -0.047262724 0.004497687
0.04257848 0.059710745 -0.04918306 -0.011022828 -0.05889927 -0.024393797 -0.024912965 -0.01758819
0.047137067 0.029049156 -0.07882528 -0.017463367 -0.017304333 0.0514443 -0.020724673 0.0033652955
-0.038089663 0.02482373 0.047441557 0.048325054 -0.0046373727 -0.034960587 0.03616666 0.010483279
0.049334005 -0.020766575 -0.0040348982 -0.013248889 -0.014467298 -0.016479958 -0.039277144 -0.008523631
-0.044188928 0.027035447 -0.049978327 0.021753818 0.012876925 0.063253835 0.073605984 -0.062053416
-0.05497555 0.039430086 -0.041607223 0.025831232 -0.00072038407 0.0016193186 -0.043558065 -0.0008713356
0.032191932 -0.029251963 0.037492897 0.0279748 0.038868632 0.014553416 -0.043468054 -0.059721664
-0.029738246 0.054237973 -0.03480548 0.028955918 0.034775615 0.032180753 -0.028074333 -0.062036496
-0.0475154 -0.07186433 -0.03237839 -0.018053653 -0.047951672 0.030884657 0.025121039 -0.0052363463
-0.029584939 -0.082912706 0.016586756 -0.049558505 0.028697692 0.03452339 0.022579417 0.0147191975
0.010446112 0.012344505 -0.037508838 0.035272248 0.006969684 0.00053302944 -0.0026714713 0.048714615
-0.012538417 0.0621961 -0.042302288 0.039876573 -0.0032435944 0.0050087254 0.051083863 0.04059133
0.050461967 -0.0063942717 -0.00881171 0.02828206 -0.027382607 0.057846855 -0.014023346 0.021124974
0.008042609 -0.00539766 0.06693201 0.019157277 0.016000828 -0.062425494 -0.05019849 -0.03921647
0.02824631 -0.013137835 0.00055532844 -0.010790287 -0.0071156686 0.061605368 -0.023722518 -0.051216826
0.016059196 -0.022340277 -0.042194948 0.04989646 0.024770541 -0.014567947 0.014140014 -0.02055649
0.0063186483 -0.047966734 0.01572231 0.039080154 -0.02873246 -0.002907426 -0.07860133 -0.025134193

action_model._continuous_distribution.mu.bias f4 [2]
00000000: 5f8a af3b f9ed d5bb
0.0053570713 -0.0065286127

exp_avg f4 [128, 10]
00000000: 7c5b 1f3a bc2a e4b9 ed9c d8b9 8698 8bbb
00000010: b3fb dfb9 39b9 3f3b 9ed1 103b 3b48 2539
00000020: 0000 0000 0000 0000 77e8 a3bb e027 7037
00000030: fccd 813a 46c4 643b 7932 6537 78d5 d438
00000040: 002a 3ebc cc5a c03b 0000 0000 0000 0000
00000050: 700b 9d3b 5af9 adba 0f4e 99bb 408d 0cbb
00000060: d96b adba a070 003b e5e2 e93b 086a a9bb
00000070: 0000 0000 0000 0000 2095 e1bb 35ae e836
00000080: 6fa6 b7b9 f06f 053b 14ee 0337 2719 3b3b
00000090: 5686 36bb 91c6 6ebb 0000 0000 0000 0000
000000a0: 150b 7ebb 4237 3c39 10a3 163b 4b43 5d3b
000000b0: 5e8a 3839 2c9f 9e3a 9fb8 f7bb ebed c93a
000000c0: 0000 0000 0000 0000 7fa6 79ba ecf6 cdb9
000000d0: d14b e6bb aebd 883b beaf ceb9 6f45 863b
000000e0: 6759 abb9 17ca 65bb 0000 0000 0000 0000
000000f0: dfcb 823a 5814 1eb9 f257 c0ba a800 2c39
00000100: 21f6 1db9 4771 513a 80d2 3e3a 55d0 df39
00000110: 0000 0000 0000 0000 fb33 bbbb eced 283a
00000120: bc78 213b 0cd3 2f3b ddcc 283a 0200 433a
00000130: 624a dabb 04ea 7f3b 0000 0000 0000 0000
00000140: 3ba1 15bb 6db3 ecb9 6c30 d8ba b8fe 5bb8
00000150: aac4 ecb9 7ef8 483b 2c1e 19bb a466 a0bb
00000160: 0000 0000 0000 0000 bec7 223b a2f5 5439
00000170: 86af 133b 1ff5 56bb 2f48 5439 1769 f4ba
00000180: a48e a139 3d4b 823b 0000 0000 0000 0000
00000190: 2b34 293b c65d a0b9 aae6 b339 fd26 edba
000001a0: b1b6 a0b9 53c5 1a3a 7f0b 1638 49f4 553b
000001b0: 0000 0000 0000 0000 acdb de3a 48ae 20b9
000001c0: 1dda eb3a e9a2 aa37 d5f2 20b9 ec44 d63a
000001d0: 9c04 daba a217 683b 0000 0000 0000 0000
000001e0: 87c1 33b9 7734 0038 25ae 073b f62d e23a
000001f0: adcf fb37 263b 83b9 fa9f 4fbb 09cb 7f3b
00000200: 0000 0000 0000 0000 8a29 48bb ca2b eeb8
00000210: d263 6c39 deb5 e93a cac9 edb8 ec69 203a
00000220: 3d8b eabb 385a 6d3b 0000 0000 0000 0000
00000230: 149d b7ba 9638 2139 b42f bd3b fff4 fa3a
00000240: 51cf 1f39 0aa2 c03a e5a3 c5bb 758f 003c
00000250: 0000 0000 0000 0000 dee2 05bc ee7d 583a
00000260: 4a42 0c3a bfff 9d3a 6b65 583a fe1b de3a
00000270: 9b3a 12bc 22d5 223b 0000 0000 0000 0000
00000280: 695b 4cbb 2c15 61b9 aa4f 84b8 95b2 113b
00000290: 6726 5fb9 b928 4d3b abd3 a1ba 0941 14bb
000002a0: 0000 0000 0000 0000 1197 99bb 687f 6039
000002b0: c908 373a 755a 9b3b 1f7b 6039 def0 dfb9
000002c0: 7292 2fbc ed6d 833b 0000 0000 0000 0000
000002d0: 8643 a1ba 8cbc b438 bbc7 bd3a 85b0 133a
000002e0: dcf4 b938 dcf8 c53a bcba b0ba ab16 b53a
000002f0: 0000 0000 0000 0000 4883 72bb 8b6b b139
00000300: 74a4 ec3a 8898 903b fd7e b139 8d9d 08bb
00000310: 0e24 1abc ba13 973b 0000 0000 0000 0000
00000320: f389 07ba 93e1 49ba c37c 0dbb bbbe da3a
00000330: 6646 4aba daad 803a 3215 033b c4c2 1abb
00000340: 0000 0000 0000 0000 4f0c b73b 4883 8cba
00000350: 1d54 bbba 114d 5db9 ac10 8cba 1a3f 203b
00000360: 6fc2 cbba e310 4f3b 0000 0000 0000 0000
00000370: 2dbd 383b e238 10ba d692 b4ba 296b b83a
00000380: 6936 10ba d16a e239 9e8c 8bba 5276 603b
00000390: 0000 0000 0000 0000 da0a adba a140 37b8
000003a0: d53b 2dbb c77b dfb9 c166 37b8 5d77 e3b9
000003b0: e934 06ba c497 d938 0000 0000 0000 0000
000003c0: 85e7 ee3a 6470 b9b9 ae4d d93a a274 3538
000003d0: a890 b8b9 5d8a 003b 1914 3fba 30df ca3a
000003e0: 0000 0000 0000 0000 bd97 eaba 38d4 8438
000003f0: 0ceb 5f3b 158e 5038 b073 8338 cda0 963a
0.0006079001 -0.00043519388 -0.0004131565 -0.0042601256 -0.00042721405 0.0029254688 0.0022097598 0.00015762534
0.0 0.0 -0.005002077 1.4314399e-05 0.0009903307 0.0034907027 1.3661215e-05 0.000101487094
-0.011606693 0.005870199 0.0 0.0 0.004792623 -0.0013273165 -0.0046784948 -0.0021446496
-0.0013230994 0.001959838 0.0071376436 -0.0051701106 0.0 0.0 -0.006884232 6.934419e-06
-0.00035028483 0.002036091 7.86364e-06 0.0028548928 -0.0027851067 -0.0036434273 0.0 0.0
-0.003876393 0.00017949662 0.0022985376 0.0033762034 0.00017599153 0.001210188 -0.0075598503 0.0015405988
0.0 0.0 -0.0009523406 -0.00039284618 -0.007028081 0.004173002 -0.0003942232 0.0040976326
-0.00032682272 -0.0035063082 0.0 0.0 0.0009978971 -0.00015075633 -0.0014674647 0.00016403443
-0.00015064377 0.0007989597 0.0007279292 0.00042689094 0.0 0.0 -0.0057129837 0.00064441445
0.0024638614 0.0026828675 0.00064392184 0.0007438661 -0.006661699 0.0039049396 0.0 0.0
-0.0022831697 -0.0004514711 -0.0016493923 -5.2450894e-05 -0.00045159954 0.003066569 -0.002336393 -0.004895048
0.0 0.0 0.0024838294 0.00020309401 0.002253504 -0.0032799912 0.00020244786 -0.0018647042
0.00030814589 0.0039762543 0.0 0.0 0.0025818448 -0.00030587445 0.000343134 -0.0018093284
-0.00030653694 0.00059040374 3.5773493e-05 0.0032646826 0.0 0.0 0.0017002723 -0.00015323714
0.001799408 2.034144e-05 -0.00015349251 0.0016347445 -0.0016633454 0.0035414477 0.0 0.0
-0.00017142865 3.056644e-05 0.0020703163 0.0017256129 3.0018238e-05 -0.00025030336 -0.0031681047 0.003903093
0.0 0.0 -0.0030542337 -0.00011356881 0.000225439 0.001783069 -0.00011338627 0.0006119299
-0.007157712 0.0036217105 0.0 0.0 -0.0014008605 0.00015375236 0.005773509 0.0019146501
0.00015240653 0.0014696729 -0.0060315006 0.007846703 0.0 0.0 -0.008171765 0.0008258511
0.0005350454 0.0012054368 0.00082548585 0.0016945598 -0.008925105 0.0024846275 0.0 0.0
-0.0031182414 -0.00021465559 -6.309089e-05 0.0022231687 -0.00021281243 0.003130479 -0.0012346407 -0.0022621772
0.0 0.0 -0.004687198 0.00021409767 0.0006982205 0.004741008 0.00021408171 -0.00042713335
-0.010716068 0.004010907 0.0 0.0 -0.0012303449 8.6181884e-05 0.001447908 0.00056339084
8.867096e-05 0.0015104073 -0.0013483386 0.001381596 0.0 0.0 -0.003700452 0.00033840197
0.0018054382 0.0044127144 0.00033854684 -0.002084586 -0.00940801 0.004610506 0.0 0.0
-0.00051703973 -0.00077011547 -0.0021589256 0.0016688922 -0.00077161787 0.0009817437 0.0020001647 -0.0023614625
0.0 0.0 0.005586184 -0.0010720277 -0.0014292035 -0.00021104912 -0.0010686121 0.0024451674
-0.0015545617 0.0031595759 0.0 0.0 0.002818893 -0.000550164 -0.0013776671 0.0014070022
-0.0005501272 0.00043185664 -0.0010646766 0.0034250212 0.0 0.0 -0.0013202087 -4.369079e-05
-0.0026433368 -0.00042626096 -4.3726297e-05 -0.00043385747 -0.00051195786 0.00010375635 0.0 0.0
0.0018226957 -0.00035369687 0.0016578936 4.3262386e-05 -0.00035202992 0.001961372 -0.00072890666 0.0015477892
0.0 0.0 -0.0017898005 6.333779e-05 0.0034167198 4.972339e-05 6.268115e-05 0.0011492014

exp_avg_sq f4 [128, 10]
00000000: 6c3e 8839 3fab 0d37 f050 7839 ade4 7439
00000010: c050 0e37 9c3e 4e39 3130 7f39 79d2 6039
00000020: 0000 0000 0000 0000 28e2 c638 6ef6 6036
00000030: 8154 d338 0dea a538 e0fc 6136 b7e0 6738
00000040: a619 a738 0fbc a038 0000 0000 0000 0000
00000050: 0cba ff38 b70f 8c36 be60 fa38 e926 c638
00000060: 1751 8c36 a318 c438 e931 0039 ee35 ea38
00000070: 0000 0000 0000 0000 6d9d 2739 d878 d036
00000080: 6d61 3b39 2d7b 1239 9cc3 d036 ec03 ef38
00000090: 0fab dc38 d871 fa38 0000 0000 0000 0000
000000a0: 97f2 be38 b65f 6036 2898 bb38 4263 b638
000000b0: dc76 6036 b48a 8b38 d4cb c138 a113 b138
000000c0: 0000 0000 0000 0000 e145 7239 ea33 1637
000000d0: 15cd 7739 839f 7039 fa46 1637 12be 2f39
000000e0: 5986 2c39 97ea 2039 0000 0000 0000 0000
000000f0: 9227 a837 d7b0 3b35 e3a2 b537 9056 9937
00000100: c634 3c35 37f4 5c37 1340 6d37 74bd 6d37
00000110: 0000 0000 0000 0000 7f1e 9838 c23c 2c36
00000120: 1f9e a038 5253 a138 9b7f 2c36 d4b0 3638
00000130: 16a4 6f38 c87e 7e38 0000 0000 0000 0000
00000140: d358 0839 878f 9f36 b429 1a39 adf9 0639
00000150: 59da 9f36 7634 cb38 cdf1 d538 7b61 d338
00000160: 0000 0000 0000 0000 1b35 8938 0d49 2d36
00000170: a3d6 8c38 c61f 8038 3bc5 2d36 c8b6 4f38
00000180: f80c 8738 8619 5a38 0000 0000 0000 0000
00000190: da99 b238 6001 3936 c5b2 a038 3705 7f38
000001a0: 397b 3936 363f 4738 615b a038 730a 5538
000001b0: 0000 0000 0000 0000 dde6 1939 367c b236
000001c0: da39 1939 8134 1439 f668 b336 b223 f938
000001d0: 924a 0839 0677 e538 0000 0000 0000 0000
000001e0: 5bd3 f238 d9a1 9236 d1f9 0c39 d763 0439
000001f0: 6c05 9336 9158 ab38 8bd5 d238 7791 a338
00000200: 0000 0000 0000 0000 d3e4 ae38 b4ae 4836
00000210: 9d6f b938 c5a8 8e38 d8e1 4936 c41e 4e38
00000220: 8694 7438 7739 8438 0000 0000 0000 0000
00000230: 00b4 8c39 cf60 2537 e073 9d39 5435 9439
00000240: a340 2637 2d97 3d39 73c7 6f39 85aa 5339
00000250: 0000 0000 0000 0000 f679 da38 e2de 6336
00000260: eb58 b238 cf6e cd38 9498 6436 5404 6938
00000270: 5a5e 9e38 409d 8438 0000 0000 0000 0000
00000280: 02ff 1839 e444 c636 953b 1c39 34a1 0539
00000290: 4358 c636 8c26 f938 ec00 fb38 82a9 e938
000002a0: 0000 0000 0000 0000 f7db f738 f4a0 9036
000002b0: 97d6 e238 d2ec cb38 e9f3 9036 248a 9038
000002c0: 3dff d738 0ca4 c438 0000 0000 0000 0000
000002d0: 8f7f ba37 333c 6f35 fa5a d237 9f53 a937
000002e0: 97d3 7035 8bf2 a437 aa77 8937 9932 b037
000002f0: 0000 0000 0000 0000 f9f3 de38 d24f 7b36
00000300: 3130 fd38 1d25 d638 1b07 7d36 318b 9938
00000310: 2987 b238 908d c138 0000 0000 0000 0000
00000320: 6f11 3539 48b9 ca36 8d0d 3339 a357 3239
00000330: a9e3 ca36 2cf1 f838 9bd3 e938 cc41 e038
00000340: 0000 0000 0000 0000 b925 b039 2847 5537
00000350: 87f4 bd39 cd0c 8e39 7189 5637 8622 7c39
00000360: 06f3 8e39 9b2e 9039 0000 0000 0000 0000
00000370: 1a44 7638 5e7d 1a36 0e2e 8f38 7c55 8038
00000380: 646b 1b36 bcdb 3338 9757 3638 1cdb 3e38
00000390: 0000 0000 0000 0000 a971 bd38 dcf1 5036
000003a0: 6ff9 af38 3e36 be38 20d6 5136 e6d9 6b38
000003b0: f531 a338 7663 5c38 0000 0000 0000 0000
000003c0: e514 9338 3b55 3036 684b 9b38 7eec 7c38
000003d0: 6c1a 3136 b7bf 5638 e869 8238 d704 6c38
000003e0: 0000 0000 0000 0000 c099 fb38 60ed 8e36
000003f0: 8c3e ea38 e9d8 d938 bd33 8f36 5f74 8f38
0.0002598645 8.444126e-06 0.00023681275 0.00023354842 8.482661e-06 0.00019669015 0.00024336648 0.00021440712
0.0 0.0 9.4835006e-05 3.3522042e-06 0.00010077004 7.9114085e-05 3.3674805e-06 5.5283974e-05
7.967958e-05 7.664423e-05 0.0 0.0 0.000121940015 4.1741546e-06 0.000119389486 9.448623e-05
4.1817652e-06 9.350597e-05 0.00012225624 0.00011168035 0.0 0.0 0.00015985007 6.212951e-06
0.00017870004 0.00013969532 6.221655e-06 0.000113971386 0.000105222796 0.00011942134 0.0 0.0
9.105092e-05 3.3434312e-06 8.945196e-05 8.6969245e-05 3.3447786e-06 6.653872e-05 9.240923e-05 8.443674e-05
0.0 0.0 0.0002310495 8.952784e-06 0.00023632155 0.00022947606 8.957222e-06 0.00016760107
0.00016453247 0.0001534618 0.0 0.0 2.0045587e-05 6.9920264e-07 2.1652731e-05 1.827933e-05
7.0112253e-07 1.3169883e-05 1.4141219e-05 1.4170411e-05 0.0 0.0 7.253605e-05 2.5665363e-06
7.658847e-05 7.692598e-05 2.5704273e-06 4.3556865e-05 5.7134857e-05 6.0676393e-05 0.0 0.0
0.0001300306 4.755278e-06 0.0001470212 0.00012872247 4.7639883e-06 9.689566e-05 0.000102016704 0.00010079421
0.0 0.0 6.542561e-05 2.582153e-06 6.7156994e-05 6.109434e-05 2.5893812e-06 4.9522874e-05
6.439717e-05 5.199902e-05 0.0 0.0 8.5163585e-05 2.7567949e-06 7.662693e-05 6.0801594e-05
2.7638873e-06 4.7504167e-05 7.646415e-05 5.079289e-05 0.0 0.0 0.0001467722 5.3192734e-06
0.00014612768 0.00014133939 5.3468348e-06 0.00011879894 0.0001299775 0.00010941741 0.0 0.0
0.00011578827 4.3699806e-06 0.00013444504 0.00012625694 4.3815726e-06 8.170412e-05 0.00010053356 7.7995406e-05
0.0 0.0 8.3395884e-05 2.9904013e-06 8.842277e-05 6.8025234e-05 3.0082792e-06 4.914288e-05
5.8312457e-05 6.304954e-05 0.0 0.0 0.0002683699 9.857306e-06 0.00030031707 0.00028268492
9.90942e-06 0.00018080762 0.00022867117 0.00020186052 0.0 0.0 0.00010417767 3.395537e-06
8.504264e-05 9.7958015e-05 3.406346e-06 5.555556e-05 7.5516014e-05 6.3235406e-05 0.0 0.0
0.00014590847 5.9088798e-06 0.00014899515 0.00012743921 5.911135e-06 0.00011880425 0.000119687844 0.00011141879
0.0 0.0 0.000118188495 4.310272e-06 0.0001081649 9.7239055e-05 4.3199293e-06 6.892186e-05
0.00010299541 9.3765644e-05 0.0 0.0 2.2232327e-05 8.912204e-07 2.5076315e-05 2.0185309e-05
8.971487e-07 1.9663266e-05 1.6387396e-05 2.1004396e-05 0.0 0.0 0.00010631228 3.7448376e-06
0.000120729565 0.00010211228 3.7704074e-06 7.321535e-05 8.512877e-05 9.229325e-05 0.0 0.0
0.00017268 6.0416387e-06 0.00017075818 0.0001700805 6.0465723e-06 0.00011870483 0.000111497204 0.00010693408
0.0 0.0 0.00033597442 1.2712357e-05 0.00036231076 0.00027093888 1.2787395e-05 0.00024045454
0.00027265417 0.00027500544 0.0 0.0 5.8714395e-05 2.3020762e-06 6.82735e-05 6.119438e-05
2.315931e-06 4.288157e-05 4.3473756e-05 4.550359e-05 0.0 0.0 9.033393e-05 3.1135196e-06
8.391111e-05 9.0700094e-05 3.1268064e-06 5.62313e-05 7.781751e-05 5.2544718e-05 0.0 0.0
7.013398e-05 2.6275654e-06 7.4050215e-05 6.0301732e-05 2.6390435e-06 5.1200124e-05 6.2186096e-05 5.6271292e-05
0.0 0.0 0.00011997251 4.259564e-06 0.0001116964 0.00010387769 4.2677552e-06 6.840447e-05

exp_avg f4 [128]
00000000: ba2a 64ba 4628 f037 5bf9 2dbb 57ae 6837
00000010: 3f37 bc39 e7f6 4dba 5a14 9eb9 ebed a83a
00000020: 6fb3 6cba a4f5 d439 c75d 20ba 52ae a0b9
00000030: 8534 8038 c52b 6eb9 9038 a139 ed7d d83a
00000040: 3115 e1b9 6e7f e039 8dbc 3439 886b 313a
00000050: 94e1 c9ba 4883 0cbb e238 90ba a940 b7b8
00000060: 6370 39ba 38d4 0439 3b58 a338 7cd9 2139
00000070: 5d32 ea35 6a1c 453a d06f aeb9 0098 2f3a
00000080: 0a03 e839 92fb ebb9 bcfa 5bb9 1309 123a
00000090: 0529 7eba 0268 9938 88e1 c138 7e3a 26ba
000000a0: a03e 9bba c868 c439 d770 75b9 da1b a73a
000000b0: 3823 f238 3383 a839 1858 01bb ef44 bcb8
000000c0: 3930 1c3a 2e6a 1cba 7943 06ba 5183 4bba
000000d0: 1ab5 94ba 4260 e4b9 c2d1 d9ba d1bb 3f3a
000000e0: 47c1 3eba 0a02 2c3a b1cf 173b 86cf 0ab8
000000f0: a3fb 8bba 39db a4ba 8656 92b8 35ff 8fba
00000100: d750 5aba fddb 6438 fee2 bfb9 6d24 123a
00000110: 1705 0fba ac88 f5b7 01ea c839 8bc2 ce3a
00000120: 1ee3 5438 639a 253a 5e8a 94b9 a54d cdb9
00000130: c240 db3a 9f65 4739 cea9 5f3a 961f 363a
00000140: b43a bc39 96d4 1038 c5a9 09bb 1b0d d83a
00000150: e3a7 3c38 a85b 16bb 8c52 85ba a72d 693a
00000160: 7a89 af39 bc39 38ba 3f88 133a db82 b3ba
00000170: 66e7 033a e0c7 89ba 6087 cd38 c437 a839
00000180: f57a 6339 e4af e538 12e1 e6ba 8197 77ba
00000190: 2589 98ba fc36 6839 8c98 1739 ad39 22b9
000001a0: 75e8 12ba add1 bbba fc10 c03a 681b 573a
000001b0: 807b 923a af90 acba 23b8 5dba 3063 bdb8
000001c0: 99e7 9cba 8592 d2ba 1b4b dfb9 5395 0eba
000001d0: 5b3a 0eba bf58 a73a 61a0 b9ba 9da7 be3a
000001e0: b2fc 70b9 c225 e739 372b 50ba db31 2b3a
000001f0: da7f 0eba 6ac8 c93a 76f9 f3ba e97a 4fba
-0.00087038765 2.8628983e-05 -0.0026546333 1.3868869e-05 0.00035899316 -0.0007856921 -0.00030151271 0.0012888288
-0.0009029423 0.00040618808 -0.00061174895 -0.00030647457 6.113298e-05 -0.00022713754 0.00030750455 0.0016517021
-0.00042931133 0.00042819552 0.00017236378 0.00067680376 -0.001540231 -0.0021440554 -0.001100328 -8.738164e-05
-0.0007073937 0.00012667559 7.78888e-05 0.00015435176 1.7449016e-06 0.00075191876 -0.00033271173 0.000669837
0.00044252753 -0.00045010127 -0.00020978873 0.000557081 -0.00096954434 7.3149815e-05 9.2449656e-05 -0.00063411135
-0.0011844225 0.000374621 -0.00023407057 0.0012749389 0.00011546019 0.00032141208 -0.0019736346 -8.9773785e-05
0.00059581135 -0.000596675 -0.00051217485 -0.0007763403 -0.0011345476 -0.00043559266 -0.0016618299 0.00073140586
-0.00072767254 0.0006561583 0.0023164565 -3.3095035e-05 -0.0010679852 -0.001257754 -6.977939e-05 -0.0010986092
-0.0008328086 5.4564316e-05 -0.0003659948 0.0005574886 -0.00054557755 -2.9269919e-05 0.0003832132 0.0015774531
5.0756258e-05 0.0006317256 -0.0002833185 -0.00039158497 0.0016727673 0.00019015976 0.0008532078 0.00069474557
0.00035901892 3.453026e-05 -0.0021005732 0.0016483398 4.497905e-05 -0.0022942815 -0.0010171696 0.00088950474
0.0003348103 -0.0007027646 0.0005627907 -0.0013695614 0.00050317345 -0.0010511838 9.800377e-05 0.00032085006
0.00021694212 0.00010952333 -0.0017614684 -0.0009444878 -0.0011637552 0.00022145727 0.0001445731 -0.0001547101
-0.0005604097 -0.0014329456 0.0014653499 0.0008205683 0.0011175722 -0.0013165678 -0.00084579195 -9.0306974e-05
-0.0011970877 -0.0016065395 -0.00042589832 -0.0005439121 -0.0005425566 0.0012767537 -0.0014162177 0.0014545802
-0.0002298232 0.00044087885 -0.000794101 0.00065305614 -0.00054359215 0.0015394811 -0.0018613774 -0.00079147384

exp_avg_sq f4 [128]
00000000: 3fab 0d38 6df6 6037 b70f 8c37 d778 d037
00000010: b95f 6037 ea33 1638 d6b0 3b36 c03c 2c37
00000020: 878f 9f37 0d49 2d37 6201 3937 377c b237
00000030: d9a1 9237 b3ae 4837 ce60 2538 e2de 6337
00000040: e644 c637 f6a0 9037 343c 6f36 d24f 7b37
00000050: 48b9 ca37 2547 5538 5d7d 1a37 d9f1 5037
00000060: 3b55 3037 60ed 8e37 94d8 ea36 a660 2036
00000070: 2cb6 5137 f2e3 8236 d1bb e836 550d d537
00000080: a1fd 6837 2a0d 5437 1cf4 1538 3551 0b36
00000090: b3a4 f636 cbec c136 0ef1 1237 1acc a737
000000a0: d800 b037 0fbe 2238 7eee 8137 8322 b537
000000b0: b82c 4e37 5812 3b36 c15e 2538 2ceb 1f37
000000c0: d61b 2b38 fe31 d437 7bd4 fb37 d270 8e36
000000d0: 1c03 dd36 2574 8d36 c967 4037 ac18 7a37
000000e0: 069a 2836 fbe3 8938 fae5 5e37 8727 8037
000000f0: 4fff a337 5049 3437 fc2c 8937 cc9a 0a37
00000100: 6136 7937 57c9 7736 fec3 1138 af1c 6736
00000110: 0278 0937 10cd 0236 b28c cd37 0b91 0637
00000120: 6ad3 ad36 ad79 0838 9e73 d136 4063 2037
00000130: 8653 f037 3c41 dd36 4f10 f237 c0bf 8b37
00000140: 25e4 3038 677d ae36 6335 d838 e68f fc37
00000150: 278e 1b36 28fe 1338 633d 0137 a05b c537
00000160: 9c6a 3637 29ee 2638 6c3a de37 c156 8f37
00000170: e562 9937 9a5d 8837 df32 1a37 0763 1c38
00000180: a1bf d037 5ab0 af36 a37a af37 19f1 e136
00000190: 389d 3b37 2cca 5237 b175 a836 35ed 8636
000001a0: 9f11 2a38 0449 2438 b7cd 0c38 7227 0837
000001b0: 5c0b 4738 824c b336 58e0 f937 1964 0437
000001c0: f2fe 7937 258e d037 0385 1437 2127 a136
000001d0: 2cfe 8337 d99b 3d38 07fb e537 a054 bc37
000001e0: 48b3 bd36 a971 7737 c65c 9737 a4f4 2a37
000001f0: 7895 1f37 4d48 8637 f1e7 f737 c888 4937
3.3776505e-05 1.3408816e-05 1.6696618e-05 2.4851803e-05 1.3373728e-05 3.5811136e-05 2.7968103e-06 1.0266143e-05
1.9021112e-05 1.0328612e-05 1.1027181e-05 2.1277096e-05 1.7479922e-05 1.1961604e-05 3.9429222e-05 1.3582148e-05
2.3635523e-05 1.7241091e-05 3.5648818e-06 1.497935e-05 2.4166555e-05 5.0849416e-05 9.208304e-06 1.2454076e-05
1.0510262e-05 1.7038255e-05 6.9989565e-06 2.3898115e-06 1.2499786e-05 3.9008382e-06 6.9360035e-06 2.5397787e-05
1.388733e-05 1.263925e-05 3.5751713e-05 2.0759883e-06 7.350545e-06 5.7794146e-06 8.758403e-06 2.0002994e-05
2.0981228e-05 3.8800816e-05 1.5489055e-05 2.1592952e-05 1.2288969e-05 2.787585e-06 3.9427312e-05 9.531894e-06
4.07955e-05 2.5295649e-05 3.0020476e-05 4.245064e-06 6.586675e-06 4.2156485e-06 1.1468256e-05 1.4906906e-05
2.5123604e-06 6.575134e-05 1.3285777e-05 1.5277195e-05 1.9550002e-05 1.07459055e-05 1.635262e-05 8.261482e-06
1.4854218e-05 3.6923063e-06 3.4753226e-05 3.4438378e-06 8.193778e-06 1.9490872e-06 2.450342e-05 8.020793e-06
5.1804136e-06 3.2538246e-05 6.242145e-06 9.559852e-06 2.8649123e-05 6.5939075e-06 2.8856242e-05 1.6659382e-05
4.2174146e-05 5.200203e-06 0.00010309627 3.0107749e-05 2.3179543e-06 3.5284233e-05 7.703292e-06 2.3526896e-05
1.0872867e-05 3.9799288e-05 2.6491667e-05 1.7087326e-05 1.8285073e-05 1.625605e-05 9.19096e-06 3.7285525e-05
2.4884766e-05 5.2359364e-06 2.0918733e-05 6.73359e-06 1.1182674e-05 1.2564047e-05 5.0204912e-06 4.0211257e-06
4.054757e-05 3.9168648e-05 3.3570188e-05 8.115416e-06 4.7455876e-05 5.3435224e-06 2.9787581e-05 7.891119e-06
1.4900916e-05 2.4861723e-05 8.852457e-06 4.802729e-06 1.5734775e-05 4.5206256e-05 2.7415821e-05 2.2450753e-05
5.65351e-06 1.4748811e-05 1.8043804e-05 1.0189749e-05 9.511939e-06 1.6007712e-05 2.95527e-05 1.20123805e-05
