RollerBall/results/RollerBall_v3/RollerBall/RollerBall-60591.onnx (onnx, 77146 bytes, 7 tensors)

network_body._body_endoder.seq_layers.0.weight f4 [128, 10]
000000 d1 0d 3e be 6f f7 d5 3c 3c 9c d8 be 1d 32 06 bf
       -0.18559958 0.026118962 -0.42306697 -0.52420217
000010 ae db 82 be 96 d0 f9 3d 66 cf b4 bc 83 ea ee 3d
       -0.25558227 0.12197988 -0.022071552 0.11665823
000020 30 09 84 be 52 28 0b bd dd ea ff be 51 74 c1 3d
       -0.2578826 -0.033974 -0.49983874 0.09446014
000030 bd a3 5a be ee a0 8e 3d 12 76 c9 3e 4c 7a f5 bd
       -0.21351524 0.06964289 0.39347893 -0.11986217
000040 b3 b9 4b 3e 14 2a a9 39 91 0f dc bd 09 5f 5b be
       0.19895057 0.00032265543 -0.107451566 -0.21422972
000050 76 72 92 3e 2d 3c a0 3d 5a d5 dd be 55 f8 05 bf
       0.28602952 0.078239776 -0.43326837 -0.5233205
000060 95 ec 30 be 2a f8 87 be 42 d6 16 bf c7 77 f3 3e
       -0.17277749 -0.26556522 -0.5892068 0.4755232
000070 c4 5a 84 3b b9 f5 38 3e ac b1 87 3e b2 21 b8 3e
       0.0040391404 0.18062486 0.2650274 0.35963207
000080 1f 2c 22 bd d5 c4 79 be cf 52 a9 3e 1d a8 d0 be
       -0.03959286 -0.24391492 0.3307099 -0.4075326
000090 03 08 dc 3e 8d b9 61 3d ba 65 59 3d f1 72 ae bd
       0.42974862 0.055108596 0.05307553 -0.08518017
0000a0 da 7a b4 be 67 ac 57 be 24 57 c3 3e 67 c6 cb be
       -0.35249978 -0.2106186 0.3815242 -0.39799806
0000b0 b1 3e 0d 3d 6f 64 04 bd e4 99 3a bf 9b b3 df 3e
       0.034483615 -0.032322343 -0.7289107 0.43691716
0000c0 3f ee ad 3e ba 65 09 3f f2 a6 31 3e c0 74 2d 3f
       0.3397083 0.5367085 0.17348841 0.6775627
0000d0 de d6 39 3e 02 44 14 3e be a0 b4 3d 1e d4 35 bf
       0.18148372 0.14479068 0.08819722 -0.7102679
0000e0 7a d1 91 3d a5 2a 50 be 27 d8 d3 3e 2a 50 6a 3e
       0.071200326 -0.20328768 0.4137585 0.22882143
0000f0 62 55 ac 3e e3 fc 1a be 9e 62 9b 3d be 26 95 3e
       0.33658892 -0.15135531 0.07587169 0.2913112
000100 f9 de 2c 3e a5 63 b9 be 56 5f 1d 3f 24 31 8c 3e
       0.16881932 -0.36208835 0.61473596 0.2738124
000110 32 f3 92 3d eb 3d cf 3e c4 d1 34 bd 4c cc 6d ba
       0.07175292 0.40476927 -0.04414536 -0.0009071275
000120 ae 09 0c 3e a4 ad 71 3e b3 6c 54 bc ea e3 bb bd
       0.13675568 0.23601395 -0.012965369 -0.091743305
000130 ae f7 09 bf 28 a6 a6 3e f4 fc 83 bc 15 fa c9 be
       -0.53893554 0.32548642 -0.016111828 -0.3944861
000140 0e 5b 68 be ae 59 ea be 3a bd 49 3f 9b b5 75 be
       -0.22690985 -0.45771545 0.7880436 -0.23995058
000150 f2 df 96 3d d8 fe 94 be 3f 6a 82 3e e6 0f 09 3e
       0.07366933 -0.2910068 0.25471684 0.13384971
000160 b9 e2 a3 3e 81 ad 9f be ab 42 bf bd 54 0f d5 3e
       0.32008913 -0.3118706 -0.09338888 0.41613257
000170 1b c3 13 bf 4b 18 0b be 24 2e 86 be ce ac 4d be
       -0.5771958 -0.13583486 -0.26207078 -0.20085451
000180 a1 2f 0f 3f 71 ac af 3e 51 1f 94 be b8 83 45 3b
       0.5593205 0.3431125 -0.28930143 0.0030138325
000190 52 bc 89 3e d5 c3 66 3d 15 7f 48 be a4 62 16 be
       0.2690149 0.056339104 -0.19579728 -0.14686066
0001a0 36 e8 25 be 0e 51 fb be a9 2c 21 3f f1 0f 99 3d
       -0.16201863 -0.49085277 0.6295877 0.07473744
0001b0 e3 4b ab 3e 08 0c 60 be 89 43 4a bd f2 ce cc bd
       0.33456334 -0.2187959 -0.049380813 -0.10000409
0001c0 be bd 13 3d 16 63 15 be be 32 69 be be 73 ca 3e
       0.036069624 -0.1458858 -0.22773263 0.3954143
0001d0 99 1a dc 3e 02 58 d9 3d 9c 55 90 be 68 62 e8 3e
       0.42989042 0.10612489 -0.28190315 0.45387578
0001e0 70 9f b8 bd 57 e5 9a be fd 58 e8 3c e4 38 d3 3e
       -0.09014785 -0.30253097 0.028362745 0.41254342
0001f0 12 6d 2f be 48 26 80 3e 24 6e 8d 3e e0 54 94 3d
       -0.17131451 0.25029206 0.27623093 0.07242751
000200 ab 99 35 3f ed b6 38 3e 0b 31 55 bd 9a e7 4b 3e
       0.70937604 0.1803853 -0.052048724 0.19912568
000210 2e 71 46 3f 55 13 b4 3e ae b3 cb 3d a0 4c 7b 3e
       0.7751645 0.35171 0.099463806 0.24540949
000220 01 a6 95 3e 1c bb 2e 3f 65 b0 cc 3d ec 9e 06 3e
       0.29228213 0.68254256 0.09994582 0.13146561
000230 f7 32 24 be c7 0e 16 bf 32 9d 5f be 71 a7 b1 3e
       -0.16035067 -0.586163 -0.21837309 0.3469806
000240 d1 89 cb bd a1 02 b7 3e 1e 11 49 3e 42 6e 8c 3e
       -0.09938396 0.35744193 0.19635436 0.2742787
000250 77 7a 4a 3e c2 01 1d 3f 15 bd 59 be c6 64 98 3d
       0.19773279 0.6133081 -0.21263535 0.07441096
000260 3a fc 6f be ae 8c 09 3f b9 30 78 3c 5a 59 d3 bc
       -0.2343606 0.53730285 0.015148335 -0.025799442
000270 ab f0 cf be ff 16 cc bd fb da 96 3d 4f d4 94 be
       -0.40613303 -0.09965324 0.07365986 -0.2906823
000280 37 0f f8 3e e6 a7 47 be c7 07 98 be 86 51 f9 be
       0.48449108 -0.19497642 -0.29693434 -0.4869501
000290 54 87 62 3f 0b 23 55 be c4 3c 37 be fb 4a 9c be
       0.88487744 -0.20814149 -0.17894274 -0.30525956
0002a0 ba aa 77 bc b6 4c 05 3e 87 ca 25 bf f0 1a 04 bf
       -0.015116388 0.13017544 -0.6476216 -0.51603603
0002b0 f9 b5 90 bd 5e 93 af 3e 60 f3 0f be 69 e6 a6 3e
       -0.070659585 0.3429212 -0.14057684 0.32597664
0002c0 5d 8e a9 3d 31 45 fb be b2 a6 15 bd 92 56 9e bd
       0.08279107 -0.49076226 -0.036535926 -0.07731356
0002d0 c5 77 22 3f f1 93 25 3e 29 91 46 be df bc 07 bb
       0.63464004 0.16169716 -0.19391312 -0.0020711941
0002e0 a0 22 ee 3e 39 ff 03 3d 96 04 6a 3e 71 c7 21 3e
       0.46510792 0.03222582 0.22853312 0.15798737
0002f0 98 7d 27 3f cc 9c 01 bc 39 4f fa be 5f 8b a7 3b
       0.65426016 -0.007910918 -0.48888567 0.00511305
000300 d5 cc 25 3e ae 76 40 3e 75 07 12 bd d7 79 dd 3e
       0.16191418 0.18795273 -0.035651643 0.4325702
000310 4e bf 09 3f e0 54 fc 3d 40 b4 cf bc ad 54 fb 3d
       0.5380753 0.12320876 -0.025354505 0.1227201
000320 5c bf 13 3f 90 8c db be c3 cd b1 3e 04 f6 ff 3d
       0.57713866 -0.42880678 0.34727296 0.12498096
000330 99 dc a6 be 14 6e 1d be 03 f0 14 bf 57 52 7d be
       -0.32590178 -0.15374023 -0.5817873 -0.24738441
000340 e2 be 9b be 53 4b 41 3e 81 f2 b7 be 04 e7 d2 3e
       -0.3041907 0.1887639 -0.35927203 0.41191876
000350 67 e8 8b be d6 ef 28 be d4 99 c5 3d a0 36 31 3f
       -0.27325746 -0.1649774 0.09648481 0.69223976
000360 1f b3 8c 3c 6f 74 36 3c 98 0a 14 3f 90 09 3e bc
       0.017175255 0.011136158 0.57828665 -0.01159896
000370 14 5f a1 be 54 28 54 bd 71 ee 7f 3e 51 07 bf 3c
       -0.3151785 -0.051796272 0.24993302 0.023318918
000380 ba 0b 3e 3f e9 e2 ab 3e 99 a2 24 3f 0b bc 84 3d
       0.74236643 0.33571556 0.64310604 0.06481179
000390 92 e5 ab be 16 ac d2 bd 27 35 f2 3e 58 8c 40 3e
       -0.33573586 -0.10286729 0.47306177 0.18803537
0003a0 50 cd fa bc 48 b6 26 3f 5a 35 9f 3e 7b 57 9c 3d
       -0.030615479 0.6512189 0.31095392 0.07633873
0003b0 d6 23 6c 3d 06 4b c9 bd ab 59 87 3d ec 19 e1 be
       0.057651363 -0.09828763 0.066089 -0.4396509
0003c0 b0 26 75 3d 5e 19 09 3f 61 73 e2 bd 0d 80 35 bd
       0.05985135 0.5355433 -0.11057163 -0.044311572
0003d0 11 fc 67 be 16 2b d4 3e af 05 31 bd ee 57 b4 be
       -0.2265475 0.41439122 -0.04321831 -0.35223335
0003e0 15 3d 22 3f b0 53 7f 3e 79 47 52 3e 68 80 d5 bd
       0.63374454 0.24934268 0.20535077 -0.10424882
0003f0 28 ba 74 bd 82 88 22 3f a0 c4 04 3f 23 28 e8 3e
       -0.059747845 0.63489544 0.51862526 0.45343122

network_body._body_endoder.seq_layers.0.bias f4 [128]
000000 2e 12 1f 3d 1b a3 3a 3c 81 28 59 3d e9 a2 2e 3d
       0.038835697 0.011391426 0.053017143 0.042635832
000010 26 ec 93 bc f4 85 51 3d fb 43 11 bd 7b b6 62 3b
       -0.01805694 0.05115314 -0.03546522 0.003459363
000020 02 f2 00 3d d5 fe 0b 3c 6e df c7 bb 69 d1 25 3d
       0.031480797 0.008544643 -0.006099633 0.040482912
000030 3a 63 30 3d 59 5d 34 3c 3b 3e 99 3d 2e 26 20 3d
       0.04306338 0.011008584 0.07482573 0.03909891
000040 66 10 34 3d 8b 78 15 3d cd a8 25 3c 44 3f 37 3d
       0.04396095 0.03649191 0.010111046 0.04473807
000050 13 ab 3a 3d cd b7 6e 3d ea 7e 94 bb 37 4e 8f 3b
       0.045573305 0.058280755 -0.004531731 0.0043733376
000060 69 cf 08 3d 08 a4 1f 3c 3c 51 6c ba a8 fa 71 bc
       0.033400927 0.009743698 -0.00090147904 -0.014769234
000070 8b 41 23 3d 26 26 68 bb 0f d9 b2 3c 3b fa eb 3c
       0.03985743 -0.003542313 0.021832017 0.028805843
000080 30 aa f9 ba b4 15 08 bc 01 99 94 3c 19 33 14 3d
       -0.0019047912 -0.008305956 0.018139364 0.036181543
000090 e0 34 62 bc 56 2c bc 3b e8 39 2d 3c 97 fa b7 3c
       -0.013806552 0.00574259 0.010572888 0.022458358
0000a0 32 1a 64 3d 6a 20 40 3d 58 69 08 bc 16 20 27 3d
       0.055689044 0.046905912 -0.008325897 0.040802084
0000b0 87 fd 0d 3d 70 5b 69 3c c1 42 2e 3d 55 a8 39 3d
       0.03466561 0.014242992 0.04254413 0.04532655
0000c0 f8 27 16 3d 5d 6d 72 3d 5a 72 c8 3c 2c 72 28 3b
       0.03665921 0.05918633 0.02446859 0.0025702817
0000d0 ef 42 7c bb b7 e4 d6 3c f4 cc da 3c b0 17 b0 3c
       -0.0038492044 0.026232107 0.026709057 0.02149567
0000e0 01 c6 4a bc 76 4b 1c 3d 9b 68 05 3d 44 b8 05 3d
       -0.012376309 0.038157903 0.032570463 0.032646433
0000f0 6f 8d 01 3d d8 25 19 3d b7 b0 f0 bc a9 f4 fc 3c
       0.031629022 0.037389606 -0.02938114 0.030878382
000100 52 5b 81 3c 24 c2 45 3c ab 2d 6f 3d ce 87 0f 3d
       0.015790615 0.0120702125 0.05839316 0.035041623
000110 9a 26 a2 3b 6e ba ea bc 63 86 08 3d da 30 d2 bc
       0.0049484493 -0.02865335 0.033331286 -0.02565806
000120 2e 25 28 bc bb d0 c3 3c e2 7c e4 bb 77 e0 c9 bb
       -0.010262771 0.023903241 -0.006972895 -0.0061607915
000130 bd 89 0d 3d 7b 85 91 3b be 7e 33 3d bf d0 16 3d
       0.034555186 0.004440961 0.043822043 0.03682017
000140 14 99 4f 3d b6 c1 2d 3c 89 d9 98 3d 78 6a a8 bb
       0.050683096 0.010605266 0.074633665 -0.005139645
000150 4d 7c 9b bc f1 61 3e 3d 6d 74 dd bc b6 ad 0d 3c
       -0.01898017 0.046480123 -0.027033055 0.008647373
000160 ec ce 28 3d 60 c9 76 3d d9 6e 42 3d 57 a7 a1 3c
       0.04121296 0.06025064 0.047468994 0.019733114
000170 ab 4e e5 3b ec 1a 08 3d 80 3d 89 3a 23 eb 77 3d
       0.0069979033 0.0332288 0.0010470599 0.06052698
000180 7b a7 ec 3c 0b df 04 3d f3 ec 5f 3d 07 02 dd 3c
       0.028888455 0.032439273 0.05466933 0.026978506
000190 8c c3 1b 3d 42 9f 9a 3c 50 b5 e2 bb 80 d7 2f 3d
       0.038028285 0.018874768 -0.006918587 0.042930126
0001a0 7d 80 3d 3d 12 7f d8 3c 8d ef 8d bc 25 5f b0 3a
       0.046265114 0.02642778 -0.01732614 0.001345609
0001b0 93 34 a2 3c 0c 26 e5 bb c7 e3 7c 3c 6e 97 de ba
       0.01980046 -0.006993061 0.015435166 -0.0016982385
0001c0 48 ae e3 3c c8 a7 50 3d cc 81 69 3c 55 6a 38 bb
       0.027793065 0.05094126 0.014252137 -0.002813955
0001d0 5c cf 35 3b 9c c4 00 3d b5 23 37 3d 0a 0a fa 3b
       0.0027742004 0.0314375 0.044711787 0.0076305913
0001e0 61 69 93 3d df ac 14 3d e3 2e 5b 3c 7a 96 84 3c
       0.07197834 0.036297675 0.013377878 0.016185034
0001f0 e9 79 a3 3c 29 ec 68 3c e1 0b 62 3d 13 3e c5 3b
       0.019955592 0.014216461 0.05518711 0.0060193627

network_body._body_endoder.seq_layers.2.weight f4 [128, 128]
000000 b9 27 10 bd f2 48 29 bd 96 23 86 3d 8e 77 7d 3d
       -0.035194132 -0.04132933 0.06549756 0.061881594
000010 38 18 9e 3d da 0e 3d 3d cd b8 a7 bd e8 64 08 3e
       0.07719463 0.04615674 -0.08189545 0.13319743
000020 d9 21 62 3c 64 a1 ea bd 3a b8 91 bd 17 fb 8e 3d
       0.013802015 -0.11456564 -0.071152166 0.06981485
000030 69 f0 f1 bd 40 6f 32 be 80 27 87 bd 7a d5 0b 3e
       -0.11813433 -0.17425251 -0.06599331 0.13655654
000040 18 ea 2c 3e 86 01 21 be 18 7c 41 3d 66 5b b6 bb
       0.16886175 -0.15723237 0.047237486 -0.0055650948
000050 61 74 2f 3c 5e dd 7b bc d8 d5 14 be 9d 71 a6 bd
       0.010708899 -0.015372602 -0.145347 -0.08127139
000060 10 1b 04 bc a2 e7 92 3c 24 76 0e bd 33 16 73 bc
       -0.008063093 0.017932717 -0.034780636 -0.014836836
000070 b9 b4 1e 3d 4e 63 f5 3d e1 96 6c 3d 81 ec 23 3e
       0.03874657 0.119818315 0.057761077 0.16008188
000080 ae 54 f8 bd 89 10 81 bc 42 99 cc bd 5a cf c4 3c
       -0.12125526 -0.015754955 -0.09990169 0.024024654
000090 78 76 f8 bc ed 46 0b 3e 35 b6 1f 3e b3 79 64 3e
       -0.030329928 0.13601275 0.1559685 0.2231205
0000a0 13 e8 3a 3e d3 42 eb 3c 6d b3 3d bd a6 cd b0 bc
       0.18252592 0.028718388 -0.046313692 -0.021582436
0000b0 6e f2 ad 3c 08 b3 01 bd 33 78 c0 3d 5c de e0 bd
       0.021233764 -0.031664878 0.09397926 -0.10979912
0000c0 84 89 0a 3e e9 9a 70 3d c4 bb f7 3d 24 20 10 3b
       0.1352902 0.058741484 0.1209636 0.0021991814
0000d0 f8 bb b2 3d 54 2c 4b 3e a4 ca 57 3d be f8 c3 bd
       0.087272584 0.19841129 0.052683488 -0.09568928
0000e0 7a e9 1c 3e 90 22 87 bc 3f 8c 81 3d 0a 23 18 3d
       0.15323439 -0.016495973 0.06325578 0.03714279
0000f0 27 3d 7d 3e 17 4f bd bc 74 c7 20 bd e1 23 e4 3d
       0.24730359 -0.023109002 -0.039252713 0.11139656
000100 07 ca c7 3d 0d 31 7c 3d 20 d5 b1 bc c4 3a 65 3d
       0.097553305 0.061570216 -0.021708071 0.055964246
000110 18 24 f7 3d 4b c5 da 3d 49 1b cb bd 86 35 a9 bd
       0.12067431 0.10682162 -0.099173136 -0.08262162
000120 58 e3 7c bd f5 19 88 3d b0 d6 b8 3d 0b 00 67 3d
       -0.06174025 0.06645576 0.090253234 0.056396525
000130 a2 f9 ed bd 1a 60 56 bc 69 a5 a9 3d 2f 78 f0 3d
       -0.11619879 -0.013084436 0.082835026 0.11741673
000140 ea 78 8d 3d 77 ef ac 3d eb cc 42 3e 4e f5 fa 3c
       0.06907828 0.08444112 0.19023483 0.030634549
000150 bb 0e 68 3b 7e e2 3a 3e d1 8d 36 bd 5e 57 1f be
       0.003540917 0.18250462 -0.04456884 -0.15560672
000160 cb 22 8b 3d ba 1f b4 bd 43 e5 d3 bd 81 27 26 bd
       0.067937456 -0.08795114 -0.103464626 -0.040565018
000170 74 32 57 3d 01 f5 8c bd 4a 3e 89 bc 18 92 fd bc
       0.05253835 -0.06882668 -0.016753335 -0.030953452
000180 1f 26 6f 3d 60 b3 7d 3d 57 6a 1c 3d f6 64 fe bd
       0.058385964 0.061938643 0.03818735 -0.124216005
000190 28 d9 27 bc 7c 39 b3 3c 00 9f 0c 3e 42 11 24 3e
       -0.010244645 0.021877997 0.13732529 0.16022208
0001a0 46 6b 3f be 3e 52 fd bc 62 72 3e 3d 32 d5 bf bc
       -0.18693265 -0.030923005 0.046495803 -0.02341709
0001b0 20 63 0b bd f0 c9 f9 bd 37 71 72 bb 4a 0d 9b bc
       -0.03403008 -0.1219672 -0.003699375 -0.018927235
0001c0 82 e7 fe 3c 75 72 81 3d 3d 1c f4 3c f0 c5 38 3e
       0.03111625 0.06320659 0.029798621 0.18044257
0001d0 37 7c 1d be f3 c9 1f 3d fc 08 91 bd d1 cf 3b 3c
       -0.15379415 0.039010953 -0.07081792 0.0114631215
0001e0 a5 a8 6c 3d c4 70 ad 3d 44 da 89 3d 8c 87 ea 3c
       0.05777802 0.08468774 0.06731084 0.028629087
0001f0 00 f3 c0 bc 90 32 82 bd 6c f4 fe 3d f2 96 2c 3d
       -0.023553371 -0.063573 0.124489635 0.04213614
000200 29 9c a6 3d 5b 15 c4 3c ef f1 e6 bd cc 88 4c be
       0.08135254 0.023935964 -0.11276614 -0.19974059
000210 73 da 5d 3d 4a 83 ed 3d 34 68 cc 3d 72 b8 a4 3d
       0.054163408 0.11597307 0.09980813 0.08042993
000220 31 0b 07 bd 41 2d 1d 3c 57 5f 0d 3e e8 53 e0 bd
       -0.032969657 0.009593309 0.138059 -0.10953504
000230 05 a3 24 be 9a 87 84 bd c8 27 8f bc bf 5d 5e bd
       -0.16077812 -0.064711764 -0.017475024 -0.054288622
000240 aa fc 21 3d 57 49 cc 3d 21 93 fb 3d 82 7f bc bd
       0.0395476 0.09974926 0.12283922 -0.09204008
000250 08 6a ea bc 44 dc 32 3d 14 96 4a 3e 6e ea 43 3e
       -0.028615013 0.043667093 0.19783813 0.19132397
000260 c4 a5 92 bd 34 62 48 3e 67 a8 2c 3d cc af c0 bd
       -0.071605235 0.19568712 0.04215279 -0.094085306
000270 5c be 55 be ee e7 cc 3d 0d 6e 82 3d 0a 00 fd bc
       -0.20873398 0.100051746 0.06368647 -0.030883808
000280 c1 1b fc bd 19 4a 96 bc 15 c3 c8 3c 29 09 67 3d
       -0.12309981 -0.01834588 0.024507085 0.05640522
000290 c7 5b f7 bc f0 87 93 3b 12 04 8a 3d f4 b8 33 bd
       -0.03019513 0.004502289 0.067390576 -0.043877557
0002a0 66 ba 0b bd 24 fb 2f 3e e1 b1 a0 bd 0d fb 00 be
       -0.03411331 0.17185646 -0.07846428 -0.12595768
0002b0 9e 4e 75 3d 33 1d be bd 7d 5e 8d 3d 03 52 69 3b
       0.05988943 -0.09282913 0.06902788 0.0035601861
0002c0 96 54 00 be 8d 0d f4 bd 27 2a 08 3e 73 5c 26 bd
       -0.12532267 -0.11916647 0.1329733 -0.04061551
0002d0 98 6d e0 bc b8 ef 8a 3d 57 0a 3a bd f8 20 1d 3c
       -0.027396008 0.06784004 -0.045420017 0.00959038
0002e0 6f e6 91 bc cf 13 d4 3d 07 87 eb 3d 5e c1 db 3d
       -0.017810075 0.10355341 0.11500364 0.10730241
0002f0 55 85 0e 3e 46 bd 06 be c3 e9 a0 bd e4 30 3d 3d
       0.1391805 -0.1315814 -0.078570865 0.046189204
000300 2b 9c 3e 3d ae 53 89 3d f8 de 1d be 46 ee b8 bd
       0.046535652 0.06705414 -0.15417087 -0.09029822
000310 79 5d 0a 3e f3 0d 0a bc 53 cf 87 3c ba 9c aa bd
       0.1351222 -0.008426177 0.016578352 -0.083306745
000320 4d bf 3e bd 4e 6f 92 bd 1e ee 88 3c 73 33 86 3d
       -0.046569157 -0.07150136 0.016715106 0.06552782
000330 78 d0 5d be 2f 01 42 ba a3 e2 58 3e 1d 71 bd bc
       -0.21661556 -0.0007400689 0.21180205 -0.023125226
000340 53 97 93 bd 16 be 29 3d ea c3 5b 3d e7 a6 04 3e
       -0.07206597 0.041441046 0.053653635 0.12954293
000350 36 7c c8 bc c0 a1 8b 3c b2 39 08 be 22 b1 35 3e
       -0.02447329 0.017044902 -0.13303259 0.17743352
000360 2e cf d7 bd 58 e1 5e bd 85 f1 b1 bb 7f c7 1e bd
       -0.10537563 -0.054414123 -0.0054304027 -0.038764473
000370 c0 a4 ce 3c 84 23 b4 ba 28 13 6d 3a 9d 1f 77 be
       0.025225043 -0.0013743495 0.0009043687 -0.24133153
000380 dd e9 73 3d 0f 99 57 3d 84 6b b4 3c b3 76 cf bd
       0.0595492 0.052636202 0.022023924 -0.10130062
000390 0a 76 e4 bc 19 e9 82 bd 8f fa 7f be 82 08 5f 3d
       -0.027888317 -0.06392116 -0.24997924 0.054451473
0003a0 b8 23 47 be f0 97 64 3b fc b6 86 bc 33 14 c6 3d
       -0.1944722 0.00348806 -0.016444676 0.096718214
0003b0 1a 6f df bd d0 db e5 bb 95 a8 93 3d d5 1e d2 bd
       -0.10909863 -0.007014729 0.07209889 -0.10259787
0003c0 73 b8 45 3d 24 47 06 bd 6d e7 a9 3d 69 2b 2d bd
       0.048271608 -0.03278269 0.08296094 -0.042277727
0003d0 97 92 a5 3d e2 f9 fa 3b 5e 43 25 3e 4a a2 33 be
       0.080846004 0.007659183 0.1613898 -0.17542377
0003e0 79 6b c7 3d 5f 83 3c 3e cf f0 9c 3d 44 6f 35 bd
       0.09737296 0.18409489 0.07663118 -0.044295564
0003f0 3d 93 a8 bc fd e4 d4 3b 2e 85 db bd b0 1b fc 3d
       -0.020578021 0.006497024 -0.107187614 0.123099685

network_body._body_endoder.seq_layers.2.bias f4 [128]
000000 1a 31 22 3d a3 fb 57 3c a9 16 97 3d e6 dc e2 3c
       0.03959761 0.013182553 0.07377369 0.027693223
000010 54 f3 1e 3c 94 c9 ee 3c e5 cc b2 3c cb eb 89 bc
       0.009701569 0.029148854 0.021826217 -0.016836068
000020 90 40 81 3d 50 8c 5b bc b7 5a a7 bb 05 d8 3f 3d
       0.063111424 -0.013400152 -0.0051072496 0.04683687
000030 2a ab 47 3d e6 8b 4e 3c 73 03 87 3c 8f 23 ad 3c
       0.04874722 0.012606597 0.016481137 0.02113512
000040 9a c9 b5 3c 77 cb 0b 3d e2 22 14 3d 3d 57 0f bc
       0.022190858 0.034129586 0.03616608 -0.008748827
000050 a0 34 d3 3c 86 97 27 3c 22 5f 65 3b 71 4d 57 3c
       0.02578193 0.010228997 0.003499933 0.013141022
000060 4c ec 05 3d f7 5b c1 3c b2 2b 91 3c 23 6d 20 3d
       0.032696053 0.023603423 0.01772103 0.03916658
000070 a4 ef 8d 3c 5f a0 84 3c b2 bd 04 3d e3 9d 67 3d
       0.017326184 0.016189752 0.03240747 0.056547057
000080 cc 67 00 3d cc 79 94 3c db 3b 80 3b a5 d9 6c bb
       0.03134899 0.018124484 0.0039133853 -0.0036140468
000090 0b 36 f6 bb 48 58 9d 3c a3 d6 ce 3c ce 42 b5 3c
       -0.0075137666 0.019207135 0.025248831 0.022126582
0000a0 ab a6 68 3b 26 10 b5 3c 0f c2 39 3c a7 0b bc bb
       0.0035499732 0.022102427 0.011337771 -0.0057386938
0000b0 44 dd 38 3d 06 5b 3d bc ac 68 cf 3c 78 c1 e6 3c
       0.04513289 -0.011557346 0.025318466 0.028168425
0000c0 b7 7b d2 3c 88 cc 90 3c 07 73 ff 3c 20 86 ae 3a
       0.025693757 0.017675653 0.031182779 0.0013315119
0000d0 c6 91 8b 3c a8 4d 29 3c 36 43 06 3c 61 c7 23 3d
       0.017037284 0.010333456 0.008194735 0.039985064
0000e0 6f 72 08 3d 79 87 1e 3d 2a 2b a9 3c 03 51 5d 3d
       0.033312257 0.038703416 0.020650465 0.054032337
0000f0 7b af 17 3d 9c 2a b5 3c 10 cf 28 3b b1 0d f3 3c
       0.037032586 0.022115044 0.0025758184 0.029669615
000100 dd c0 ce 3c 3c 7c 12 3d 14 88 0a bc d8 22 27 3d
       0.025238449 0.03576301 -0.008455295 0.040804714
000110 1c 7d e7 3c 07 22 6b 3c 03 9d 12 3c f9 39 6a bc
       0.028257899 0.0143513745 0.008948567 -0.014296048
000120 63 55 f3 3c 96 a8 27 3d 24 b8 06 3d f8 0b ef 3c
       0.029703801 0.04093226 0.032890454 0.029180512
000130 4e c8 ae bb 31 a2 3c 3d b7 f8 da 3b c8 08 e5 3c
       -0.005333937 0.046053115 0.006682481 0.027958289
000140 0f cf 47 3c 3f 28 0f 3d 70 56 03 3d 6e 88 3a 3b
       0.012195363 0.03495049 0.032064855 0.0028462666
000150 80 89 97 bc 02 73 6b 3b ad b3 c9 3c 71 48 e8 37
       -0.018498182 0.0035926704 0.024621809 2.7690288e-05
000160 62 c8 36 3d cd 1e 7f bc ef 69 6d 3d 67 47 2f 3c
       0.044624694 -0.015571308 0.057962354 0.010698176
000170 08 52 72 3c b2 c4 e0 3c eb 7d 08 3c 05 71 36 3b
       0.014790066 0.027437542 0.008330802 0.002783836
000180 5d 26 0a 3d a4 e7 6d bb ad cc 52 3d e7 fc 0a 3c
       0.033727992 -0.0036301399 0.051464725 0.008483148
000190 ae fe 80 3b 0a 2f 51 3d d3 a4 2d 3d c3 d4 dd 3c
       0.00393661 0.05107025 0.042393517 0.027078992
0001a0 b4 07 b6 ba e8 b4 d0 3c bb c8 0b 3b 9b d8 6d 3c
       -0.0013887794 0.025476888 0.0021329361 0.014516975
0001b0 93 4b 84 3c a4 2d f0 3c 39 e8 bb 3c b6 60 00 3d
       0.016149318 0.029318638 0.02293788 0.03134223
0001c0 72 05 50 3c 20 67 2e 3c 75 9b 36 3d f5 57 99 3c
       0.012696611 0.010644704 0.04458185 0.018718699
0001d0 d0 b4 a6 3b 18 0d 24 3c 73 46 ad 3c 28 55 fa 3b
       0.0050874725 0.010012887 0.021151757 0.007639546
0001e0 29 e8 f3 3c 8a ce 38 3d e7 33 55 3c 03 2d 85 3c
       0.029773789 0.045118846 0.013012863 0.016256815
0001f0 f7 cc ea 3c 5b 46 87 3c ab 30 f5 3c 08 12 ab 3c
       0.028662188 0.01651304 0.029930433 0.020882621

action_model._continuous_distribution.log_sigma f4 [1, 2]
000000 84 dc 37 bc 2c 1d fa bc
       -0.011222009 -0.030531488

action_model._continuous_distribution.mu.weight f4 [2, 128]
000000 95 95 05 3d bd 48 33 bd 87 e5 fd 3c 9f 83 52 bd
       0.032613356 -0.04377054 0.030993236 -0.051395055
000010 80 1a 4d 3c ff 92 2d 3d c0 3a 32 bc 2d c5 78 3a
       0.012518525 0.042376515 -0.010878265 0.00094898307
000020 da fe 0d 3d 10 50 04 bd cc 6f a3 bc fe 7c 71 3d
       0.034666874 -0.032302916 -0.01995077 0.058957092
000030 ab d5 8f bd d4 d7 0d bd d3 22 fe bc dd de fb bc
       -0.07023176 -0.034629658 -0.031022465 -0.030745918
000040 a0 e1 d4 3c 12 0e 0c bd 68 da 2b 3d 93 cb a4 3c
       0.025986493 -0.034193106 0.041956335 0.020116603
000050 73 e2 18 bd 75 d6 17 bc c8 49 74 bc 3f e7 4e bd
       -0.037325334 -0.009267439 -0.014910169 -0.050513502
000060 49 c4 53 3c 7f 37 2c bd ab ae 84 bb 97 6c 8f 3d
       0.012925216 -0.042045113 -0.0040491424 0.07003134
000070 d5 86 0c bd e5 bc fb bc 51 eb d5 3c 3f 81 12 3c
       -0.034308273 -0.03072972 0.026113184 0.0089419475
000080 5a 31 9d bc ae 6c 4a 3c c7 02 a8 bc b1 e3 39 bd
       -0.019188572 0.012355013 -0.020509137 -0.04538316
000090 09 e9 f3 ba 4c e5 13 bd 7c da 2b 3d 78 31 51 bd
       -0.0018608879 -0.036107346 0.04195641 -0.051072568
0000a0 fd 72 b0 bc 6f 60 25 3d a0 eb 11 bc 99 dd f0 3b
       -0.021539206 0.04037517 -0.008906275 0.0073506352
0000b0 e4 94 39 3d d8 8a 85 bc 85 53 9a 3c df 75 20 3c
       0.04530801 -0.016301557 0.018838653 0.009793728
0000c0 bc b8 a9 bc f9 ae 3e bd c8 c1 17 bd 73 55 1f bb
       -0.020717971 -0.046553586 -0.03705004 -0.0024312406
0000d0 d4 c5 13 3d 35 48 ff 3c b8 bb 8a bc aa 4c 46 bd
       0.036077335 0.03116236 -0.016935214 -0.048412956
0000e0 81 48 61 bc b9 83 06 bd 55 91 23 bd f0 a3 47 3d
       -0.013750196 -0.032840464 -0.03993352 0.048740327
0000f0 f2 d2 97 3d f5 ec 8e bc 89 92 83 3c 7e 1b f4 bc
       0.074132815 -0.017446974 0.016061084 -0.029798266
000100 72 4e 25 3d 28 59 9e 3c 94 38 f7 bc 5b 28 28 b9
       0.040358014 0.019329622 -0.030178346 -0.00016036762
000110 6b 5c 77 3d d6 f4 04 bd 93 57 69 bc ce 15 e2 bc
       0.06039087 -0.032460056 -0.014242071 -0.027598288
000120 98 bc 99 3d 35 e4 76 3d 4e 42 1b bd 9f bf ab 3d
       0.075066745 0.06027623 -0.03790503 0.08386158
000130 84 2c f3 3c 4d 42 2c 3d 24 6d e0 bc f6 d7 e4 bc
       0.029684313 0.042055417 -0.027395792 -0.02793501
000140 a7 af c7 3c 24 c7 a7 3c cf c5 91 bd 4c f4 0b bd
       0.02437575 0.0204807 -0.07117807 -0.034168527
000150 5b 7f 2d bc 23 87 b4 3c bc 18 37 bd 88 67 74 bc
       -0.010589446 0.022037094 -0.044701323 -0.014917262
000160 76 c5 69 3d 51 84 08 3c 99 41 a4 3d 53 4d a7 bc
       0.05707308 0.008332328 0.08020324 -0.020422613
000170 c2 06 ed 3c 31 40 45 bb 0e f8 30 3d 23 e3 0a 3d
       0.028933886 -0.0030098076 0.043205313 0.03390802
000180 41 ae a2 bd 78 a2 1f bd f3 11 90 bb ce ba b9 bb
       -0.079433925 -0.0389733 -0.004396671 -0.005668021
000190 64 f6 1a bd ad cd 97 bb e8 fd 35 3a 32 0d f3 3c
       -0.037832633 -0.0046326728 0.0006942437 0.029669378
0001a0 55 4b 14 3c 57 3f 2c bd b8 8a 4f 3c 03 c2 17 3d
       0.009051164 -0.042052593 0.0126673505 0.03705026
0001b0 fe 45 28 3d 17 9b ab 3b 4e c2 55 bd 48 ef c1 3c
       0.041082375 0.005236994 -0.052187257 0.023673669
0001c0 6f a5 26 3d c5 1a ff bb 2a 85 e8 3c 9f d3 e8 bc
       0.040685114 -0.0077851736 0.02838381 -0.028421221
0001d0 b4 c4 b3 bc 6a 6b 1d bd 8f 96 41 bd 55 61 93 3b
       -0.021944381 -0.038432516 -0.047262724 0.004497687
0001e0 c6 66 2e 3d 41 93 74 3d 2d 74 49 bd 17 99 34 bc
       0.04257848 0.059710745 -0.04918306 -0.011022828
0001f0 5c 40 71 bd 80 d5 c7 bc 46 16 cc bc 1c 15 90 bc
       -0.05889927 -0.024393797 -0.024912965 -0.01758819
000200 cc 12 41 3d 7f f8 ed 3c 26 6f a1 bd 56 0f 8f bc
       0.047137067 0.029049156 -0.07882528 -0.017463367
000210 d1 c1 8d bc 42 b7 52 3d ca c6 a9 bc 4a 8c 5c 3b
       -0.017304333 0.0514443 -0.020724673 0.0033652955
000220 e8 03 1c bd 23 5b cb 3c 14 52 42 3d 7e f0 45 3d
       -0.038089663 0.02482373 0.047441557 0.048325054
000230 1a f5 97 bb d5 32 0f bd 7e 23 14 3d 0f c2 2b 3c
       -0.0046373727 -0.034960587 0.03616666 0.010483279
000240 74 12 4a 3d aa 1e aa bc 2e 37 84 bb de 11 59 bc
       0.049334005 -0.020766575 -0.0040348982 -0.013248889
000250 3f 08 6d bc fa 00 87 bc 12 e1 20 bd b3 a6 0b bc
       -0.014467298 -0.016479958 -0.039277144 -0.008523631
000260 73 ff 34 bd 71 79 dd 3c 13 b6 4c bd 10 35 b2 3c
       -0.044188928 0.027035447 -0.049978327 0.021753818
000270 bd f9 52 3c 3a 8b 81 3d bc be 96 3d b9 2b 7e bd
       0.012876925 0.063253835 0.073605984 -0.062053416
000280 0b 2e 61 bd 71 81 21 3d 56 6c 2a bd 05 9c d3 3c
       -0.05497555 0.039430086 -0.041607223 0.025831232
000290 28 d8 3c ba 51 3f d4 3a f1 69 32 bd 58 6a 64 ba
       -0.00072038407 0.0016193186 -0.043558065 -0.0008713356
0002a0 b0 db 03 3d d0 a1 ef bc 27 92 19 3d 68 2b e5 3c
       0.032191932 -0.029251963 0.037492897 0.0279748
0002b0 b7 34 1f 3d 73 71 6e 3c 8f 0b 32 bd b4 9e 74 bd
       0.038868632 0.014553416 -0.043468054 -0.059721664
0002c0 9f 9d f3 bc a3 28 5e 3d 31 90 0e bd f6 34 ed 3c
       -0.029738246 0.054237973 -0.03480548 0.028955918
0002d0 e0 70 0e 3d f7 cf 03 3d 25 fc e5 bc fb 19 7e bd
       0.034775615 0.032180753 -0.028074333 -0.062036496
0002e0 82 9f 42 bd 9b 2d 93 bd 34 9f 04 bd 41 e5 93 bc
       -0.0475154 -0.07186433 -0.03237839 -0.018053653
0002f0 f9 68 44 bd d2 01 fd 3c a3 ca cd 3c a8 95 ab bb
       -0.047951672 0.030884657 0.025121039 -0.0052363463
000300 1d 5c f2 bc 23 ce a9 bd f3 e0 87 3c dc fd 4a bd
       -0.029584939 -0.082912706 0.016586756 -0.049558505
000310 6c 17 eb 3c 66 68 0d 3d 78 f8 b8 3c ca 28 71 3c
       0.028697692 0.03452339 0.022579417 0.0147191975
000320 2b 26 2b 3c 9b 40 4a 3c de a2 19 bd a2 79 10 3d
       0.010446112 0.012344505 -0.037508838 0.035272248
000330 f2 61 e4 3b 00 bb 0b 3a da 13 2f bb fa 88 47 3d
       0.006969684 0.00053302944 -0.0026714713 0.048714615
000340 ef 6d 4d bc 56 c1 7e 3d 2a 45 2d bd 9e 55 23 3d
       -0.012538417 0.0621961 -0.042302288 0.039876573
000350 7c 92 54 bb 3c 20 a4 3b 50 3d 51 3d 18 43 26 3d
       -0.0032435944 0.0050087254 0.051083863 0.04059133
000360 35 b1 4e 3d 0a 87 d1 bb fe 5e 10 bc c7 af e7 3c
       0.050461967 -0.0063942717 -0.00881171 0.02828206
000370 7d 51 e0 bc d3 f0 6c 3d 2d c2 65 bc 48 0e ad 3c
       -0.027382607 0.057846855 -0.014023346 0.021124974
000380 26 c5 03 3c db de b0 bb a6 13 89 3d b9 ef 9c 3c
       0.008042609 -0.00539766 0.06693201 0.019157277
000390 2b 14 83 3c e0 b1 7f bd ef 9c 4d bd 73 a1 20 bd
       0.016000828 -0.062425494 -0.05019849 -0.03921647
0003a0 ce 64 e7 3c 13 40 57 bc 76 93 11 3a be c9 30 bc
       0.02824631 -0.013137835 0.00055532844 -0.010790287
0003b0 8e 2a e9 bb e9 55 7c 3d ba 55 c2 bc bc c8 51 bd
       -0.0071156686 0.061605368 -0.023722518 -0.051216826
0003c0 93 8e 83 3c f5 02 b7 bc 9c d4 2c bd 3b 60 4c 3d
       0.016059196 -0.022340277 -0.042194948 0.04989646
0003d0 97 eb ca 3c 66 ae 6e bc 84 ab 67 3c 16 66 a8 bc
       0.024770541 -0.014567947 0.014140014 -0.02055649
0003e0 aa 0c cf 3b c4 78 44 bd 13 cc 80 3c 83 12 20 3d
       0.0063186483 -0.047966734 0.01572231 0.039080154
0003f0 56 60 eb bc 84 8a 3e bb bc f9 a0 bd 39 e6 cd bc
       -0.02873246 -0.002907426 -0.07860133 -0.025134193

action_model._continuous_distribution.mu.bias f4 [2]
000000 5f 8a af 3b f9 ed d5 bb
       0.0053570713 -0.0065286127
